…
[2024-08-09 17:21:35] Epoch 20/50, Training Loss: 0.2785, Training Accuracy: 91.33%
[2024-08-09 17:21:49] Epoch 20/50, Validation Loss: 0.2921, Validation Accuracy: 91.38%
[2024-08-09 17:23:54] Epoch 21/50, Training Loss: 0.2612, Training Accuracy: 91.91%
[2024-08-09 17:24:08] Epoch 21/50, Validation Loss: 0.2772, Validation Accuracy: 91.76%
[2024-08-09 17:26:08] Epoch 22/50, Training Loss: 0.2562, Training Accuracy: 91.98%
[2024-08-09 17:26:21] Epoch 22/50, Validation Loss: 0.2810, Validation Accuracy: 91.52%
[2024-08-09 17:31:21] New training session
[2024-08-09 17:31:21] KeywordSpottingModel(
  (proj): Linear(in_features=13, out_features=101, bias=True)
  (mamba): Mamba(
    (in_proj): Linear(in_features=101, out_features=404, bias=False)
    (conv1d): Conv1d(202, 202, kernel_size=(4,), stride=(1,), padding=(3,), groups=202)
    (act): SiLU()
    (x_proj): Linear(in_features=202, out_features=39, bias=False)
    (dt_proj): Linear(in_features=7, out_features=202, bias=True)
    (out_proj): Linear(in_features=202, out_features=101, bias=False)
  )
  (fc): Linear(in_features=101, out_features=12, bias=True)
)
[2024-08-09 17:35:41] New training session
[2024-08-09 17:35:41] KeywordSpottingModel(
  (proj): Linear(in_features=13, out_features=101, bias=True)
  (mamba): Mamba(
    (in_proj): Linear(in_features=101, out_features=404, bias=False)
    (conv1d): Conv1d(202, 202, kernel_size=(4,), stride=(1,), padding=(3,), groups=202)
    (act): SiLU()
    (x_proj): Linear(in_features=202, out_features=39, bias=False)
    (dt_proj): Linear(in_features=7, out_features=202, bias=True)
    (out_proj): Linear(in_features=202, out_features=101, bias=False)
  )
  (fc): Linear(in_features=101, out_features=12, bias=True)
)
[2024-08-09 17:39:16] Epoch 1/50, Training Loss: 7.7406, Training Accuracy: 60.28%
[2024-08-09 17:39:27] Epoch 1/50, Validation Loss: 1.2317, Validation Accuracy: 64.42%
[2024-08-09 17:42:06] Epoch 2/50, Training Loss: 0.9384, Training Accuracy: 71.14%
[2024-08-09 17:42:17] Epoch 2/50, Validation Loss: 0.7079, Validation Accuracy: 76.81%
[2024-08-09 17:44:57] Epoch 3/50, Training Loss: 0.6427, Training Accuracy: 79.55%
…
[2024-08-09 18:54:53] Epoch 23/50, Validation Loss: 0.3223, Validation Accuracy: 90.71%
[2024-08-09 18:57:33] Epoch 24/50, Training Loss: 0.2542, Training Accuracy: 91.98%
[2024-08-09 18:57:43] Epoch 24/50, Validation Loss: 0.3238, Validation Accuracy: 90.51%
[2024-08-09 19:00:24] Epoch 25/50, Training Loss: 0.2531, Training Accuracy: 92.10%
[2024-08-09 19:00:36] Epoch 25/50, Validation Loss: 0.3218, Validation Accuracy: 90.64%
[2024-08-09 19:03:17] Epoch 26/50, Training Loss: 0.2514, Training Accuracy: 92.03%
[2024-08-09 19:03:28] Training complete.
[2024-08-09 19:58:57] New training session
[2024-08-09 19:58:57] KeywordSpottingModel(
  (proj): Linear(in_features=13, out_features=101, bias=True)
  (mamba): Mamba(
    (in_proj): Linear(in_features=101, out_features=404, bias=False)
    (conv1d): Conv1d(202, 202, kernel_size=(4,), stride=(1,), padding=(3,), groups=202)
    (act): SiLU()
    (x_proj): Linear(in_features=202, out_features=39, bias=False)
    (dt_proj): Linear(in_features=7, out_features=202, bias=True)
    (out_proj): Linear(in_features=202, out_features=101, bias=False)
  )
  (fc): Linear(in_features=101, out_features=12, bias=True)
  (dropout): Dropout(p=0.3, inplace=False)
)
[2024-08-09 20:02:31] Epoch 1/50, Training Loss: 19.6589, Training Accuracy: 54.53%
[2024-08-09 20:02:48] Epoch 1/50, Validation Loss: 1.4244, Validation Accuracy: 63.27%
[2024-08-09 20:06:20] Epoch 2/50, Training Loss: 1.2154, Training Accuracy: 65.86%
[2024-08-09 20:06:37] Epoch 2/50, Validation Loss: 0.8718, Validation Accuracy: 72.04%
…
[2024-08-09 22:09:08] Epoch 40/50, Validation Loss: 0.2968, Validation Accuracy: 91.24%
[2024-08-09 22:11:49] Epoch 41/50, Training Loss: 0.2767, Training Accuracy: 91.27%
[2024-08-09 22:12:00] Epoch 41/50, Validation Loss: 0.2892, Validation Accuracy: 91.51%
[2024-08-09 22:14:43] Epoch 42/50, Training Loss: 0.2791, Training Accuracy: 91.37%
[2024-08-09 22:14:54] Epoch 42/50, Validation Loss: 0.2890, Validation Accuracy: 91.29%
[2024-08-09 22:17:36] Epoch 43/50, Training Loss: 0.2779, Training Accuracy: 91.38%
[2024-08-09 22:17:47] Training complete.
[2024-08-10 09:35:05] New training session
[2024-08-10 09:35:05] KeywordSpottingModel(
  (proj): Linear(in_features=13, out_features=101, bias=True)
  (mamba): Mamba(
    (in_proj): Linear(in_features=101, out_features=404, bias=False)
    (conv1d): Conv1d(202, 202, kernel_size=(4,), stride=(1,), padding=(3,), groups=202)
    (act): SiLU()
    (x_proj): Linear(in_features=202, out_features=39, bias=False)
    (dt_proj): Linear(in_features=7, out_features=202, bias=True)
    (out_proj): Linear(in_features=202, out_features=101, bias=False)
  )
  (mamba2): Mamba(
    (in_proj): Linear(in_features=202, out_features=1616, bias=False)
    (conv1d): Conv1d(808, 808, kernel_size=(8,), stride=(1,), padding=(7,), groups=808)
    (act): SiLU()
    (x_proj): Linear(in_features=808, out_features=77, bias=False)
    (dt_proj): Linear(in_features=13, out_features=808, bias=True)
    (out_proj): Linear(in_features=808, out_features=202, bias=False)
  )
  (fc): Linear(in_features=101, out_features=12, bias=True)
  (dropout): Dropout(p=0.3, inplace=False)
)
[2024-08-10 09:35:51] New training session
[2024-08-10 09:35:51] KeywordSpottingModel(
  (proj): Linear(in_features=13, out_features=101, bias=True)
  (mamba): Mamba(
    (in_proj): Linear(in_features=101, out_features=404, bias=False)
    (conv1d): Conv1d(202, 202, kernel_size=(4,), stride=(1,), padding=(3,), groups=202)
    (act): SiLU()
    (x_proj): Linear(in_features=202, out_features=39, bias=False)
    (dt_proj): Linear(in_features=7, out_features=202, bias=True)
    (out_proj): Linear(in_features=202, out_features=101, bias=False)
  )
  (mamba2): Mamba(
    (in_proj): Linear(in_features=101, out_features=808, bias=False)
    (conv1d): Conv1d(404, 404, kernel_size=(4,), stride=(1,), padding=(3,), groups=404)
    (act): SiLU()
    (x_proj): Linear(in_features=404, out_features=39, bias=False)
    (dt_proj): Linear(in_features=7, out_features=404, bias=True)
    (out_proj): Linear(in_features=404, out_features=101, bias=False)
  )
  (fc): Linear(in_features=101, out_features=12, bias=True)
  (dropout): Dropout(p=0.3, inplace=False)
)
[2024-08-10 09:36:44] New training session
[2024-08-10 09:36:44] KeywordSpottingModel(
  (proj): Linear(in_features=13, out_features=101, bias=True)
  (mamba): Mamba(
    (in_proj): Linear(in_features=101, out_features=404, bias=False)
    (conv1d): Conv1d(202, 202, kernel_size=(4,), stride=(1,), padding=(3,), groups=202)
    (act): SiLU()
    (x_proj): Linear(in_features=202, out_features=39, bias=False)
    (dt_proj): Linear(in_features=7, out_features=202, bias=True)
    (out_proj): Linear(in_features=202, out_features=101, bias=False)
  )
  (mamba2): Mamba(
    (in_proj): Linear(in_features=101, out_features=808, bias=False)
    (conv1d): Conv1d(404, 404, kernel_size=(4,), stride=(1,), padding=(3,), groups=404)
    (act): SiLU()
    (x_proj): Linear(in_features=404, out_features=39, bias=False)
    (dt_proj): Linear(in_features=7, out_features=404, bias=True)
    (out_proj): Linear(in_features=404, out_features=101, bias=False)
  )
  (fc): Linear(in_features=101, out_features=12, bias=True)
  (dropout): Dropout(p=0.3, inplace=False)
)
[2024-08-10 09:39:57] Epoch 1/50, Training Loss: 7180141852624094077386752.0000, Training Accuracy: 6.05%
[2024-08-10 09:40:14] Epoch 1/50, Validation Loss: 12718400617905103701016576.0000, Validation Accuracy: 6.37%
[2024-08-10 09:43:27] Epoch 2/50, Training Loss: 6200177145810111302729728.0000, Training Accuracy: 6.02%
[2024-08-10 09:48:15] New training session
[2024-08-10 09:48:15] KeywordSpottingModel(
  (proj): Linear(in_features=13, out_features=101, bias=True)
  (mamba): Mamba(
    (in_proj): Linear(in_features=101, out_features=404, bias=False)
    (conv1d): Conv1d(202, 202, kernel_size=(4,), stride=(1,), padding=(3,), groups=202)
    (act): SiLU()
    (x_proj): Linear(in_features=202, out_features=39, bias=False)
    (dt_proj): Linear(in_features=7, out_features=202, bias=True)
    (out_proj): Linear(in_features=202, out_features=101, bias=False)
  )
  (mamba2): Mamba(
    (in_proj): Linear(in_features=101, out_features=808, bias=False)
    (conv1d): Conv1d(404, 404, kernel_size=(4,), stride=(1,), padding=(3,), groups=404)
    (act): SiLU()
    (x_proj): Linear(in_features=404, out_features=39, bias=False)
    (dt_proj): Linear(in_features=7, out_features=404, bias=True)
    (out_proj): Linear(in_features=404, out_features=101, bias=False)
  )
  (fc): Linear(in_features=101, out_features=12, bias=True)
  (dropout): Dropout(p=0.3, inplace=False)
)
[2024-08-10 09:51:48] Epoch 1/50, Training Loss: 5.1019, Training Accuracy: 60.58%
[2024-08-10 14:03:48] New training session
[2024-08-10 14:03:48] KeywordSpottingModel(
  (proj): Linear(in_features=13, out_features=101, bias=True)
  (mamba): Mamba(
    (in_proj): Linear(in_features=101, out_features=404, bias=False)
    (conv1d): Conv1d(202, 202, kernel_size=(4,), stride=(1,), padding=(3,), groups=202)
    (act): SiLU()
    (x_proj): Linear(in_features=202, out_features=39, bias=False)
    (dt_proj): Linear(in_features=7, out_features=202, bias=True)
    (out_proj): Linear(in_features=202, out_features=101, bias=False)
  )
  (mamba2): Mamba(
    (in_proj): Linear(in_features=101, out_features=808, bias=False)
    (conv1d): Conv1d(404, 404, kernel_size=(4,), stride=(1,), padding=(3,), groups=404)
    (act): SiLU()
    (x_proj): Linear(in_features=404, out_features=39, bias=False)
    (dt_proj): Linear(in_features=7, out_features=404, bias=True)
    (out_proj): Linear(in_features=404, out_features=101, bias=False)
  )
  (fc): Linear(in_features=101, out_features=12, bias=True)
  (dropout): Dropout(p=0.3, inplace=False)
)
[2024-08-10 14:05:38] New training session
[2024-08-10 14:05:38] KeywordSpottingModel(
  (proj): Linear(in_features=13, out_features=101, bias=True)
  (mamba): Mamba(
    (in_proj): Linear(in_features=101, out_features=404, bias=False)
    (conv1d): Conv1d(202, 202, kernel_size=(4,), stride=(1,), padding=(3,), groups=202)
    (act): SiLU()
    (x_proj): Linear(in_features=202, out_features=39, bias=False)
    (dt_proj): Linear(in_features=7, out_features=202, bias=True)
    (out_proj): Linear(in_features=202, out_features=101, bias=False)
  )
  (fc): Linear(in_features=101, out_features=12, bias=True)
  (dropout): Dropout(p=0.3, inplace=False)
)
[2024-08-10 14:06:14] New training session
[2024-08-10 14:06:14] KeywordSpottingModel(
  (proj): Linear(in_features=13, out_features=101, bias=True)
  (mamba): Mamba(
    (in_proj): Linear(in_features=101, out_features=404, bias=False)
    (conv1d): Conv1d(202, 202, kernel_size=(4,), stride=(1,), padding=(3,), groups=202)
    (act): SiLU()
    (x_proj): Linear(in_features=202, out_features=39, bias=False)
    (dt_proj): Linear(in_features=7, out_features=202, bias=True)
    (out_proj): Linear(in_features=202, out_features=101, bias=False)
  )
  (fc): Linear(in_features=101, out_features=12, bias=True)
  (dropout): Dropout(p=0.5, inplace=False)
)
[2024-08-10 14:09:42] Epoch 1/50, Training Loss: 10.9751, Training Accuracy: 55.65%
[2024-08-10 17:51:09] 

New training session


[2024-08-10 17:51:09] KeywordSpottingModel(
  (proj): Linear(in_features=13, out_features=101, bias=True)
  (mamba): Mamba(
    (in_proj): Linear(in_features=101, out_features=404, bias=False)
    (conv1d): Conv1d(202, 202, kernel_size=(4,), stride=(1,), padding=(3,), groups=202)
    (act): SiLU()
    (x_proj): Linear(in_features=202, out_features=39, bias=False)
    (dt_proj): Linear(in_features=7, out_features=202, bias=True)
    (out_proj): Linear(in_features=202, out_features=101, bias=False)
  )
  (fc): Linear(in_features=101, out_features=12, bias=True)
  (dropout): Dropout(p=0.5, inplace=False)
)
[2024-08-10 17:54:24] Epoch 1/50, Training Loss: 9.1967, Training Accuracy: 56.57%
[2024-08-10 17:54:40] Epoch 1/50, Validation Loss: 1.3627, Validation Accuracy: 63.37%
[2024-08-10 17:57:10] Epoch 2/50, Training Loss: 1.1304, Training Accuracy: 67.43%
[2024-08-10 17:57:21] Epoch 2/50, Validation Loss: 0.8194, Validation Accuracy: 73.66%
…
[2024-08-11 17:57:20] Epoch 39/50, Validation Loss: 0.2306, Validation Accuracy: 93.43%
[2024-08-11 18:00:58] Epoch 40/50, Training Loss: 0.1765, Training Accuracy: 94.50%
[2024-08-11 18:01:10] Epoch 40/50, Validation Loss: 0.2327, Validation Accuracy: 93.20%
[2024-08-11 18:03:57] Epoch 41/50, Training Loss: 0.1740, Training Accuracy: 94.54%
[2024-08-11 18:04:09] Epoch 41/50, Validation Loss: 0.2383, Validation Accuracy: 93.31%
[2024-08-11 18:07:19] Epoch 42/50, Training Loss: 0.1702, Training Accuracy: 94.61%
[2024-08-11 18:07:36] Training complete.
[2024-08-11 21:55:45] 

New training session


[2024-08-11 21:55:45] KeywordSpottingModel(
  (proj): Linear(in_features=13, out_features=101, bias=True)
  (mamba): Mamba(
    (in_proj): Linear(in_features=101, out_features=404, bias=False)
    (conv1d): Conv1d(202, 202, kernel_size=(4,), stride=(1,), padding=(3,), groups=202)
    (act): SiLU()
    (x_proj): Linear(in_features=202, out_features=39, bias=False)
    (dt_proj): Linear(in_features=7, out_features=202, bias=True)
    (out_proj): Linear(in_features=202, out_features=101, bias=False)
  )
  (fc): Linear(in_features=101, out_features=12, bias=True)
  (dropout): Dropout(p=0.5, inplace=False)
)
[2024-08-11 21:57:10] 

New training session


[2024-08-11 21:57:10] KeywordSpottingModel(
  (proj): Linear(in_features=13, out_features=101, bias=True)
  (mamba): Mamba(
    (in_proj): Linear(in_features=101, out_features=404, bias=False)
    (conv1d): Conv1d(202, 202, kernel_size=(4,), stride=(1,), padding=(3,), groups=202)
    (act): SiLU()
    (x_proj): Linear(in_features=202, out_features=39, bias=False)
    (dt_proj): Linear(in_features=7, out_features=202, bias=True)
    (out_proj): Linear(in_features=202, out_features=101, bias=False)
  )
  (fc): Linear(in_features=101, out_features=12, bias=True)
  (dropout): Dropout(p=0.5, inplace=False)
)
[2024-08-11 21:58:20] 

New training session


[2024-08-11 21:58:20] KeywordSpottingModel(
  (proj): Linear(in_features=13, out_features=101, bias=True)
  (mamba): Mamba(
    (in_proj): Linear(in_features=101, out_features=404, bias=False)
    (conv1d): Conv1d(202, 202, kernel_size=(4,), stride=(1,), padding=(3,), groups=202)
    (act): SiLU()
    (x_proj): Linear(in_features=202, out_features=39, bias=False)
    (dt_proj): Linear(in_features=7, out_features=202, bias=True)
    (out_proj): Linear(in_features=202, out_features=101, bias=False)
  )
  (fc): Linear(in_features=101, out_features=12, bias=True)
  (dropout): Dropout(p=0.5, inplace=False)
)
[2024-08-11 21:58:25] 

New training session


[2024-08-11 21:58:25] KeywordSpottingModel(
  (proj): Linear(in_features=13, out_features=101, bias=True)
  (mamba): Mamba(
    (in_proj): Linear(in_features=101, out_features=404, bias=False)
    (conv1d): Conv1d(202, 202, kernel_size=(4,), stride=(1,), padding=(3,), groups=202)
    (act): SiLU()
    (x_proj): Linear(in_features=202, out_features=39, bias=False)
    (dt_proj): Linear(in_features=7, out_features=202, bias=True)
    (out_proj): Linear(in_features=202, out_features=101, bias=False)
  )
  (fc): Linear(in_features=101, out_features=12, bias=True)
  (dropout): Dropout(p=0.5, inplace=False)
)
[2024-08-11 21:59:46] 

New training session


[2024-08-11 21:59:46] KeywordSpottingModel(
  (proj): Linear(in_features=13, out_features=101, bias=True)
  (mamba): Mamba(
    (in_proj): Linear(in_features=101, out_features=404, bias=False)
    (conv1d): Conv1d(202, 202, kernel_size=(4,), stride=(1,), padding=(3,), groups=202)
    (act): SiLU()
    (x_proj): Linear(in_features=202, out_features=39, bias=False)
    (dt_proj): Linear(in_features=7, out_features=202, bias=True)
    (out_proj): Linear(in_features=202, out_features=101, bias=False)
  )
  (fc): Linear(in_features=101, out_features=12, bias=True)
  (dropout): Dropout(p=0.5, inplace=False)
)
[2024-08-11 22:01:26] 

New training session


[2024-08-11 22:01:26] KeywordSpottingModel(
  (proj): Linear(in_features=13, out_features=101, bias=True)
  (mamba): Mamba(
    (in_proj): Linear(in_features=101, out_features=404, bias=False)
    (conv1d): Conv1d(202, 202, kernel_size=(4,), stride=(1,), padding=(3,), groups=202)
    (act): SiLU()
    (x_proj): Linear(in_features=202, out_features=39, bias=False)
    (dt_proj): Linear(in_features=7, out_features=202, bias=True)
    (out_proj): Linear(in_features=202, out_features=101, bias=False)
  )
  (fc): Linear(in_features=101, out_features=12, bias=True)
  (dropout): Dropout(p=0.5, inplace=False)
)
[2024-08-11 22:03:55] 

New training session


[2024-08-11 22:03:55] KeywordSpottingModel(
  (proj): Linear(in_features=13, out_features=101, bias=True)
  (mamba): Mamba(
    (in_proj): Linear(in_features=101, out_features=404, bias=False)
    (conv1d): Conv1d(202, 202, kernel_size=(4,), stride=(1,), padding=(3,), groups=202)
    (act): SiLU()
    (x_proj): Linear(in_features=202, out_features=39, bias=False)
    (dt_proj): Linear(in_features=7, out_features=202, bias=True)
    (out_proj): Linear(in_features=202, out_features=101, bias=False)
  )
  (fc): Linear(in_features=101, out_features=12, bias=True)
  (dropout): Dropout(p=0.5, inplace=False)
)
[2024-08-11 22:07:17] Epoch 1/50, Training Loss: 55.7434, Training Accuracy: 42.04%
[2024-08-11 22:07:35] Epoch 1/50, Validation Loss: 2.0875, Validation Accuracy: 60.21%
[2024-08-11 22:10:57] Epoch 2/50, Training Loss: 2.2967, Training Accuracy: 53.11%
[2024-08-11 22:11:14] Epoch 2/50, Validation Loss: 1.5820, Validation Accuracy: 61.61%
…
[2024-08-12 00:50:10] Epoch 48/50, Training Loss: 0.1684, Training Accuracy: 94.70%
[2024-08-12 00:50:24] Epoch 48/50, Validation Loss: 0.2291, Validation Accuracy: 93.56%
[2024-08-12 00:53:11] Epoch 49/50, Training Loss: 0.1657, Training Accuracy: 94.74%
[2024-08-12 00:53:28] Epoch 49/50, Validation Loss: 0.2318, Validation Accuracy: 93.71%
[2024-08-12 00:56:51] Epoch 50/50, Training Loss: 0.1641, Training Accuracy: 94.83%
[2024-08-12 00:57:08] Epoch 50/50, Validation Loss: 0.2290, Validation Accuracy: 93.69%
[2024-08-12 00:57:08] Training complete.

[2024-08-13 15:51:10] 

New training session


[2024-08-13 15:51:10] KeywordSpottingModel(
  (proj): Linear(in_features=13, out_features=101, bias=True)
  (mamba): Mamba(
    (in_proj): Linear(in_features=101, out_features=404, bias=False)
    (conv1d): Conv1d(202, 202, kernel_size=(4,), stride=(1,), padding=(3,), groups=202)
    (act): SiLU()
    (x_proj): Linear(in_features=202, out_features=39, bias=False)
    (dt_proj): Linear(in_features=7, out_features=202, bias=True)
    (out_proj): Linear(in_features=202, out_features=101, bias=False)
  )
  (fc): Linear(in_features=101, out_features=12, bias=True)
  (dropout): Dropout(p=0.5, inplace=False)
)
[2024-08-13 15:52:10] 

New training session


[2024-08-13 15:52:10] KeywordSpottingModel(
  (proj): Linear(in_features=13, out_features=101, bias=True)
  (mamba): Mamba(
    (in_proj): Linear(in_features=101, out_features=404, bias=False)
    (conv1d): Conv1d(202, 202, kernel_size=(4,), stride=(1,), padding=(3,), groups=202)
    (act): SiLU()
    (x_proj): Linear(in_features=202, out_features=39, bias=False)
    (dt_proj): Linear(in_features=7, out_features=202, bias=True)
    (out_proj): Linear(in_features=202, out_features=101, bias=False)
  )
  (fc): Linear(in_features=101, out_features=12, bias=True)
  (dropout): Dropout(p=0.5, inplace=False)
)
[2024-08-13 15:53:24] Epoch 1/50, Training Loss: 33.9060, Training Accuracy: 42.88%
[2024-08-13 15:53:31] Epoch 1/50, Validation Loss: 1.8128, Validation Accuracy: 61.45%
[2024-08-13 15:54:41] Epoch 2/50, Training Loss: 2.0365, Training Accuracy: 55.07%
[2024-08-13 15:54:48] Epoch 2/50, Validation Loss: 1.5494, Validation Accuracy: 61.75%
[2024-08-13 15:55:55] Epoch 3/50, Training Loss: 1.6307, Training Accuracy: 60.32%
[2024-08-13 15:56:02] Epoch 3/50, Validation Loss: 1.3934, Validation Accuracy: 62.77%
[2024-08-13 15:57:03] Epoch 4/50, Training Loss: 1.4149, Training Accuracy: 62.84%
[2024-08-13 15:57:10] Epoch 4/50, Validation Loss: 1.2129, Validation Accuracy: 64.17%
[2024-08-13 15:58:08] 

New training session


[2024-08-13 15:58:08] KeywordSpottingModel(
  (proj): Linear(in_features=13, out_features=101, bias=True)
  (mamba): Mamba(
    (in_proj): Linear(in_features=101, out_features=404, bias=False)
    (conv1d): Conv1d(202, 202, kernel_size=(4,), stride=(1,), padding=(3,), groups=202)
    (act): SiLU()
    (x_proj): Linear(in_features=202, out_features=39, bias=False)
    (dt_proj): Linear(in_features=7, out_features=202, bias=True)
    (out_proj): Linear(in_features=202, out_features=101, bias=False)
  )
  (fc): Linear(in_features=101, out_features=12, bias=True)
  (dropout): Dropout(p=0.5, inplace=False)
)
[2024-08-13 15:59:21] Epoch 1/100, Training Loss: 12.1786, Training Accuracy: 51.75%
[2024-08-13 15:59:28] Epoch 1/100, Validation Loss: 1.5145, Validation Accuracy: 61.90%
[2024-08-13 16:00:41] Epoch 2/100, Training Loss: 1.5494, Training Accuracy: 61.78%
[2024-08-13 16:00:48] Epoch 2/100, Validation Loss: 1.3095, Validation Accuracy: 63.68%
…
[2024-08-13 19:05:36] Epoch 48/50, Training Loss: 0.2277, Training Accuracy: 92.72%
[2024-08-13 19:05:43] Epoch 48/50, Validation Loss: 0.2712, Validation Accuracy: 91.99%
[2024-08-13 19:06:42] Epoch 49/50, Training Loss: 0.2255, Training Accuracy: 92.82%
[2024-08-13 19:06:48] Epoch 49/50, Validation Loss: 0.2774, Validation Accuracy: 91.84%
[2024-08-13 19:07:45] Epoch 50/50, Training Loss: 0.2235, Training Accuracy: 92.78%
[2024-08-13 19:07:51] Epoch 50/50, Validation Loss: 0.2840, Validation Accuracy: 92.08%
[2024-08-13 19:07:51] Training complete.
[2024-08-14 07:49:31] 

New training session


[2024-08-14 07:49:31] KeywordSpottingModel(
  (proj): Linear(in_features=13, out_features=101, bias=True)
  (mamba): Mamba(
    (in_proj): Linear(in_features=101, out_features=404, bias=False)
    (conv1d): Conv1d(202, 202, kernel_size=(4,), stride=(1,), padding=(3,), groups=202)
    (act): SiLU()
    (x_proj): Linear(in_features=202, out_features=39, bias=False)
    (dt_proj): Linear(in_features=7, out_features=202, bias=True)
    (out_proj): Linear(in_features=202, out_features=101, bias=False)
  )
  (fc): Linear(in_features=101, out_features=12, bias=True)
  (dropout): Dropout(p=0.5, inplace=False)
)
[2024-08-14 07:53:02] 

New training session


[2024-08-14 07:53:02] KeywordSpottingModel(
  (proj): Linear(in_features=13, out_features=101, bias=True)
  (mamba): Mamba(
    (in_proj): Linear(in_features=101, out_features=404, bias=False)
    (conv1d): Conv1d(202, 202, kernel_size=(4,), stride=(1,), padding=(3,), groups=202)
    (act): SiLU()
    (x_proj): Linear(in_features=202, out_features=39, bias=False)
    (dt_proj): Linear(in_features=7, out_features=202, bias=True)
    (out_proj): Linear(in_features=202, out_features=101, bias=False)
  )
  (fc): Linear(in_features=101, out_features=12, bias=True)
  (dropout): Dropout(p=0.5, inplace=False)
)
[2024-08-14 07:54:41] 

New training session


[2024-08-14 07:54:41] KeywordSpottingModel(
  (proj): Linear(in_features=16, out_features=101, bias=True)
  (mamba): Mamba(
    (in_proj): Linear(in_features=101, out_features=404, bias=False)
    (conv1d): Conv1d(202, 202, kernel_size=(4,), stride=(1,), padding=(3,), groups=202)
    (act): SiLU()
    (x_proj): Linear(in_features=202, out_features=39, bias=False)
    (dt_proj): Linear(in_features=7, out_features=202, bias=True)
    (out_proj): Linear(in_features=202, out_features=101, bias=False)
  )
  (fc): Linear(in_features=101, out_features=12, bias=True)
  (dropout): Dropout(p=0.5, inplace=False)
)
[2024-08-14 07:58:41] 

New training session


[2024-08-14 07:58:41] KeywordSpottingModel(
  (proj): Linear(in_features=16, out_features=101, bias=True)
  (mamba): Mamba(
    (in_proj): Linear(in_features=101, out_features=404, bias=False)
    (conv1d): Conv1d(202, 202, kernel_size=(4,), stride=(1,), padding=(3,), groups=202)
    (act): SiLU()
    (x_proj): Linear(in_features=202, out_features=39, bias=False)
    (dt_proj): Linear(in_features=7, out_features=202, bias=True)
    (out_proj): Linear(in_features=202, out_features=101, bias=False)
  )
  (fc): Linear(in_features=101, out_features=12, bias=True)
  (dropout): Dropout(p=0.5, inplace=False)
)
[2024-08-14 08:02:36] 

New training session


[2024-08-14 08:02:36] KeywordSpottingModel(
  (proj): Linear(in_features=16, out_features=128, bias=True)
  (mamba): Mamba(
    (in_proj): Linear(in_features=128, out_features=512, bias=False)
    (conv1d): Conv1d(256, 256, kernel_size=(4,), stride=(1,), padding=(3,), groups=256)
    (act): SiLU()
    (x_proj): Linear(in_features=256, out_features=40, bias=False)
    (dt_proj): Linear(in_features=8, out_features=256, bias=True)
    (out_proj): Linear(in_features=256, out_features=128, bias=False)
  )
  (fc): Linear(in_features=128, out_features=12, bias=True)
  (dropout): Dropout(p=0.5, inplace=False)
)
[2024-08-14 08:04:31] 

New training session


[2024-08-14 08:04:31] KeywordSpottingModel(
  (proj): Linear(in_features=101, out_features=16, bias=True)
  (mamba): Mamba(
    (in_proj): Linear(in_features=16, out_features=64, bias=False)
    (conv1d): Conv1d(32, 32, kernel_size=(4,), stride=(1,), padding=(3,), groups=32)
    (act): SiLU()
    (x_proj): Linear(in_features=32, out_features=33, bias=False)
    (dt_proj): Linear(in_features=1, out_features=32, bias=True)
    (out_proj): Linear(in_features=32, out_features=16, bias=False)
  )
  (fc): Linear(in_features=16, out_features=12, bias=True)
  (dropout): Dropout(p=0.5, inplace=False)
)
[2024-08-14 08:06:59] 

New training session


[2024-08-14 08:06:59] KeywordSpottingModel(
  (proj): Linear(in_features=16, out_features=101, bias=True)
  (mamba): Mamba(
    (in_proj): Linear(in_features=101, out_features=404, bias=False)
    (conv1d): Conv1d(202, 202, kernel_size=(4,), stride=(1,), padding=(3,), groups=202)
    (act): SiLU()
    (x_proj): Linear(in_features=202, out_features=39, bias=False)
    (dt_proj): Linear(in_features=7, out_features=202, bias=True)
    (out_proj): Linear(in_features=202, out_features=101, bias=False)
  )
  (fc): Linear(in_features=101, out_features=12, bias=True)
  (dropout): Dropout(p=0.5, inplace=False)
)
[2024-08-14 08:07:14] 

New training session


[2024-08-14 08:07:14] KeywordSpottingModel(
  (proj): Linear(in_features=101, out_features=16, bias=True)
  (mamba): Mamba(
    (in_proj): Linear(in_features=16, out_features=64, bias=False)
    (conv1d): Conv1d(32, 32, kernel_size=(4,), stride=(1,), padding=(3,), groups=32)
    (act): SiLU()
    (x_proj): Linear(in_features=32, out_features=33, bias=False)
    (dt_proj): Linear(in_features=1, out_features=32, bias=True)
    (out_proj): Linear(in_features=32, out_features=16, bias=False)
  )
  (fc): Linear(in_features=16, out_features=12, bias=True)
  (dropout): Dropout(p=0.5, inplace=False)
)
[2024-08-14 08:08:51] 

New training session


[2024-08-14 08:08:51] KeywordSpottingModel(
  (proj): Linear(in_features=16, out_features=101, bias=True)
  (mamba): Mamba(
    (in_proj): Linear(in_features=101, out_features=404, bias=False)
    (conv1d): Conv1d(202, 202, kernel_size=(4,), stride=(1,), padding=(3,), groups=202)
    (act): SiLU()
    (x_proj): Linear(in_features=202, out_features=39, bias=False)
    (dt_proj): Linear(in_features=7, out_features=202, bias=True)
    (out_proj): Linear(in_features=202, out_features=101, bias=False)
  )
  (fc): Linear(in_features=101, out_features=12, bias=True)
  (dropout): Dropout(p=0.5, inplace=False)
)
[2024-08-14 08:10:13] 

New training session


[2024-08-14 08:10:13] KeywordSpottingModel(
  (proj): Linear(in_features=16, out_features=101, bias=True)
  (mamba): Mamba(
    (in_proj): Linear(in_features=101, out_features=404, bias=False)
    (conv1d): Conv1d(202, 202, kernel_size=(4,), stride=(1,), padding=(3,), groups=202)
    (act): SiLU()
    (x_proj): Linear(in_features=202, out_features=39, bias=False)
    (dt_proj): Linear(in_features=7, out_features=202, bias=True)
    (out_proj): Linear(in_features=202, out_features=101, bias=False)
  )
  (fc): Linear(in_features=101, out_features=12, bias=True)
  (dropout): Dropout(p=0.5, inplace=False)
)
[2024-08-14 08:11:01] 

New training session


[2024-08-14 08:11:01] KeywordSpottingModel(
  (proj): Linear(in_features=16, out_features=101, bias=True)
  (mamba): Mamba(
    (in_proj): Linear(in_features=101, out_features=404, bias=False)
    (conv1d): Conv1d(202, 202, kernel_size=(4,), stride=(1,), padding=(3,), groups=202)
    (act): SiLU()
    (x_proj): Linear(in_features=202, out_features=39, bias=False)
    (dt_proj): Linear(in_features=7, out_features=202, bias=True)
    (out_proj): Linear(in_features=202, out_features=101, bias=False)
  )
  (fc): Linear(in_features=101, out_features=12, bias=True)
  (dropout): Dropout(p=0.5, inplace=False)
)
[2024-08-14 08:12:15] Epoch 1/50, Training Loss: 6.7533, Training Accuracy: 52.50%
[2024-08-14 08:12:22] Epoch 1/50, Validation Loss: 1.4687, Validation Accuracy: 61.70%
[2024-08-14 08:13:32] Epoch 2/50, Training Loss: 1.3480, Training Accuracy: 63.79%
[2024-08-14 08:13:40] Epoch 2/50, Validation Loss: 1.0178, Validation Accuracy: 68.66%
…
[2024-08-14 08:23:03] Epoch 10/50, Validation Loss: 0.6060, Validation Accuracy: 82.64%
[2024-08-14 08:24:00] Epoch 11/50, Training Loss: 0.5780, Training Accuracy: 81.89%
[2024-08-14 08:24:05] Epoch 11/50, Validation Loss: 0.4978, Validation Accuracy: 84.69%
[2024-08-14 08:25:00] Epoch 12/50, Training Loss: 0.5023, Training Accuracy: 84.07%
[2024-08-14 08:25:06] Epoch 12/50, Validation Loss: 0.4325, Validation Accuracy: 86.65%
[2024-08-14 08:26:05] Epoch 13/50, Training Loss: 0.4653, Training Accuracy: 85.29%
[2024-08-14 08:26:11] Training complete.
[2024-08-14 10:01:58] 

New training session


[2024-08-14 10:01:58] KeywordSpottingModel(
  (proj): Linear(in_features=16, out_features=32, bias=True)
  (mamba): Mamba(
    (in_proj): Linear(in_features=32, out_features=128, bias=False)
    (conv1d): Conv1d(64, 64, kernel_size=(4,), stride=(1,), padding=(3,), groups=64)
    (act): SiLU()
    (x_proj): Linear(in_features=64, out_features=34, bias=False)
    (dt_proj): Linear(in_features=2, out_features=64, bias=True)
    (out_proj): Linear(in_features=64, out_features=32, bias=False)
  )
  (fc): Linear(in_features=32, out_features=12, bias=True)
  (dropout): Dropout(p=0.5, inplace=False)
)
[2024-08-14 10:02:41] 

New training session


[2024-08-14 10:02:41] KeywordSpottingModel(
  (proj): Linear(in_features=16, out_features=101, bias=True)
  (mamba): Mamba(
    (in_proj): Linear(in_features=101, out_features=404, bias=False)
    (conv1d): Conv1d(202, 202, kernel_size=(4,), stride=(1,), padding=(3,), groups=202)
    (act): SiLU()
    (x_proj): Linear(in_features=202, out_features=71, bias=False)
    (dt_proj): Linear(in_features=7, out_features=202, bias=True)
    (out_proj): Linear(in_features=202, out_features=101, bias=False)
  )
  (fc): Linear(in_features=101, out_features=12, bias=True)
  (dropout): Dropout(p=0.5, inplace=False)
)
[2024-08-14 10:04:36] 

New training session


[2024-08-14 10:04:36] KeywordSpottingModel(
  (proj): Linear(in_features=13, out_features=101, bias=True)
  (mamba): Mamba(
    (in_proj): Linear(in_features=101, out_features=808, bias=False)
    (conv1d): Conv1d(404, 404, kernel_size=(20,), stride=(1,), padding=(19,), groups=404)
    (act): SiLU()
    (x_proj): Linear(in_features=404, out_features=75, bias=False)
    (dt_proj): Linear(in_features=7, out_features=404, bias=True)
    (out_proj): Linear(in_features=404, out_features=101, bias=False)
  )
  (fc): Linear(in_features=101, out_features=12, bias=True)
  (dropout): Dropout(p=0.5, inplace=False)
)
[2024-08-14 10:05:43] Epoch 1/50, Training Loss: 79.2719, Training Accuracy: 48.81%
[2024-08-14 10:05:49] Epoch 1/50, Validation Loss: 1.4631, Validation Accuracy: 62.63%
[2024-08-14 10:06:57] Epoch 2/50, Training Loss: 1.4945, Training Accuracy: 61.31%
[2024-08-14 10:07:03] Epoch 2/50, Validation Loss: 1.1625, Validation Accuracy: 66.03%
…
[2024-08-14 10:23:18] Epoch 16/50, Validation Loss: 1.1229, Validation Accuracy: 71.53%
[2024-08-14 10:24:25] Epoch 17/50, Training Loss: 1.0780, Training Accuracy: 70.60%
[2024-08-14 10:24:31] Epoch 17/50, Validation Loss: 1.0878, Validation Accuracy: 72.04%
[2024-08-14 10:25:34] Epoch 18/50, Training Loss: 1.0538, Training Accuracy: 70.70%
[2024-08-14 10:25:41] Epoch 18/50, Validation Loss: 1.0620, Validation Accuracy: 72.48%
[2024-08-14 10:26:46] Epoch 19/50, Training Loss: 1.0400, Training Accuracy: 71.23%
[2024-08-14 10:26:53] Training complete.
[2024-08-14 10:26:53] 

New training session


[2024-08-14 10:26:53] KeywordSpottingModel(
  (proj): Linear(in_features=13, out_features=101, bias=True)
  (mamba): Mamba(
    (in_proj): Linear(in_features=101, out_features=606, bias=False)
    (conv1d): Conv1d(303, 303, kernel_size=(16,), stride=(1,), padding=(15,), groups=303)
    (act): SiLU()
    (x_proj): Linear(in_features=303, out_features=121, bias=False)
    (dt_proj): Linear(in_features=7, out_features=303, bias=True)
    (out_proj): Linear(in_features=303, out_features=101, bias=False)
  )
  (fc): Linear(in_features=101, out_features=12, bias=True)
  (dropout): Dropout(p=0.5, inplace=False)
)
[2024-08-14 10:27:57] Epoch 1/50, Training Loss: 27631.7563, Training Accuracy: 44.82%
[2024-08-14 10:28:05] Epoch 1/50, Validation Loss: 31.7011, Validation Accuracy: 51.78%
[2024-08-14 10:29:06] Epoch 2/50, Training Loss: 19.2605, Training Accuracy: 48.01%
[2024-08-14 10:29:12] Epoch 2/50, Validation Loss: 7.7256, Validation Accuracy: 56.87%
…
[2024-08-14 10:48:04] Epoch 18/50, Validation Loss: 1471.1754, Validation Accuracy: 54.16%
[2024-08-14 10:49:10] Epoch 19/50, Training Loss: 1452.1107, Training Accuracy: 47.35%
[2024-08-14 10:49:17] Epoch 19/50, Validation Loss: 1309.9615, Validation Accuracy: 54.27%
[2024-08-14 10:50:22] Epoch 20/50, Training Loss: 1219.4433, Training Accuracy: 47.37%
[2024-08-14 10:50:28] Epoch 20/50, Validation Loss: 1107.9080, Validation Accuracy: 54.07%
[2024-08-14 10:51:36] Epoch 21/50, Training Loss: 1036.6745, Training Accuracy: 47.51%
[2024-08-14 10:51:43] Training complete.
[2024-08-14 10:51:43] 

New training session


[2024-08-14 10:51:43] KeywordSpottingModel(
  (proj): Linear(in_features=13, out_features=101, bias=True)
  (mamba): Mamba(
    (in_proj): Linear(in_features=101, out_features=404, bias=False)
    (conv1d): Conv1d(202, 202, kernel_size=(26,), stride=(1,), padding=(25,), groups=202)
    (act): SiLU()
    (x_proj): Linear(in_features=202, out_features=115, bias=False)
    (dt_proj): Linear(in_features=7, out_features=202, bias=True)
    (out_proj): Linear(in_features=202, out_features=101, bias=False)
  )
  (fc): Linear(in_features=101, out_features=12, bias=True)
  (dropout): Dropout(p=0.5, inplace=False)
)
[2024-08-14 10:52:49] Epoch 1/50, Training Loss: 107.1752, Training Accuracy: 50.25%
[2024-08-14 10:52:55] Epoch 1/50, Validation Loss: 1.4903, Validation Accuracy: 62.71%
[2024-08-14 10:54:02] Epoch 2/50, Training Loss: 1.4604, Training Accuracy: 62.01%
[2024-08-14 10:54:08] Epoch 2/50, Validation Loss: 1.1629, Validation Accuracy: 64.75%
…
[2024-08-14 11:10:34] Epoch 16/50, Validation Loss: 2.5235, Validation Accuracy: 59.33%
[2024-08-14 11:11:38] Epoch 17/50, Training Loss: 2.2454, Training Accuracy: 58.17%
[2024-08-14 11:11:44] Epoch 17/50, Validation Loss: 2.3730, Validation Accuracy: 59.63%
[2024-08-14 11:12:50] Epoch 18/50, Training Loss: 2.1277, Training Accuracy: 58.32%
[2024-08-14 11:12:56] Epoch 18/50, Validation Loss: 2.2448, Validation Accuracy: 59.59%
[2024-08-14 11:14:02] Epoch 19/50, Training Loss: 2.0471, Training Accuracy: 58.75%
[2024-08-14 11:14:08] Training complete.
[2024-08-14 11:14:08] 

New training session


[2024-08-14 11:14:08] KeywordSpottingModel(
  (proj): Linear(in_features=13, out_features=101, bias=True)
  (mamba): Mamba(
    (in_proj): Linear(in_features=101, out_features=808, bias=False)
    (conv1d): Conv1d(404, 404, kernel_size=(22,), stride=(1,), padding=(21,), groups=404)
    (act): SiLU()
    (x_proj): Linear(in_features=404, out_features=131, bias=False)
    (dt_proj): Linear(in_features=7, out_features=404, bias=True)
    (out_proj): Linear(in_features=404, out_features=101, bias=False)
  )
  (fc): Linear(in_features=101, out_features=12, bias=True)
  (dropout): Dropout(p=0.5, inplace=False)
)
[2024-08-14 11:15:15] Epoch 1/50, Training Loss: 110.3917, Training Accuracy: 46.67%
[2024-08-14 11:15:21] Epoch 1/50, Validation Loss: 1.6564, Validation Accuracy: 61.73%
[2024-08-14 11:16:26] Epoch 2/50, Training Loss: 1.6732, Training Accuracy: 59.70%
[2024-08-14 11:16:32] Epoch 2/50, Validation Loss: 1.2379, Validation Accuracy: 64.77%
…
[2024-08-14 11:33:38] Epoch 16/50, Validation Loss: 0.8572, Validation Accuracy: 74.20%
[2024-08-14 11:34:45] Epoch 17/50, Training Loss: 0.8581, Training Accuracy: 73.21%
[2024-08-14 11:34:51] Epoch 17/50, Validation Loss: 0.8558, Validation Accuracy: 74.57%
[2024-08-14 11:35:59] Epoch 18/50, Training Loss: 0.8513, Training Accuracy: 73.50%
[2024-08-14 11:36:05] Epoch 18/50, Validation Loss: 0.8435, Validation Accuracy: 74.78%
[2024-08-14 11:37:11] Epoch 19/50, Training Loss: 0.8404, Training Accuracy: 73.57%
[2024-08-14 11:37:17] Training complete.
[2024-08-14 11:37:17] 

New training session


[2024-08-14 11:37:17] KeywordSpottingModel(
  (proj): Linear(in_features=13, out_features=101, bias=True)
  (mamba): Mamba(
    (in_proj): Linear(in_features=101, out_features=606, bias=False)
    (conv1d): Conv1d(303, 303, kernel_size=(16,), stride=(1,), padding=(15,), groups=303)
    (act): SiLU()
    (x_proj): Linear(in_features=303, out_features=123, bias=False)
    (dt_proj): Linear(in_features=7, out_features=303, bias=True)
    (out_proj): Linear(in_features=303, out_features=101, bias=False)
  )
  (fc): Linear(in_features=101, out_features=12, bias=True)
  (dropout): Dropout(p=0.5, inplace=False)
)
[2024-08-14 11:38:23] Epoch 1/50, Training Loss: 38.6235, Training Accuracy: 47.98%
[2024-08-14 11:38:30] Epoch 1/50, Validation Loss: 1.5393, Validation Accuracy: 61.53%
[2024-08-14 11:39:36] Epoch 2/50, Training Loss: 1.5940, Training Accuracy: 60.80%
[2024-08-14 11:39:42] Epoch 2/50, Validation Loss: 1.2201, Validation Accuracy: 64.12%
…
[2024-08-14 12:35:21] Epoch 48/50, Training Loss: 0.2256, Training Accuracy: 92.84%
[2024-08-14 12:35:27] Epoch 48/50, Validation Loss: 0.3405, Validation Accuracy: 90.58%
[2024-08-14 12:36:35] Epoch 49/50, Training Loss: 0.2240, Training Accuracy: 92.74%
[2024-08-14 12:36:41] Epoch 49/50, Validation Loss: 0.3405, Validation Accuracy: 90.58%
[2024-08-14 12:37:44] Epoch 50/50, Training Loss: 0.2234, Training Accuracy: 92.83%
[2024-08-14 12:37:50] Epoch 50/50, Validation Loss: 0.3405, Validation Accuracy: 90.58%
[2024-08-14 12:37:50] Training complete.
[2024-08-14 12:37:50] 

New training session


[2024-08-14 12:37:50] KeywordSpottingModel(
  (proj): Linear(in_features=13, out_features=101, bias=True)
  (mamba): Mamba(
    (in_proj): Linear(in_features=101, out_features=606, bias=False)
    (conv1d): Conv1d(303, 303, kernel_size=(24,), stride=(1,), padding=(23,), groups=303)
    (act): SiLU()
    (x_proj): Linear(in_features=303, out_features=127, bias=False)
    (dt_proj): Linear(in_features=7, out_features=303, bias=True)
    (out_proj): Linear(in_features=303, out_features=101, bias=False)
  )
  (fc): Linear(in_features=101, out_features=12, bias=True)
  (dropout): Dropout(p=0.5, inplace=False)
)
[2024-08-14 12:38:55] Epoch 1/50, Training Loss: 187.0305, Training Accuracy: 47.44%
[2024-08-14 12:39:02] Epoch 1/50, Validation Loss: 1.6376, Validation Accuracy: 61.56%
[2024-08-14 12:40:05] Epoch 2/50, Training Loss: 1.6331, Training Accuracy: 59.50%
[2024-08-14 12:40:12] Epoch 2/50, Validation Loss: 1.2219, Validation Accuracy: 65.16%
…
[2024-08-14 12:57:09] Epoch 16/50, Validation Loss: 6.3775, Validation Accuracy: 55.09%
[2024-08-14 12:58:18] Epoch 17/50, Training Loss: 5.3854, Training Accuracy: 52.94%
[2024-08-14 12:58:24] Epoch 17/50, Validation Loss: 5.7988, Validation Accuracy: 54.77%
[2024-08-14 12:59:36] Epoch 18/50, Training Loss: 4.9430, Training Accuracy: 53.19%
[2024-08-14 12:59:43] Epoch 18/50, Validation Loss: 5.3979, Validation Accuracy: 55.13%
[2024-08-14 13:00:48] Epoch 19/50, Training Loss: 4.4540, Training Accuracy: 53.39%
[2024-08-14 13:00:54] Training complete.
[2024-08-14 13:00:54] 

New training session


[2024-08-14 13:00:54] KeywordSpottingModel(
  (proj): Linear(in_features=13, out_features=101, bias=True)
  (mamba): Mamba(
    (in_proj): Linear(in_features=101, out_features=808, bias=False)
    (conv1d): Conv1d(404, 404, kernel_size=(31,), stride=(1,), padding=(30,), groups=404)
    (act): SiLU()
    (x_proj): Linear(in_features=404, out_features=89, bias=False)
    (dt_proj): Linear(in_features=7, out_features=404, bias=True)
    (out_proj): Linear(in_features=404, out_features=101, bias=False)
  )
  (fc): Linear(in_features=101, out_features=12, bias=True)
  (dropout): Dropout(p=0.5, inplace=False)
)
[2024-08-14 13:02:00] Epoch 1/50, Training Loss: 2006.9278, Training Accuracy: 44.82%
[2024-08-14 13:02:06] Epoch 1/50, Validation Loss: 4.0307, Validation Accuracy: 59.96%
[2024-08-14 13:03:15] Epoch 2/50, Training Loss: 3.5787, Training Accuracy: 51.57%
[2024-08-14 13:03:22] Epoch 2/50, Validation Loss: 1.6400, Validation Accuracy: 63.88%
…
[2024-08-14 13:19:47] Epoch 16/50, Validation Loss: 257.7500, Validation Accuracy: 54.45%
[2024-08-14 13:20:51] Epoch 17/50, Training Loss: 143.1631, Training Accuracy: 51.98%
[2024-08-14 13:20:57] Epoch 17/50, Validation Loss: 230.7632, Validation Accuracy: 54.11%
[2024-08-14 13:22:02] Epoch 18/50, Training Loss: 127.4721, Training Accuracy: 52.05%
[2024-08-14 13:22:08] Epoch 18/50, Validation Loss: 278.3135, Validation Accuracy: 54.21%
[2024-08-14 13:23:09] Epoch 19/50, Training Loss: 114.5108, Training Accuracy: 52.01%
[2024-08-14 13:23:16] Training complete.
[2024-08-14 13:23:16] 

New training session


[2024-08-14 13:23:16] KeywordSpottingModel(
  (proj): Linear(in_features=13, out_features=101, bias=True)
  (mamba): Mamba(
    (in_proj): Linear(in_features=101, out_features=404, bias=False)
    (conv1d): Conv1d(202, 202, kernel_size=(30,), stride=(1,), padding=(29,), groups=202)
    (act): SiLU()
    (x_proj): Linear(in_features=202, out_features=85, bias=False)
    (dt_proj): Linear(in_features=7, out_features=202, bias=True)
    (out_proj): Linear(in_features=202, out_features=101, bias=False)
  )
  (fc): Linear(in_features=101, out_features=12, bias=True)
  (dropout): Dropout(p=0.5, inplace=False)
)
[2024-08-14 13:24:18] Epoch 1/50, Training Loss: 460.6429, Training Accuracy: 46.26%
[2024-08-14 13:24:24] Epoch 1/50, Validation Loss: 1.8581, Validation Accuracy: 61.80%
[2024-08-14 13:25:28] Epoch 2/50, Training Loss: 1.8030, Training Accuracy: 58.67%
[2024-08-14 13:25:34] Epoch 2/50, Validation Loss: 1.3556, Validation Accuracy: 63.47%
…
[2024-08-14 13:43:08] Epoch 17/50, Validation Loss: 12.0571, Validation Accuracy: 55.33%
[2024-08-14 13:44:11] Epoch 18/50, Training Loss: 12.3280, Training Accuracy: 52.24%
[2024-08-14 13:44:17] Epoch 18/50, Validation Loss: 10.4692, Validation Accuracy: 53.92%
[2024-08-14 13:45:20] Epoch 19/50, Training Loss: 10.6290, Training Accuracy: 52.26%
[2024-08-14 13:45:27] Epoch 19/50, Validation Loss: 9.1003, Validation Accuracy: 54.70%
[2024-08-14 13:46:32] Epoch 20/50, Training Loss: 9.3042, Training Accuracy: 52.24%
[2024-08-14 13:46:38] Training complete.
[2024-08-14 13:46:38] 

New training session


[2024-08-14 13:46:38] KeywordSpottingModel(
  (proj): Linear(in_features=13, out_features=101, bias=True)
  (mamba): Mamba(
    (in_proj): Linear(in_features=101, out_features=606, bias=False)
    (conv1d): Conv1d(303, 303, kernel_size=(29,), stride=(1,), padding=(28,), groups=303)
    (act): SiLU()
    (x_proj): Linear(in_features=303, out_features=129, bias=False)
    (dt_proj): Linear(in_features=7, out_features=303, bias=True)
    (out_proj): Linear(in_features=303, out_features=101, bias=False)
  )
  (fc): Linear(in_features=101, out_features=12, bias=True)
  (dropout): Dropout(p=0.5, inplace=False)
)
[2024-08-14 13:47:42] Epoch 1/50, Training Loss: 226.6445, Training Accuracy: 46.07%
[2024-08-14 13:47:48] Epoch 1/50, Validation Loss: 1.8005, Validation Accuracy: 60.47%
[2024-08-14 13:48:49] Epoch 2/50, Training Loss: 1.8075, Training Accuracy: 58.12%
[2024-08-14 13:48:55] Epoch 2/50, Validation Loss: 1.3548, Validation Accuracy: 63.65%
…
[2024-08-14 14:06:57] Epoch 17/50, Validation Loss: 1.1909, Validation Accuracy: 69.25%
[2024-08-14 14:08:05] Epoch 18/50, Training Loss: 1.1861, Training Accuracy: 67.70%
[2024-08-14 14:08:11] Epoch 18/50, Validation Loss: 1.1400, Validation Accuracy: 69.26%
[2024-08-14 14:09:16] Epoch 19/50, Training Loss: 1.1529, Training Accuracy: 68.14%
[2024-08-14 14:09:22] Epoch 19/50, Validation Loss: 1.1030, Validation Accuracy: 69.94%
[2024-08-14 14:10:28] Epoch 20/50, Training Loss: 1.1164, Training Accuracy: 68.73%
[2024-08-14 14:10:35] Training complete.
[2024-08-14 14:10:35] 

New training session


[2024-08-14 14:10:35] KeywordSpottingModel(
  (proj): Linear(in_features=13, out_features=101, bias=True)
  (mamba): Mamba(
    (in_proj): Linear(in_features=101, out_features=404, bias=False)
    (conv1d): Conv1d(202, 202, kernel_size=(18,), stride=(1,), padding=(17,), groups=202)
    (act): SiLU()
    (x_proj): Linear(in_features=202, out_features=77, bias=False)
    (dt_proj): Linear(in_features=7, out_features=202, bias=True)
    (out_proj): Linear(in_features=202, out_features=101, bias=False)
  )
  (fc): Linear(in_features=101, out_features=12, bias=True)
  (dropout): Dropout(p=0.5, inplace=False)
)
[2024-08-14 14:11:45] Epoch 1/50, Training Loss: 26.9601, Training Accuracy: 53.24%
[2024-08-14 14:11:53] Epoch 1/50, Validation Loss: 1.5047, Validation Accuracy: 61.89%
[2024-08-14 14:12:58] Epoch 2/50, Training Loss: 1.4194, Training Accuracy: 62.94%
[2024-08-14 14:13:05] Epoch 2/50, Validation Loss: 1.1691, Validation Accuracy: 65.32%
…
[2024-08-14 15:32:24] Epoch 35/50, Validation Loss: 0.2454, Validation Accuracy: 92.95%
[2024-08-14 15:34:40] Epoch 36/50, Training Loss: 0.2089, Training Accuracy: 93.53%
[2024-08-14 15:34:55] Epoch 36/50, Validation Loss: 0.2454, Validation Accuracy: 92.95%
[2024-08-14 15:37:07] Epoch 37/50, Training Loss: 0.2068, Training Accuracy: 93.56%
[2024-08-14 15:37:21] Epoch 37/50, Validation Loss: 0.2454, Validation Accuracy: 92.95%
[2024-08-14 15:39:39] Epoch 38/50, Training Loss: 0.2092, Training Accuracy: 93.57%
[2024-08-14 15:39:54] Training complete.
[2024-08-14 15:39:54] 

New training session


[2024-08-14 15:39:54] KeywordSpottingModel(
  (proj): Linear(in_features=13, out_features=101, bias=True)
  (mamba): Mamba(
    (in_proj): Linear(in_features=101, out_features=404, bias=False)
    (conv1d): Conv1d(202, 202, kernel_size=(19,), stride=(1,), padding=(18,), groups=202)
    (act): SiLU()
    (x_proj): Linear(in_features=202, out_features=101, bias=False)
    (dt_proj): Linear(in_features=7, out_features=202, bias=True)
    (out_proj): Linear(in_features=202, out_features=101, bias=False)
  )
  (fc): Linear(in_features=101, out_features=12, bias=True)
  (dropout): Dropout(p=0.5, inplace=False)
)
[2024-08-14 15:42:08] Epoch 1/50, Training Loss: 36143.7733, Training Accuracy: 43.66%
[2024-08-14 15:42:22] Epoch 1/50, Validation Loss: 47.4756, Validation Accuracy: 51.74%
[2024-08-14 15:44:41] Epoch 2/50, Training Loss: 25.9197, Training Accuracy: 46.60%
[2024-08-14 15:44:54] Epoch 2/50, Validation Loss: 9.5582, Validation Accuracy: 52.66%
…
[2024-08-14 16:15:42] Epoch 19/50, Validation Loss: 336606.7379, Validation Accuracy: 57.34%
[2024-08-14 16:16:48] Epoch 20/50, Training Loss: 337723.2973, Training Accuracy: 49.75%
[2024-08-14 16:16:54] Epoch 20/50, Validation Loss: 291329.6773, Validation Accuracy: 57.57%
[2024-08-14 16:18:01] Epoch 21/50, Training Loss: 275703.1929, Training Accuracy: 49.77%
[2024-08-14 16:18:07] Epoch 21/50, Validation Loss: 220698.1372, Validation Accuracy: 57.58%
[2024-08-14 16:19:12] Epoch 22/50, Training Loss: 201538.7056, Training Accuracy: 49.45%
[2024-08-14 16:19:19] Training complete.
[2024-08-14 16:19:19] 

New training session


[2024-08-14 16:19:19] KeywordSpottingModel(
  (proj): Linear(in_features=13, out_features=101, bias=True)
  (mamba): Mamba(
    (in_proj): Linear(in_features=101, out_features=404, bias=False)
    (conv1d): Conv1d(202, 202, kernel_size=(17,), stride=(1,), padding=(16,), groups=202)
    (act): SiLU()
    (x_proj): Linear(in_features=202, out_features=103, bias=False)
    (dt_proj): Linear(in_features=7, out_features=202, bias=True)
    (out_proj): Linear(in_features=202, out_features=101, bias=False)
  )
  (fc): Linear(in_features=101, out_features=12, bias=True)
  (dropout): Dropout(p=0.5, inplace=False)
)
[2024-08-14 16:20:23] Epoch 1/50, Training Loss: 9.8736, Training Accuracy: 53.27%
[2024-08-14 16:20:29] Epoch 1/50, Validation Loss: 1.4412, Validation Accuracy: 61.95%
[2024-08-14 16:21:34] Epoch 2/50, Training Loss: 1.3035, Training Accuracy: 64.44%
[2024-08-14 16:21:41] Epoch 2/50, Validation Loss: 0.9778, Validation Accuracy: 69.63%
…
[2024-08-14 17:07:49] Epoch 42/50, Validation Loss: 0.2524, Validation Accuracy: 93.01%
[2024-08-14 17:08:56] Epoch 43/50, Training Loss: 0.1608, Training Accuracy: 94.94%
[2024-08-14 17:09:03] Epoch 43/50, Validation Loss: 0.2524, Validation Accuracy: 93.01%
[2024-08-14 17:10:10] Epoch 44/50, Training Loss: 0.1620, Training Accuracy: 94.90%
[2024-08-14 17:10:16] Epoch 44/50, Validation Loss: 0.2524, Validation Accuracy: 93.01%
[2024-08-14 17:11:23] Epoch 45/50, Training Loss: 0.1610, Training Accuracy: 94.87%
[2024-08-14 17:11:29] Training complete.
[2024-08-14 17:11:29] 

New training session


[2024-08-14 17:11:29] KeywordSpottingModel(
  (proj): Linear(in_features=13, out_features=101, bias=True)
  (mamba): Mamba(
    (in_proj): Linear(in_features=101, out_features=404, bias=False)
    (conv1d): Conv1d(202, 202, kernel_size=(19,), stride=(1,), padding=(18,), groups=202)
    (act): SiLU()
    (x_proj): Linear(in_features=202, out_features=103, bias=False)
    (dt_proj): Linear(in_features=7, out_features=202, bias=True)
    (out_proj): Linear(in_features=202, out_features=101, bias=False)
  )
  (fc): Linear(in_features=101, out_features=12, bias=True)
  (dropout): Dropout(p=0.5, inplace=False)
)
[2024-08-14 17:12:35] Epoch 1/50, Training Loss: 9.7103, Training Accuracy: 53.48%
[2024-08-14 17:12:41] Epoch 1/50, Validation Loss: 1.4292, Validation Accuracy: 62.32%
[2024-08-14 17:13:48] Epoch 2/50, Training Loss: 1.2902, Training Accuracy: 64.18%
[2024-08-14 17:13:54] Epoch 2/50, Validation Loss: 0.9589, Validation Accuracy: 69.50%
…
[2024-08-14 18:00:23] Epoch 40/50, Validation Loss: 0.2558, Validation Accuracy: 93.09%
[2024-08-14 18:01:26] Epoch 41/50, Training Loss: 0.1486, Training Accuracy: 95.19%
[2024-08-14 18:01:32] Epoch 41/50, Validation Loss: 0.2558, Validation Accuracy: 93.09%
[2024-08-14 18:02:39] Epoch 42/50, Training Loss: 0.1494, Training Accuracy: 95.20%
[2024-08-14 18:02:45] Epoch 42/50, Validation Loss: 0.2558, Validation Accuracy: 93.09%
[2024-08-14 18:03:49] Epoch 43/50, Training Loss: 0.1488, Training Accuracy: 95.25%
[2024-08-14 18:03:55] Training complete.
[2024-08-14 18:03:55] 

New training session


[2024-08-14 18:03:55] KeywordSpottingModel(
  (proj): Linear(in_features=13, out_features=101, bias=True)
  (mamba): Mamba(
    (in_proj): Linear(in_features=101, out_features=404, bias=False)
    (conv1d): Conv1d(202, 202, kernel_size=(21,), stride=(1,), padding=(20,), groups=202)
    (act): SiLU()
    (x_proj): Linear(in_features=202, out_features=105, bias=False)
    (dt_proj): Linear(in_features=7, out_features=202, bias=True)
    (out_proj): Linear(in_features=202, out_features=101, bias=False)
  )
  (fc): Linear(in_features=101, out_features=12, bias=True)
  (dropout): Dropout(p=0.5, inplace=False)
)
[2024-08-14 18:05:03] Epoch 1/50, Training Loss: 11.0985, Training Accuracy: 52.12%
[2024-08-14 18:05:09] Epoch 1/50, Validation Loss: 1.4638, Validation Accuracy: 62.14%
[2024-08-14 18:06:16] Epoch 2/50, Training Loss: 1.3780, Training Accuracy: 63.26%
[2024-08-14 18:06:22] Epoch 2/50, Validation Loss: 1.0815, Validation Accuracy: 67.04%
…
[2024-08-14 18:50:55] Epoch 39/50, Validation Loss: 0.2591, Validation Accuracy: 93.29%
[2024-08-14 18:51:59] Epoch 40/50, Training Loss: 0.1443, Training Accuracy: 95.33%
[2024-08-14 18:52:06] Epoch 40/50, Validation Loss: 0.2589, Validation Accuracy: 93.31%
[2024-08-14 18:53:14] Epoch 41/50, Training Loss: 0.1421, Training Accuracy: 95.39%
[2024-08-14 18:53:21] Epoch 41/50, Validation Loss: 0.2588, Validation Accuracy: 93.32%
[2024-08-14 18:54:28] Epoch 42/50, Training Loss: 0.1430, Training Accuracy: 95.41%
[2024-08-14 18:54:35] Training complete.
[2024-08-14 18:54:35] 

New training session


[2024-08-14 18:54:35] KeywordSpottingModel(
  (proj): Linear(in_features=13, out_features=101, bias=True)
  (mamba): Mamba(
    (in_proj): Linear(in_features=101, out_features=404, bias=False)
    (conv1d): Conv1d(202, 202, kernel_size=(22,), stride=(1,), padding=(21,), groups=202)
    (act): SiLU()
    (x_proj): Linear(in_features=202, out_features=111, bias=False)
    (dt_proj): Linear(in_features=7, out_features=202, bias=True)
    (out_proj): Linear(in_features=202, out_features=101, bias=False)
  )
  (fc): Linear(in_features=101, out_features=12, bias=True)
  (dropout): Dropout(p=0.5, inplace=False)
)
[2024-08-14 18:55:40] Epoch 1/50, Training Loss: 20.1753, Training Accuracy: 50.14%
[2024-08-14 18:55:46] Epoch 1/50, Validation Loss: 1.5537, Validation Accuracy: 61.64%
[2024-08-14 18:56:52] Epoch 2/50, Training Loss: 1.5613, Training Accuracy: 61.48%
[2024-08-14 18:56:59] Epoch 2/50, Validation Loss: 1.2724, Validation Accuracy: 63.12%
…
[2024-08-14 19:40:20] Epoch 38/50, Validation Loss: 0.2722, Validation Accuracy: 92.64%
[2024-08-14 19:41:25] Epoch 39/50, Training Loss: 0.1612, Training Accuracy: 94.85%
[2024-08-14 19:41:31] Epoch 39/50, Validation Loss: 0.2722, Validation Accuracy: 92.64%
[2024-08-14 19:42:37] Epoch 40/50, Training Loss: 0.1606, Training Accuracy: 94.87%
[2024-08-14 19:42:43] Epoch 40/50, Validation Loss: 0.2722, Validation Accuracy: 92.64%
[2024-08-14 19:43:48] Epoch 41/50, Training Loss: 0.1603, Training Accuracy: 94.88%
[2024-08-14 19:43:54] Training complete.
[2024-08-14 19:43:54] 

New training session


[2024-08-14 19:43:54] KeywordSpottingModel(
  (proj): Linear(in_features=13, out_features=101, bias=True)
  (mamba): Mamba(
    (in_proj): Linear(in_features=101, out_features=606, bias=False)
    (conv1d): Conv1d(303, 303, kernel_size=(21,), stride=(1,), padding=(20,), groups=303)
    (act): SiLU()
    (x_proj): Linear(in_features=303, out_features=95, bias=False)
    (dt_proj): Linear(in_features=7, out_features=303, bias=True)
    (out_proj): Linear(in_features=303, out_features=101, bias=False)
  )
  (fc): Linear(in_features=101, out_features=12, bias=True)
  (dropout): Dropout(p=0.5, inplace=False)
)
[2024-08-14 19:44:59] Epoch 1/50, Training Loss: 29.8059, Training Accuracy: 50.24%
[2024-08-14 19:45:05] Epoch 1/50, Validation Loss: 1.4743, Validation Accuracy: 61.98%
[2024-08-14 19:46:13] Epoch 2/50, Training Loss: 1.4921, Training Accuracy: 61.87%
[2024-08-14 19:46:19] Epoch 2/50, Validation Loss: 1.1843, Validation Accuracy: 65.31%
…
[2024-08-14 20:42:01] Epoch 48/50, Training Loss: 0.3895, Training Accuracy: 87.58%
[2024-08-14 20:42:07] Epoch 48/50, Validation Loss: 0.4106, Validation Accuracy: 87.50%
[2024-08-14 20:43:13] Epoch 49/50, Training Loss: 0.3867, Training Accuracy: 87.68%
[2024-08-14 20:43:19] Epoch 49/50, Validation Loss: 0.4128, Validation Accuracy: 87.44%
[2024-08-14 20:44:25] Epoch 50/50, Training Loss: 0.3848, Training Accuracy: 87.73%
[2024-08-14 20:44:31] Epoch 50/50, Validation Loss: 0.4095, Validation Accuracy: 87.68%
[2024-08-14 20:44:31] Training complete.
[2024-08-14 20:44:31] 

New training session


[2024-08-14 20:44:31] KeywordSpottingModel(
  (proj): Linear(in_features=13, out_features=101, bias=True)
  (mamba): Mamba(
    (in_proj): Linear(in_features=101, out_features=404, bias=False)
    (conv1d): Conv1d(202, 202, kernel_size=(27,), stride=(1,), padding=(26,), groups=202)
    (act): SiLU()
    (x_proj): Linear(in_features=202, out_features=111, bias=False)
    (dt_proj): Linear(in_features=7, out_features=202, bias=True)
    (out_proj): Linear(in_features=202, out_features=101, bias=False)
  )
  (fc): Linear(in_features=101, out_features=12, bias=True)
  (dropout): Dropout(p=0.5, inplace=False)
)
[2024-08-14 20:45:38] Epoch 1/50, Training Loss: 13.0772, Training Accuracy: 52.71%
[2024-08-14 20:45:44] Epoch 1/50, Validation Loss: 1.4921, Validation Accuracy: 61.59%
[2024-08-14 20:46:51] Epoch 2/50, Training Loss: 1.4520, Training Accuracy: 62.49%
[2024-08-14 20:46:57] Epoch 2/50, Validation Loss: 1.2156, Validation Accuracy: 65.33%
…
[2024-08-14 21:24:49] Epoch 33/50, Validation Loss: 0.2589, Validation Accuracy: 92.73%
[2024-08-14 21:25:57] Epoch 34/50, Training Loss: 0.1890, Training Accuracy: 93.94%
[2024-08-14 21:26:03] Epoch 34/50, Validation Loss: 0.2589, Validation Accuracy: 92.74%
[2024-08-14 21:27:08] Epoch 35/50, Training Loss: 0.1902, Training Accuracy: 93.94%
[2024-08-14 21:27:14] Epoch 35/50, Validation Loss: 0.2589, Validation Accuracy: 92.75%
[2024-08-14 21:28:20] Epoch 36/50, Training Loss: 0.1903, Training Accuracy: 93.87%
[2024-08-14 21:28:27] Training complete.
[2024-08-14 21:28:27] 

New training session


[2024-08-14 21:28:27] KeywordSpottingModel(
  (proj): Linear(in_features=13, out_features=101, bias=True)
  (mamba): Mamba(
    (in_proj): Linear(in_features=101, out_features=404, bias=False)
    (conv1d): Conv1d(202, 202, kernel_size=(24,), stride=(1,), padding=(23,), groups=202)
    (act): SiLU()
    (x_proj): Linear(in_features=202, out_features=93, bias=False)
    (dt_proj): Linear(in_features=7, out_features=202, bias=True)
    (out_proj): Linear(in_features=202, out_features=101, bias=False)
  )
  (fc): Linear(in_features=101, out_features=12, bias=True)
  (dropout): Dropout(p=0.5, inplace=False)
)
[2024-08-14 21:29:33] Epoch 1/50, Training Loss: 18.6059, Training Accuracy: 51.88%
[2024-08-14 21:29:40] Epoch 1/50, Validation Loss: 1.4841, Validation Accuracy: 62.19%
[2024-08-14 21:30:49] Epoch 2/50, Training Loss: 1.4599, Training Accuracy: 62.90%
[2024-08-14 21:30:55] Epoch 2/50, Validation Loss: 1.1927, Validation Accuracy: 65.13%
…
[2024-08-14 22:27:35] Epoch 48/50, Training Loss: 0.2419, Training Accuracy: 92.17%
[2024-08-14 22:27:41] Epoch 48/50, Validation Loss: 0.3205, Validation Accuracy: 90.96%
[2024-08-14 22:28:44] Epoch 49/50, Training Loss: 0.2383, Training Accuracy: 92.38%
[2024-08-14 22:28:51] Epoch 49/50, Validation Loss: 0.3443, Validation Accuracy: 90.23%
[2024-08-14 22:29:59] Epoch 50/50, Training Loss: 0.2348, Training Accuracy: 92.41%
[2024-08-14 22:30:06] Epoch 50/50, Validation Loss: 0.3309, Validation Accuracy: 90.40%
[2024-08-14 22:30:06] Training complete.
[2024-08-14 22:30:06] 

New training session


[2024-08-14 22:30:06] KeywordSpottingModel(
  (proj): Linear(in_features=13, out_features=101, bias=True)
  (mamba): Mamba(
    (in_proj): Linear(in_features=101, out_features=404, bias=False)
    (conv1d): Conv1d(202, 202, kernel_size=(19,), stride=(1,), padding=(18,), groups=202)
    (act): SiLU()
    (x_proj): Linear(in_features=202, out_features=107, bias=False)
    (dt_proj): Linear(in_features=7, out_features=202, bias=True)
    (out_proj): Linear(in_features=202, out_features=101, bias=False)
  )
  (fc): Linear(in_features=101, out_features=12, bias=True)
  (dropout): Dropout(p=0.5, inplace=False)
)
[2024-08-14 22:31:15] Epoch 1/50, Training Loss: 28.4441, Training Accuracy: 51.67%
[2024-08-14 22:31:22] Epoch 1/50, Validation Loss: 1.4846, Validation Accuracy: 61.88%
[2024-08-14 22:32:24] Epoch 2/50, Training Loss: 1.4275, Training Accuracy: 62.68%
[2024-08-14 22:32:31] Epoch 2/50, Validation Loss: 1.1019, Validation Accuracy: 67.42%
…
[2024-08-14 23:29:10] Epoch 48/50, Training Loss: 0.5190, Training Accuracy: 83.63%
[2024-08-14 23:29:17] Epoch 48/50, Validation Loss: 0.4968, Validation Accuracy: 84.13%
[2024-08-14 23:30:22] Epoch 49/50, Training Loss: 0.5200, Training Accuracy: 83.64%
[2024-08-14 23:30:30] Epoch 49/50, Validation Loss: 0.4961, Validation Accuracy: 84.15%
[2024-08-14 23:31:36] Epoch 50/50, Training Loss: 0.5193, Training Accuracy: 83.54%
[2024-08-14 23:31:42] Epoch 50/50, Validation Loss: 0.4946, Validation Accuracy: 84.17%
[2024-08-14 23:31:42] Training complete.
[2024-08-14 23:31:42] 

New training session


[2024-08-14 23:31:42] KeywordSpottingModel(
  (proj): Linear(in_features=13, out_features=101, bias=True)
  (mamba): Mamba(
    (in_proj): Linear(in_features=101, out_features=606, bias=False)
    (conv1d): Conv1d(303, 303, kernel_size=(21,), stride=(1,), padding=(20,), groups=303)
    (act): SiLU()
    (x_proj): Linear(in_features=303, out_features=97, bias=False)
    (dt_proj): Linear(in_features=7, out_features=303, bias=True)
    (out_proj): Linear(in_features=303, out_features=101, bias=False)
  )
  (fc): Linear(in_features=101, out_features=12, bias=True)
  (dropout): Dropout(p=0.5, inplace=False)
)
[2024-08-14 23:32:49] Epoch 1/50, Training Loss: 13.6324, Training Accuracy: 51.47%
[2024-08-14 23:32:55] Epoch 1/50, Validation Loss: 1.3769, Validation Accuracy: 62.81%
[2024-08-14 23:34:02] Epoch 2/50, Training Loss: 1.2920, Training Accuracy: 64.41%
[2024-08-14 23:34:08] Epoch 2/50, Validation Loss: 0.9829, Validation Accuracy: 68.83%
…
[2024-08-15 00:17:12] Epoch 38/50, Validation Loss: 0.2718, Validation Accuracy: 92.94%
[2024-08-15 00:18:20] Epoch 39/50, Training Loss: 0.1457, Training Accuracy: 95.39%
[2024-08-15 00:18:27] Epoch 39/50, Validation Loss: 0.2719, Validation Accuracy: 92.94%
[2024-08-15 00:19:32] Epoch 40/50, Training Loss: 0.1448, Training Accuracy: 95.39%
[2024-08-15 00:19:39] Epoch 40/50, Validation Loss: 0.2718, Validation Accuracy: 92.93%
[2024-08-15 00:20:47] Epoch 41/50, Training Loss: 0.1447, Training Accuracy: 95.42%
[2024-08-15 00:20:55] Training complete.
[2024-08-15 00:20:55] 

New training session


[2024-08-15 00:20:55] KeywordSpottingModel(
  (proj): Linear(in_features=13, out_features=101, bias=True)
  (mamba): Mamba(
    (in_proj): Linear(in_features=101, out_features=606, bias=False)
    (conv1d): Conv1d(303, 303, kernel_size=(23,), stride=(1,), padding=(22,), groups=303)
    (act): SiLU()
    (x_proj): Linear(in_features=303, out_features=81, bias=False)
    (dt_proj): Linear(in_features=7, out_features=303, bias=True)
    (out_proj): Linear(in_features=303, out_features=101, bias=False)
  )
  (fc): Linear(in_features=101, out_features=12, bias=True)
  (dropout): Dropout(p=0.5, inplace=False)
)
[2024-08-15 00:21:57] Epoch 1/50, Training Loss: 14.0297, Training Accuracy: 52.73%
[2024-08-15 00:22:04] Epoch 1/50, Validation Loss: 1.4810, Validation Accuracy: 62.20%
[2024-08-15 00:23:08] Epoch 2/50, Training Loss: 1.3194, Training Accuracy: 64.04%
[2024-08-15 00:23:14] Epoch 2/50, Validation Loss: 0.9537, Validation Accuracy: 69.55%
…
[2024-08-15 02:05:04] Epoch 38/50, Validation Loss: 0.2617, Validation Accuracy: 93.08%
[2024-08-15 02:06:12] Epoch 39/50, Training Loss: 0.1595, Training Accuracy: 94.94%
[2024-08-15 02:06:18] Epoch 39/50, Validation Loss: 0.2617, Validation Accuracy: 93.09%
[2024-08-15 02:07:26] Epoch 40/50, Training Loss: 0.1594, Training Accuracy: 94.89%
[2024-08-15 02:07:32] Epoch 40/50, Validation Loss: 0.2617, Validation Accuracy: 93.09%
[2024-08-15 02:08:36] Epoch 41/50, Training Loss: 0.1574, Training Accuracy: 94.95%
[2024-08-15 02:08:42] Training complete.
[2024-08-15 02:08:42] 

New training session


[2024-08-15 02:08:42] KeywordSpottingModel(
  (proj): Linear(in_features=13, out_features=101, bias=True)
  (mamba): Mamba(
    (in_proj): Linear(in_features=101, out_features=404, bias=False)
    (conv1d): Conv1d(202, 202, kernel_size=(18,), stride=(1,), padding=(17,), groups=202)
    (act): SiLU()
    (x_proj): Linear(in_features=202, out_features=103, bias=False)
    (dt_proj): Linear(in_features=7, out_features=202, bias=True)
    (out_proj): Linear(in_features=202, out_features=101, bias=False)
  )
  (fc): Linear(in_features=101, out_features=12, bias=True)
  (dropout): Dropout(p=0.5, inplace=False)
)
[2024-08-15 02:09:45] Epoch 1/50, Training Loss: 8.4918, Training Accuracy: 54.51%
[2024-08-15 02:09:51] Epoch 1/50, Validation Loss: 1.4286, Validation Accuracy: 62.30%
[2024-08-15 02:10:59] Epoch 2/50, Training Loss: 1.3037, Training Accuracy: 64.40%
[2024-08-15 02:11:05] Epoch 2/50, Validation Loss: 0.9774, Validation Accuracy: 70.22%
…
[2024-08-15 02:53:19] Epoch 37/50, Validation Loss: 0.2701, Validation Accuracy: 92.39%
[2024-08-15 02:54:28] Epoch 38/50, Training Loss: 0.1580, Training Accuracy: 94.93%
[2024-08-15 02:54:34] Epoch 38/50, Validation Loss: 0.2702, Validation Accuracy: 92.40%
[2024-08-15 02:55:40] Epoch 39/50, Training Loss: 0.1590, Training Accuracy: 94.92%
[2024-08-15 02:55:47] Epoch 39/50, Validation Loss: 0.2701, Validation Accuracy: 92.43%
[2024-08-15 02:56:54] Epoch 40/50, Training Loss: 0.1598, Training Accuracy: 94.83%
[2024-08-15 02:57:00] Training complete.
[2024-08-15 02:57:00] 

New training session


[2024-08-15 02:57:00] KeywordSpottingModel(
  (proj): Linear(in_features=13, out_features=101, bias=True)
  (mamba): Mamba(
    (in_proj): Linear(in_features=101, out_features=404, bias=False)
    (conv1d): Conv1d(202, 202, kernel_size=(20,), stride=(1,), padding=(19,), groups=202)
    (act): SiLU()
    (x_proj): Linear(in_features=202, out_features=117, bias=False)
    (dt_proj): Linear(in_features=7, out_features=202, bias=True)
    (out_proj): Linear(in_features=202, out_features=101, bias=False)
  )
  (fc): Linear(in_features=101, out_features=12, bias=True)
  (dropout): Dropout(p=0.5, inplace=False)
)
[2024-08-15 02:58:06] Epoch 1/50, Training Loss: 16.7126, Training Accuracy: 53.01%
[2024-08-15 02:58:12] Epoch 1/50, Validation Loss: 1.4322, Validation Accuracy: 62.27%
[2024-08-15 02:59:18] Epoch 2/50, Training Loss: 1.3474, Training Accuracy: 63.88%
[2024-08-15 02:59:25] Epoch 2/50, Validation Loss: 1.0335, Validation Accuracy: 68.03%
…
[2024-08-15 03:45:24] Epoch 40/50, Validation Loss: 0.2566, Validation Accuracy: 93.38%
[2024-08-15 03:46:26] Epoch 41/50, Training Loss: 0.1710, Training Accuracy: 94.67%
[2024-08-15 03:46:34] Epoch 41/50, Validation Loss: 0.2566, Validation Accuracy: 93.38%
[2024-08-15 03:47:40] Epoch 42/50, Training Loss: 0.1721, Training Accuracy: 94.58%
[2024-08-15 03:47:46] Epoch 42/50, Validation Loss: 0.2566, Validation Accuracy: 93.38%
[2024-08-15 03:48:53] Epoch 43/50, Training Loss: 0.1731, Training Accuracy: 94.57%
[2024-08-15 03:48:59] Training complete.
[2024-08-15 03:48:59] 

New training session


[2024-08-15 03:48:59] KeywordSpottingModel(
  (proj): Linear(in_features=13, out_features=101, bias=True)
  (mamba): Mamba(
    (in_proj): Linear(in_features=101, out_features=404, bias=False)
    (conv1d): Conv1d(202, 202, kernel_size=(20,), stride=(1,), padding=(19,), groups=202)
    (act): SiLU()
    (x_proj): Linear(in_features=202, out_features=119, bias=False)
    (dt_proj): Linear(in_features=7, out_features=202, bias=True)
    (out_proj): Linear(in_features=202, out_features=101, bias=False)
  )
  (fc): Linear(in_features=101, out_features=12, bias=True)
  (dropout): Dropout(p=0.5, inplace=False)
)
[2024-08-15 03:50:08] Epoch 1/50, Training Loss: 9.1589, Training Accuracy: 56.25%
[2024-08-15 03:50:14] Epoch 1/50, Validation Loss: 1.3941, Validation Accuracy: 62.54%
[2024-08-15 03:51:22] Epoch 2/50, Training Loss: 1.2013, Training Accuracy: 66.03%
[2024-08-15 03:51:29] Epoch 2/50, Validation Loss: 0.8706, Validation Accuracy: 71.61%
…
[2024-08-15 04:35:25] Epoch 38/50, Validation Loss: 0.5152, Validation Accuracy: 83.42%
[2024-08-15 04:36:32] Epoch 39/50, Training Loss: 0.5115, Training Accuracy: 83.60%
[2024-08-15 04:36:38] Epoch 39/50, Validation Loss: 0.4880, Validation Accuracy: 84.43%
[2024-08-15 04:37:46] Epoch 40/50, Training Loss: 0.4939, Training Accuracy: 84.06%
[2024-08-15 04:37:52] Epoch 40/50, Validation Loss: 0.4848, Validation Accuracy: 84.58%
[2024-08-15 04:39:00] Epoch 41/50, Training Loss: 0.4895, Training Accuracy: 84.30%
[2024-08-15 04:39:06] Training complete.
[2024-08-15 04:39:06] 

New training session


[2024-08-15 04:39:06] KeywordSpottingModel(
  (proj): Linear(in_features=13, out_features=101, bias=True)
  (mamba): Mamba(
    (in_proj): Linear(in_features=101, out_features=404, bias=False)
    (conv1d): Conv1d(202, 202, kernel_size=(25,), stride=(1,), padding=(24,), groups=202)
    (act): SiLU()
    (x_proj): Linear(in_features=202, out_features=113, bias=False)
    (dt_proj): Linear(in_features=7, out_features=202, bias=True)
    (out_proj): Linear(in_features=202, out_features=101, bias=False)
  )
  (fc): Linear(in_features=101, out_features=12, bias=True)
  (dropout): Dropout(p=0.5, inplace=False)
)
[2024-08-15 04:40:14] Epoch 1/50, Training Loss: 14.8015, Training Accuracy: 53.49%
[2024-08-15 04:40:20] Epoch 1/50, Validation Loss: 1.3854, Validation Accuracy: 62.80%
[2024-08-15 04:41:27] Epoch 2/50, Training Loss: 1.3150, Training Accuracy: 63.97%
[2024-08-15 04:41:35] Epoch 2/50, Validation Loss: 0.9976, Validation Accuracy: 68.90%
…
[2024-08-15 05:29:11] Epoch 41/50, Validation Loss: 0.2542, Validation Accuracy: 92.74%
[2024-08-15 05:30:17] Epoch 42/50, Training Loss: 0.1928, Training Accuracy: 93.94%
[2024-08-15 05:30:24] Epoch 42/50, Validation Loss: 0.2542, Validation Accuracy: 92.75%
[2024-08-15 05:31:30] Epoch 43/50, Training Loss: 0.1940, Training Accuracy: 93.96%
[2024-08-15 05:31:37] Epoch 43/50, Validation Loss: 0.2542, Validation Accuracy: 92.75%
[2024-08-15 05:32:43] Epoch 44/50, Training Loss: 0.1931, Training Accuracy: 93.95%
[2024-08-15 05:32:49] Training complete.
[2024-08-15 05:32:49] 

New training session


[2024-08-15 05:32:49] KeywordSpottingModel(
  (proj): Linear(in_features=13, out_features=101, bias=True)
  (mamba): Mamba(
    (in_proj): Linear(in_features=101, out_features=404, bias=False)
    (conv1d): Conv1d(202, 202, kernel_size=(20,), stride=(1,), padding=(19,), groups=202)
    (act): SiLU()
    (x_proj): Linear(in_features=202, out_features=107, bias=False)
    (dt_proj): Linear(in_features=7, out_features=202, bias=True)
    (out_proj): Linear(in_features=202, out_features=101, bias=False)
  )
  (fc): Linear(in_features=101, out_features=12, bias=True)
  (dropout): Dropout(p=0.5, inplace=False)
)
[2024-08-15 05:33:51] Epoch 1/50, Training Loss: 79.2418, Training Accuracy: 48.84%
[2024-08-15 05:33:58] Epoch 1/50, Validation Loss: 1.5032, Validation Accuracy: 61.69%
[2024-08-15 05:34:58] Epoch 2/50, Training Loss: 1.5523, Training Accuracy: 61.64%
[2024-08-15 05:35:05] Epoch 2/50, Validation Loss: 1.2971, Validation Accuracy: 63.40%
…
[2024-08-15 05:52:23] Epoch 16/50, Validation Loss: 0.7211, Validation Accuracy: 77.49%
[2024-08-15 05:53:30] Epoch 17/50, Training Loss: 0.7576, Training Accuracy: 76.01%
[2024-08-15 05:53:36] Epoch 17/50, Validation Loss: 0.7068, Validation Accuracy: 77.93%
[2024-08-15 05:54:43] Epoch 18/50, Training Loss: 0.7504, Training Accuracy: 76.22%
[2024-08-15 05:54:49] Epoch 18/50, Validation Loss: 0.7068, Validation Accuracy: 78.08%
[2024-08-15 05:55:56] Epoch 19/50, Training Loss: 0.7446, Training Accuracy: 76.58%
[2024-08-15 05:56:02] Training complete.
[2024-08-15 05:56:02] 

New training session


[2024-08-15 05:56:02] KeywordSpottingModel(
  (proj): Linear(in_features=13, out_features=101, bias=True)
  (mamba): Mamba(
    (in_proj): Linear(in_features=101, out_features=606, bias=False)
    (conv1d): Conv1d(303, 303, kernel_size=(22,), stride=(1,), padding=(21,), groups=303)
    (act): SiLU()
    (x_proj): Linear(in_features=303, out_features=135, bias=False)
    (dt_proj): Linear(in_features=7, out_features=303, bias=True)
    (out_proj): Linear(in_features=303, out_features=101, bias=False)
  )
  (fc): Linear(in_features=101, out_features=12, bias=True)
  (dropout): Dropout(p=0.5, inplace=False)
)
[2024-08-15 05:57:08] Epoch 1/50, Training Loss: 81.9131, Training Accuracy: 48.57%
[2024-08-15 05:57:15] Epoch 1/50, Validation Loss: 1.5307, Validation Accuracy: 61.56%
[2024-08-15 05:58:22] Epoch 2/50, Training Loss: 1.5213, Training Accuracy: 61.20%
[2024-08-15 05:58:29] Epoch 2/50, Validation Loss: 1.1377, Validation Accuracy: 66.50%
…
[2024-08-15 06:42:45] Epoch 38/50, Validation Loss: 0.3018, Validation Accuracy: 91.93%
[2024-08-15 06:43:51] Epoch 39/50, Training Loss: 0.1731, Training Accuracy: 94.38%
[2024-08-15 06:43:59] Epoch 39/50, Validation Loss: 0.3019, Validation Accuracy: 91.93%
[2024-08-15 06:45:08] Epoch 40/50, Training Loss: 0.1723, Training Accuracy: 94.44%
[2024-08-15 06:45:14] Epoch 40/50, Validation Loss: 0.3019, Validation Accuracy: 91.91%
[2024-08-15 06:46:22] Epoch 41/50, Training Loss: 0.1722, Training Accuracy: 94.57%
[2024-08-15 06:46:28] Training complete.
[2024-08-15 06:46:28] 

New training session


[2024-08-15 06:46:28] KeywordSpottingModel(
  (proj): Linear(in_features=13, out_features=101, bias=True)
  (mamba): Mamba(
    (in_proj): Linear(in_features=101, out_features=404, bias=False)
    (conv1d): Conv1d(202, 202, kernel_size=(19,), stride=(1,), padding=(18,), groups=202)
    (act): SiLU()
    (x_proj): Linear(in_features=202, out_features=117, bias=False)
    (dt_proj): Linear(in_features=7, out_features=202, bias=True)
    (out_proj): Linear(in_features=202, out_features=101, bias=False)
  )
  (fc): Linear(in_features=101, out_features=12, bias=True)
  (dropout): Dropout(p=0.5, inplace=False)
)
[2024-08-15 06:47:31] Epoch 1/50, Training Loss: 20.0866, Training Accuracy: 51.11%
[2024-08-15 06:47:38] Epoch 1/50, Validation Loss: 1.5161, Validation Accuracy: 61.98%
[2024-08-15 06:48:43] Epoch 2/50, Training Loss: 1.4694, Training Accuracy: 62.26%
[2024-08-15 06:48:50] Epoch 2/50, Validation Loss: 1.1522, Validation Accuracy: 66.10%
…
[2024-08-15 07:57:07] Epoch 10/50, Training Loss: 0.3561, Training Accuracy: 88.81%
[2024-08-15 07:57:14] Epoch 10/50, Validation Loss: 0.3654, Validation Accuracy: 89.11%
[2024-08-15 07:58:20] Epoch 11/50, Training Loss: 0.3439, Training Accuracy: 89.26%
[2024-08-15 07:58:26] Epoch 11/50, Validation Loss: 0.3229, Validation Accuracy: 90.22%
[2024-08-15 07:59:33] Epoch 12/50, Training Loss: 0.3312, Training Accuracy: 89.58%
[2024-08-15 07:59:39] Epoch 12/50, Validation Loss: 0.3143, Validation Accuracy: 90.48%
[2024-08-15 08:06:24] 

New training session


[2024-08-15 08:06:24] KeywordSpottingModel(
  (proj): Linear(in_features=13, out_features=101, bias=True)
  (mamba): Mamba(
    (in_proj): Linear(in_features=101, out_features=404, bias=False)
    (conv1d): Conv1d(202, 202, kernel_size=(19,), stride=(1,), padding=(18,), groups=202)
    (act): SiLU()
    (x_proj): Linear(in_features=202, out_features=117, bias=False)
    (dt_proj): Linear(in_features=7, out_features=202, bias=True)
    (out_proj): Linear(in_features=202, out_features=101, bias=False)
  )
  (fc): Linear(in_features=101, out_features=12, bias=True)
  (dropout): Dropout(p=0.5, inplace=False)
)
[2024-08-15 08:07:47] Epoch 1/100, Training Loss: 38.9316, Training Accuracy: 49.25%
[2024-08-15 08:07:54] Epoch 1/100, Validation Loss: 1.6718, Validation Accuracy: 61.84%
[2024-08-15 08:09:17] Epoch 2/100, Training Loss: 1.7098, Training Accuracy: 62.78%
[2024-08-15 08:09:24] Epoch 2/100, Validation Loss: 1.7131, Validation Accuracy: 62.14%
[2024-08-15 08:10:38] Epoch 3/100, Training Loss: 1.7533, Training Accuracy: 63.21%
[2024-08-15 08:10:46] Epoch 3/100, Validation Loss: 1.8160, Validation Accuracy: 62.15%
[2024-08-15 08:12:03] Epoch 4/100, Training Loss: 1.8237, Training Accuracy: 63.22%
[2024-08-15 08:12:10] Epoch 4/100, Validation Loss: 1.8147, Validation Accuracy: 62.15%
[2024-08-15 08:12:56] 

New training session


[2024-08-15 08:12:56] KeywordSpottingModel(
  (proj): Linear(in_features=13, out_features=106, bias=True)
  (mamba): Mamba(
    (in_proj): Linear(in_features=106, out_features=848, bias=False)
    (conv1d): Conv1d(424, 424, kernel_size=(23,), stride=(1,), padding=(22,), groups=424)
    (act): SiLU()
    (x_proj): Linear(in_features=424, out_features=109, bias=False)
    (dt_proj): Linear(in_features=7, out_features=424, bias=True)
    (out_proj): Linear(in_features=424, out_features=106, bias=False)
  )
  (fc): Linear(in_features=106, out_features=12, bias=True)
  (dropout): Dropout(p=0.5, inplace=False)
)
[2024-08-15 08:14:17] 

New training session


[2024-08-15 08:14:17] KeywordSpottingModel(
  (proj): Linear(in_features=13, out_features=100, bias=True)
  (mamba): Mamba(
    (in_proj): Linear(in_features=100, out_features=800, bias=False)
    (conv1d): Conv1d(400, 400, kernel_size=(22,), stride=(1,), padding=(21,), groups=400)
    (act): SiLU()
    (x_proj): Linear(in_features=400, out_features=97, bias=False)
    (dt_proj): Linear(in_features=7, out_features=400, bias=True)
    (out_proj): Linear(in_features=400, out_features=100, bias=False)
  )
  (fc): Linear(in_features=100, out_features=12, bias=True)
  (dropout): Dropout(p=0.5, inplace=False)
)
[2024-08-15 08:14:42] 

New training session


[2024-08-15 08:14:42] KeywordSpottingModel(
  (proj): Linear(in_features=16, out_features=120, bias=True)
  (mamba): Mamba(
    (in_proj): Linear(in_features=120, out_features=480, bias=False)
    (conv1d): Conv1d(240, 240, kernel_size=(19,), stride=(1,), padding=(18,), groups=240)
    (act): SiLU()
    (x_proj): Linear(in_features=240, out_features=76, bias=False)
    (dt_proj): Linear(in_features=8, out_features=240, bias=True)
    (out_proj): Linear(in_features=240, out_features=120, bias=False)
  )
  (fc): Linear(in_features=120, out_features=12, bias=True)
  (dropout): Dropout(p=0.5, inplace=False)
)
[2024-08-15 08:15:54] 

New training session


[2024-08-15 08:15:54] KeywordSpottingModel(
  (proj): Linear(in_features=16, out_features=75, bias=True)
  (mamba): Mamba(
    (in_proj): Linear(in_features=75, out_features=600, bias=False)
    (conv1d): Conv1d(300, 300, kernel_size=(21,), stride=(1,), padding=(20,), groups=300)
    (act): SiLU()
    (x_proj): Linear(in_features=300, out_features=133, bias=False)
    (dt_proj): Linear(in_features=5, out_features=300, bias=True)
    (out_proj): Linear(in_features=300, out_features=75, bias=False)
  )
  (fc): Linear(in_features=75, out_features=12, bias=True)
  (dropout): Dropout(p=0.5, inplace=False)
)
[2024-08-15 08:17:46] 

New training session


[2024-08-15 08:17:46] KeywordSpottingModel(
  (proj): Linear(in_features=13, out_features=125, bias=True)
  (mamba): Mamba(
    (in_proj): Linear(in_features=125, out_features=750, bias=False)
    (conv1d): Conv1d(375, 375, kernel_size=(25,), stride=(1,), padding=(24,), groups=375)
    (act): SiLU()
    (x_proj): Linear(in_features=375, out_features=126, bias=False)
    (dt_proj): Linear(in_features=8, out_features=375, bias=True)
    (out_proj): Linear(in_features=375, out_features=125, bias=False)
  )
  (fc): Linear(in_features=125, out_features=12, bias=True)
  (dropout): Dropout(p=0.5, inplace=False)
)
[2024-08-15 08:18:13] 

New training session


[2024-08-15 08:18:13] KeywordSpottingModel(
  (proj): Linear(in_features=13, out_features=64, bias=True)
  (mamba): Mamba(
    (in_proj): Linear(in_features=64, out_features=384, bias=False)
    (conv1d): Conv1d(192, 192, kernel_size=(20,), stride=(1,), padding=(19,), groups=192)
    (act): SiLU()
    (x_proj): Linear(in_features=192, out_features=110, bias=False)
    (dt_proj): Linear(in_features=4, out_features=192, bias=True)
    (out_proj): Linear(in_features=192, out_features=64, bias=False)
  )
  (fc): Linear(in_features=64, out_features=12, bias=True)
  (dropout): Dropout(p=0.5, inplace=False)
)
[2024-08-15 08:18:32] 

New training session


[2024-08-15 08:18:32] KeywordSpottingModel(
  (proj): Linear(in_features=16, out_features=99, bias=True)
  (mamba): Mamba(
    (in_proj): Linear(in_features=99, out_features=396, bias=False)
    (conv1d): Conv1d(198, 198, kernel_size=(21,), stride=(1,), padding=(20,), groups=198)
    (act): SiLU()
    (x_proj): Linear(in_features=198, out_features=83, bias=False)
    (dt_proj): Linear(in_features=7, out_features=198, bias=True)
    (out_proj): Linear(in_features=198, out_features=99, bias=False)
  )
  (fc): Linear(in_features=99, out_features=12, bias=True)
  (dropout): Dropout(p=0.5, inplace=False)
)
[2024-08-15 08:18:43] 

New training session


[2024-08-15 08:18:43] KeywordSpottingModel(
  (proj): Linear(in_features=13, out_features=82, bias=True)
  (mamba): Mamba(
    (in_proj): Linear(in_features=82, out_features=492, bias=False)
    (conv1d): Conv1d(246, 246, kernel_size=(25,), stride=(1,), padding=(24,), groups=246)
    (act): SiLU()
    (x_proj): Linear(in_features=246, out_features=88, bias=False)
    (dt_proj): Linear(in_features=6, out_features=246, bias=True)
    (out_proj): Linear(in_features=246, out_features=82, bias=False)
  )
  (fc): Linear(in_features=82, out_features=12, bias=True)
  (dropout): Dropout(p=0.5, inplace=False)
)
[2024-08-15 08:19:06] 

New training session


[2024-08-15 08:19:06] KeywordSpottingModel(
  (proj): Linear(in_features=13, out_features=101, bias=True)
  (mamba): Mamba(
    (in_proj): Linear(in_features=101, out_features=404, bias=False)
    (conv1d): Conv1d(202, 202, kernel_size=(18,), stride=(1,), padding=(17,), groups=202)
    (act): SiLU()
    (x_proj): Linear(in_features=202, out_features=87, bias=False)
    (dt_proj): Linear(in_features=7, out_features=202, bias=True)
    (out_proj): Linear(in_features=202, out_features=101, bias=False)
  )
  (fc): Linear(in_features=101, out_features=12, bias=True)
  (dropout): Dropout(p=0.5, inplace=False)
)
[2024-08-15 08:20:28] Epoch 1/50, Training Loss: 570.8501, Training Accuracy: 44.24%
[2024-08-15 08:20:37] Epoch 1/50, Validation Loss: 2.3849, Validation Accuracy: 59.31%
[2024-08-15 08:21:59] Epoch 2/50, Training Loss: 2.0288, Training Accuracy: 56.58%
[2024-08-15 08:22:06] Epoch 2/50, Validation Loss: 1.4285, Validation Accuracy: 62.79%
…
[2024-08-15 08:29:32] Epoch 8/50, Validation Loss: 1372.0884, Validation Accuracy: 51.65%
[2024-08-15 08:30:38] Epoch 9/50, Training Loss: 696.7331, Training Accuracy: 47.81%
[2024-08-15 08:30:45] Epoch 9/50, Validation Loss: 347.9505, Validation Accuracy: 50.23%
[2024-08-15 08:31:50] Epoch 10/50, Training Loss: 268.8038, Training Accuracy: 48.28%
[2024-08-15 08:31:58] Epoch 10/50, Validation Loss: 280.1930, Validation Accuracy: 50.96%
[2024-08-15 08:33:04] Epoch 11/50, Training Loss: 218.5893, Training Accuracy: 48.83%
[2024-08-15 08:33:12] Training complete.
[2024-08-15 08:33:12] 

New training session


[2024-08-15 08:33:12] KeywordSpottingModel(
  (proj): Linear(in_features=13, out_features=101, bias=True)
  (mamba): Mamba(
    (in_proj): Linear(in_features=101, out_features=606, bias=False)
    (conv1d): Conv1d(303, 303, kernel_size=(26,), stride=(1,), padding=(25,), groups=303)
    (act): SiLU()
    (x_proj): Linear(in_features=303, out_features=87, bias=False)
    (dt_proj): Linear(in_features=7, out_features=303, bias=True)
    (out_proj): Linear(in_features=303, out_features=101, bias=False)
  )
  (fc): Linear(in_features=101, out_features=12, bias=True)
  (dropout): Dropout(p=0.5, inplace=False)
)
[2024-08-15 08:34:18] Epoch 1/50, Training Loss: 22.8436, Training Accuracy: 52.61%
[2024-08-15 08:34:25] Epoch 1/50, Validation Loss: 1.4040, Validation Accuracy: 62.61%
[2024-08-15 08:35:31] Epoch 2/50, Training Loss: 1.3231, Training Accuracy: 63.89%
[2024-08-15 08:35:38] Epoch 2/50, Validation Loss: 0.9872, Validation Accuracy: 69.00%
…
[2024-08-15 08:40:30] Epoch 6/50, Validation Loss: 2.6177, Validation Accuracy: 60.57%
[2024-08-15 08:41:34] Epoch 7/50, Training Loss: 1.6011, Training Accuracy: 62.86%
[2024-08-15 08:41:41] Epoch 7/50, Validation Loss: 1.4102, Validation Accuracy: 66.00%
[2024-08-15 08:42:46] Epoch 8/50, Training Loss: 1.2126, Training Accuracy: 66.39%
[2024-08-15 08:42:54] Epoch 8/50, Validation Loss: 1.2114, Validation Accuracy: 66.88%
[2024-08-15 08:43:58] Epoch 9/50, Training Loss: 1.1198, Training Accuracy: 67.84%
[2024-08-15 08:44:05] Training complete.
[2024-08-15 08:44:06] 

New training session


[2024-08-15 08:44:06] KeywordSpottingModel(
  (proj): Linear(in_features=13, out_features=101, bias=True)
  (mamba): Mamba(
    (in_proj): Linear(in_features=101, out_features=404, bias=False)
    (conv1d): Conv1d(202, 202, kernel_size=(32,), stride=(1,), padding=(31,), groups=202)
    (act): SiLU()
    (x_proj): Linear(in_features=202, out_features=133, bias=False)
    (dt_proj): Linear(in_features=7, out_features=202, bias=True)
    (out_proj): Linear(in_features=202, out_features=101, bias=False)
  )
  (fc): Linear(in_features=101, out_features=12, bias=True)
  (dropout): Dropout(p=0.5, inplace=False)
)
[2024-08-15 08:45:11] Epoch 1/50, Training Loss: 57.0915, Training Accuracy: 49.24%
[2024-08-15 08:45:18] Epoch 1/50, Validation Loss: 1.4441, Validation Accuracy: 62.28%
[2024-08-15 08:46:24] Epoch 2/50, Training Loss: 1.4469, Training Accuracy: 61.93%
[2024-08-15 08:46:31] Epoch 2/50, Validation Loss: 1.1615, Validation Accuracy: 64.81%
…
[2024-08-15 09:36:20] Epoch 42/50, Validation Loss: 0.2275, Validation Accuracy: 93.63%
[2024-08-15 09:37:30] Epoch 43/50, Training Loss: 0.1522, Training Accuracy: 95.18%
[2024-08-15 09:37:37] Epoch 43/50, Validation Loss: 0.2281, Validation Accuracy: 93.70%
[2024-08-15 09:38:45] Epoch 44/50, Training Loss: 0.1529, Training Accuracy: 95.24%
[2024-08-15 09:38:52] Epoch 44/50, Validation Loss: 0.2277, Validation Accuracy: 93.71%
[2024-08-15 09:40:01] Epoch 45/50, Training Loss: 0.1513, Training Accuracy: 95.23%
[2024-08-15 09:40:07] Training complete.
[2024-08-15 09:40:08] 

New training session


[2024-08-15 09:40:08] KeywordSpottingModel(
  (proj): Linear(in_features=13, out_features=101, bias=True)
  (mamba): Mamba(
    (in_proj): Linear(in_features=101, out_features=606, bias=False)
    (conv1d): Conv1d(303, 303, kernel_size=(32,), stride=(1,), padding=(31,), groups=303)
    (act): SiLU()
    (x_proj): Linear(in_features=303, out_features=119, bias=False)
    (dt_proj): Linear(in_features=7, out_features=303, bias=True)
    (out_proj): Linear(in_features=303, out_features=101, bias=False)
  )
  (fc): Linear(in_features=101, out_features=12, bias=True)
  (dropout): Dropout(p=0.5, inplace=False)
)
[2024-08-15 09:41:15] Epoch 1/50, Training Loss: 27.4317, Training Accuracy: 52.44%
[2024-08-15 09:41:22] Epoch 1/50, Validation Loss: 1.3869, Validation Accuracy: 62.72%
[2024-08-15 09:42:30] Epoch 2/50, Training Loss: 1.3074, Training Accuracy: 64.14%
[2024-08-15 09:42:36] Epoch 2/50, Validation Loss: 1.0184, Validation Accuracy: 68.22%
…
[2024-08-15 09:48:48] Epoch 7/50, Validation Loss: 5.9079, Validation Accuracy: 54.25%
[2024-08-15 09:49:56] Epoch 8/50, Training Loss: 3.1791, Training Accuracy: 57.23%
[2024-08-15 09:50:03] Epoch 8/50, Validation Loss: 2.2972, Validation Accuracy: 61.69%
[2024-08-15 09:51:13] Epoch 9/50, Training Loss: 1.8123, Training Accuracy: 61.30%
[2024-08-15 09:51:20] Epoch 9/50, Validation Loss: 2.0048, Validation Accuracy: 63.80%
[2024-08-15 09:52:28] Epoch 10/50, Training Loss: 1.5531, Training Accuracy: 63.26%
[2024-08-15 09:52:35] Training complete.
[2024-08-15 09:52:35] 

New training session


[2024-08-15 09:52:35] KeywordSpottingModel(
  (proj): Linear(in_features=13, out_features=101, bias=True)
  (mamba): Mamba(
    (in_proj): Linear(in_features=101, out_features=808, bias=False)
    (conv1d): Conv1d(404, 404, kernel_size=(23,), stride=(1,), padding=(22,), groups=404)
    (act): SiLU()
    (x_proj): Linear(in_features=404, out_features=131, bias=False)
    (dt_proj): Linear(in_features=7, out_features=404, bias=True)
    (out_proj): Linear(in_features=404, out_features=101, bias=False)
  )
  (fc): Linear(in_features=101, out_features=12, bias=True)
  (dropout): Dropout(p=0.5, inplace=False)
)
[2024-08-15 09:53:40] Epoch 1/50, Training Loss: 261.8196, Training Accuracy: 47.97%
[2024-08-15 09:53:47] Epoch 1/50, Validation Loss: 1.6961, Validation Accuracy: 61.29%
[2024-08-15 09:54:55] Epoch 2/50, Training Loss: 1.6119, Training Accuracy: 60.16%
[2024-08-15 09:55:02] Epoch 2/50, Validation Loss: 1.1587, Validation Accuracy: 65.84%
…
[2024-08-15 10:00:58] Epoch 7/50, Validation Loss: 4779.9130, Validation Accuracy: 51.98%
[2024-08-15 10:02:02] Epoch 8/50, Training Loss: 2274.2947, Training Accuracy: 48.50%
[2024-08-15 10:02:09] Epoch 8/50, Validation Loss: 1273.6199, Validation Accuracy: 52.67%
[2024-08-15 10:03:14] Epoch 9/50, Training Loss: 944.5091, Training Accuracy: 49.36%
[2024-08-15 10:03:21] Epoch 9/50, Validation Loss: 955.2582, Validation Accuracy: 52.91%
[2024-08-15 10:04:25] Epoch 10/50, Training Loss: 636.1797, Training Accuracy: 49.62%
[2024-08-15 10:04:32] Training complete.
[2024-08-15 10:04:32] 

New training session


[2024-08-15 10:04:32] KeywordSpottingModel(
  (proj): Linear(in_features=13, out_features=101, bias=True)
  (mamba): Mamba(
    (in_proj): Linear(in_features=101, out_features=404, bias=False)
    (conv1d): Conv1d(202, 202, kernel_size=(27,), stride=(1,), padding=(26,), groups=202)
    (act): SiLU()
    (x_proj): Linear(in_features=202, out_features=105, bias=False)
    (dt_proj): Linear(in_features=7, out_features=202, bias=True)
    (out_proj): Linear(in_features=202, out_features=101, bias=False)
  )
  (fc): Linear(in_features=101, out_features=12, bias=True)
  (dropout): Dropout(p=0.5, inplace=False)
)
[2024-08-15 10:05:36] Epoch 1/50, Training Loss: 20.8214, Training Accuracy: 49.52%
[2024-08-15 10:05:43] Epoch 1/50, Validation Loss: 1.5281, Validation Accuracy: 61.67%
[2024-08-15 10:06:47] Epoch 2/50, Training Loss: 1.5226, Training Accuracy: 61.51%
[2024-08-15 10:06:55] Epoch 2/50, Validation Loss: 1.1921, Validation Accuracy: 65.41%
…
[2024-08-15 10:42:31] Epoch 31/50, Validation Loss: 0.2574, Validation Accuracy: 92.52%
[2024-08-15 10:43:38] Epoch 32/50, Training Loss: 0.1635, Training Accuracy: 94.80%
[2024-08-15 10:43:45] Epoch 32/50, Validation Loss: 0.2561, Validation Accuracy: 92.51%
[2024-08-15 10:44:53] Epoch 33/50, Training Loss: 0.1617, Training Accuracy: 94.81%
[2024-08-15 10:45:00] Epoch 33/50, Validation Loss: 0.2556, Validation Accuracy: 92.62%
[2024-08-15 10:46:09] Epoch 34/50, Training Loss: 0.1582, Training Accuracy: 94.93%
[2024-08-15 10:46:16] Training complete.
[2024-08-15 10:46:16] 

New training session


[2024-08-15 10:46:16] KeywordSpottingModel(
  (proj): Linear(in_features=13, out_features=101, bias=True)
  (mamba): Mamba(
    (in_proj): Linear(in_features=101, out_features=606, bias=False)
    (conv1d): Conv1d(303, 303, kernel_size=(30,), stride=(1,), padding=(29,), groups=303)
    (act): SiLU()
    (x_proj): Linear(in_features=303, out_features=103, bias=False)
    (dt_proj): Linear(in_features=7, out_features=303, bias=True)
    (out_proj): Linear(in_features=303, out_features=101, bias=False)
  )
  (fc): Linear(in_features=101, out_features=12, bias=True)
  (dropout): Dropout(p=0.5, inplace=False)
)
[2024-08-15 10:47:23] Epoch 1/50, Training Loss: 20.0401, Training Accuracy: 54.67%
[2024-08-15 10:47:30] Epoch 1/50, Validation Loss: 1.3616, Validation Accuracy: 62.56%
[2024-08-15 10:48:37] Epoch 2/50, Training Loss: 1.1500, Training Accuracy: 66.58%
[2024-08-15 10:48:44] Epoch 2/50, Validation Loss: 0.8532, Validation Accuracy: 72.14%
…
[2024-08-15 10:53:41] Epoch 6/50, Validation Loss: 36.8984, Validation Accuracy: 53.91%
[2024-08-15 10:54:50] Epoch 7/50, Training Loss: 12.3738, Training Accuracy: 53.58%
[2024-08-15 10:54:57] Epoch 7/50, Validation Loss: 10.4681, Validation Accuracy: 55.57%
[2024-08-15 10:56:02] Epoch 8/50, Training Loss: 5.7565, Training Accuracy: 56.66%
[2024-08-15 10:56:10] Epoch 8/50, Validation Loss: 7.9750, Validation Accuracy: 58.53%
[2024-08-15 10:57:17] Epoch 9/50, Training Loss: 4.3016, Training Accuracy: 58.17%
[2024-08-15 10:57:24] Training complete.
[2024-08-15 10:57:24] 

New training session


[2024-08-15 10:57:24] KeywordSpottingModel(
  (proj): Linear(in_features=13, out_features=101, bias=True)
  (mamba): Mamba(
    (in_proj): Linear(in_features=101, out_features=404, bias=False)
    (conv1d): Conv1d(202, 202, kernel_size=(19,), stride=(1,), padding=(18,), groups=202)
    (act): SiLU()
    (x_proj): Linear(in_features=202, out_features=127, bias=False)
    (dt_proj): Linear(in_features=7, out_features=202, bias=True)
    (out_proj): Linear(in_features=202, out_features=101, bias=False)
  )
  (fc): Linear(in_features=101, out_features=12, bias=True)
  (dropout): Dropout(p=0.5, inplace=False)
)
[2024-08-15 10:58:29] Epoch 1/50, Training Loss: 185.5452, Training Accuracy: 46.91%
[2024-08-15 10:58:36] Epoch 1/50, Validation Loss: 1.6431, Validation Accuracy: 61.12%
[2024-08-15 10:59:43] Epoch 2/50, Training Loss: 1.5938, Training Accuracy: 60.51%
[2024-08-15 10:59:50] Epoch 2/50, Validation Loss: 1.3088, Validation Accuracy: 63.64%
…
[2024-08-15 11:05:57] Epoch 7/50, Validation Loss: 671.0495, Validation Accuracy: 48.65%
[2024-08-15 11:07:01] Epoch 8/50, Training Loss: 4276.4872, Training Accuracy: 44.01%
[2024-08-15 11:07:08] Epoch 8/50, Validation Loss: 305.7483, Validation Accuracy: 46.79%
[2024-08-15 11:08:12] Epoch 9/50, Training Loss: 214.8786, Training Accuracy: 43.57%
[2024-08-15 11:08:20] Epoch 9/50, Validation Loss: 187.6698, Validation Accuracy: 47.83%
[2024-08-15 11:09:24] Epoch 10/50, Training Loss: 116.8697, Training Accuracy: 44.56%
[2024-08-15 11:09:32] Training complete.
[2024-08-15 11:09:32] 

New training session


[2024-08-15 11:09:32] KeywordSpottingModel(
  (proj): Linear(in_features=13, out_features=101, bias=True)
  (mamba): Mamba(
    (in_proj): Linear(in_features=101, out_features=404, bias=False)
    (conv1d): Conv1d(202, 202, kernel_size=(25,), stride=(1,), padding=(24,), groups=202)
    (act): SiLU()
    (x_proj): Linear(in_features=202, out_features=117, bias=False)
    (dt_proj): Linear(in_features=7, out_features=202, bias=True)
    (out_proj): Linear(in_features=202, out_features=101, bias=False)
  )
  (fc): Linear(in_features=101, out_features=12, bias=True)
  (dropout): Dropout(p=0.5, inplace=False)
)
[2024-08-15 11:10:38] Epoch 1/50, Training Loss: 13.0339, Training Accuracy: 52.89%
[2024-08-15 11:10:45] Epoch 1/50, Validation Loss: 1.4306, Validation Accuracy: 62.38%
[2024-08-15 11:11:50] Epoch 2/50, Training Loss: 1.3376, Training Accuracy: 64.02%
[2024-08-15 11:11:57] Epoch 2/50, Validation Loss: 1.0136, Validation Accuracy: 69.08%
…
[2024-08-15 11:42:40] Epoch 27/50, Validation Loss: 0.2735, Validation Accuracy: 92.31%
[2024-08-15 11:43:49] Epoch 28/50, Training Loss: 0.2161, Training Accuracy: 93.13%
[2024-08-15 11:43:56] Epoch 28/50, Validation Loss: 0.2585, Validation Accuracy: 92.68%
[2024-08-15 11:45:03] Epoch 29/50, Training Loss: 0.2155, Training Accuracy: 93.03%
[2024-08-15 11:45:10] Epoch 29/50, Validation Loss: 0.2675, Validation Accuracy: 92.82%
[2024-08-15 11:46:18] Epoch 30/50, Training Loss: 0.2147, Training Accuracy: 93.23%
[2024-08-15 11:46:26] Training complete.
[2024-08-15 11:46:26] 

New training session


[2024-08-15 11:46:26] KeywordSpottingModel(
  (proj): Linear(in_features=13, out_features=101, bias=True)
  (mamba): Mamba(
    (in_proj): Linear(in_features=101, out_features=808, bias=False)
    (conv1d): Conv1d(404, 404, kernel_size=(22,), stride=(1,), padding=(21,), groups=404)
    (act): SiLU()
    (x_proj): Linear(in_features=404, out_features=77, bias=False)
    (dt_proj): Linear(in_features=7, out_features=404, bias=True)
    (out_proj): Linear(in_features=404, out_features=101, bias=False)
  )
  (fc): Linear(in_features=101, out_features=12, bias=True)
  (dropout): Dropout(p=0.5, inplace=False)
)
[2024-08-15 11:47:33] Epoch 1/50, Training Loss: 7873.5279, Training Accuracy: 45.09%
[2024-08-15 11:47:39] Epoch 1/50, Validation Loss: 11.4765, Validation Accuracy: 57.05%
[2024-08-15 11:48:46] Epoch 2/50, Training Loss: 7.6594, Training Accuracy: 49.25%
[2024-08-15 11:48:53] Epoch 2/50, Validation Loss: 3.1008, Validation Accuracy: 60.32%
…
[2024-08-15 11:57:27] Epoch 9/50, Validation Loss: 95014.5433, Validation Accuracy: 44.33%
[2024-08-15 11:58:35] Epoch 10/50, Training Loss: 30998.5915, Training Accuracy: 42.22%
[2024-08-15 11:58:42] Epoch 10/50, Validation Loss: 21409.3318, Validation Accuracy: 46.57%
[2024-08-15 11:59:50] Epoch 11/50, Training Loss: 12423.9186, Training Accuracy: 44.94%
[2024-08-15 11:59:58] Epoch 11/50, Validation Loss: 16572.2681, Validation Accuracy: 47.73%
[2024-08-15 12:01:05] Epoch 12/50, Training Loss: 8007.0044, Training Accuracy: 46.14%
[2024-08-15 12:01:12] Training complete.
[2024-08-15 12:01:12] 

New training session


[2024-08-15 12:01:12] KeywordSpottingModel(
  (proj): Linear(in_features=13, out_features=101, bias=True)
  (mamba): Mamba(
    (in_proj): Linear(in_features=101, out_features=404, bias=False)
    (conv1d): Conv1d(202, 202, kernel_size=(30,), stride=(1,), padding=(29,), groups=202)
    (act): SiLU()
    (x_proj): Linear(in_features=202, out_features=109, bias=False)
    (dt_proj): Linear(in_features=7, out_features=202, bias=True)
    (out_proj): Linear(in_features=202, out_features=101, bias=False)
  )
  (fc): Linear(in_features=101, out_features=12, bias=True)
  (dropout): Dropout(p=0.5, inplace=False)
)
[2024-08-15 12:02:21] Epoch 1/50, Training Loss: 56.3955, Training Accuracy: 51.60%
[2024-08-15 12:02:28] Epoch 1/50, Validation Loss: 1.4217, Validation Accuracy: 63.28%
[2024-08-15 12:03:35] Epoch 2/50, Training Loss: 1.3809, Training Accuracy: 63.40%
[2024-08-15 12:03:41] Epoch 2/50, Validation Loss: 1.0862, Validation Accuracy: 67.33%
…
[2024-08-15 12:11:03] Epoch 8/50, Validation Loss: 41.3262, Validation Accuracy: 54.47%
[2024-08-15 12:12:11] Epoch 9/50, Training Loss: 16.0702, Training Accuracy: 51.89%
[2024-08-15 12:12:18] Epoch 9/50, Validation Loss: 9.9833, Validation Accuracy: 56.18%
[2024-08-15 12:13:25] Epoch 10/50, Training Loss: 7.3081, Training Accuracy: 53.79%
[2024-08-15 12:13:33] Epoch 10/50, Validation Loss: 7.4931, Validation Accuracy: 56.70%
[2024-08-15 12:14:42] Epoch 11/50, Training Loss: 5.4474, Training Accuracy: 54.97%
[2024-08-15 12:14:50] Training complete.
[2024-08-15 12:14:50] 

New training session


[2024-08-15 12:14:50] KeywordSpottingModel(
  (proj): Linear(in_features=13, out_features=101, bias=True)
  (mamba): Mamba(
    (in_proj): Linear(in_features=101, out_features=404, bias=False)
    (conv1d): Conv1d(202, 202, kernel_size=(27,), stride=(1,), padding=(26,), groups=202)
    (act): SiLU()
    (x_proj): Linear(in_features=202, out_features=135, bias=False)
    (dt_proj): Linear(in_features=7, out_features=202, bias=True)
    (out_proj): Linear(in_features=202, out_features=101, bias=False)
  )
  (fc): Linear(in_features=101, out_features=12, bias=True)
  (dropout): Dropout(p=0.5, inplace=False)
)
[2024-08-15 12:15:58] Epoch 1/50, Training Loss: 8.5245, Training Accuracy: 54.82%
[2024-08-15 12:16:04] Epoch 1/50, Validation Loss: 1.4679, Validation Accuracy: 62.04%
[2024-08-15 12:17:12] Epoch 2/50, Training Loss: 1.3367, Training Accuracy: 64.14%
[2024-08-15 12:17:18] Epoch 2/50, Validation Loss: 0.9746, Validation Accuracy: 69.11%
…
[2024-08-15 12:55:13] Epoch 32/50, Validation Loss: 0.2486, Validation Accuracy: 93.13%
[2024-08-15 12:56:19] Epoch 33/50, Training Loss: 0.1326, Training Accuracy: 95.70%
[2024-08-15 12:56:26] Epoch 33/50, Validation Loss: 0.2490, Validation Accuracy: 93.44%
[2024-08-15 12:57:36] Epoch 34/50, Training Loss: 0.1263, Training Accuracy: 95.97%
[2024-08-15 12:57:43] Epoch 34/50, Validation Loss: 0.2511, Validation Accuracy: 93.38%
[2024-08-15 12:58:54] Epoch 35/50, Training Loss: 0.1256, Training Accuracy: 96.01%
[2024-08-15 12:59:01] Training complete.
[2024-08-15 12:59:01] 

New training session


[2024-08-15 12:59:01] KeywordSpottingModel(
  (proj): Linear(in_features=13, out_features=101, bias=True)
  (mamba): Mamba(
    (in_proj): Linear(in_features=101, out_features=404, bias=False)
    (conv1d): Conv1d(202, 202, kernel_size=(29,), stride=(1,), padding=(28,), groups=202)
    (act): SiLU()
    (x_proj): Linear(in_features=202, out_features=135, bias=False)
    (dt_proj): Linear(in_features=7, out_features=202, bias=True)
    (out_proj): Linear(in_features=202, out_features=101, bias=False)
  )
  (fc): Linear(in_features=101, out_features=12, bias=True)
  (dropout): Dropout(p=0.5, inplace=False)
)
[2024-08-15 13:00:13] Epoch 1/50, Training Loss: 15349.1677, Training Accuracy: 44.49%
[2024-08-15 13:00:21] Epoch 1/50, Validation Loss: 19.6026, Validation Accuracy: 56.71%
[2024-08-15 13:01:31] Epoch 2/50, Training Loss: 12.9493, Training Accuracy: 47.64%
[2024-08-15 13:01:38] Epoch 2/50, Validation Loss: 4.7603, Validation Accuracy: 60.18%
…
[2024-08-15 13:13:05] Epoch 11/50, Training Loss: 3584623619.5017, Training Accuracy: 40.50%
[2024-08-15 13:13:13] Epoch 11/50, Validation Loss: 51700760.9019, Validation Accuracy: 48.82%
[2024-08-15 13:14:19] Epoch 12/50, Training Loss: 63054848.4733, Training Accuracy: 40.26%
[2024-08-15 13:14:25] Epoch 12/50, Validation Loss: 34146847.5016, Validation Accuracy: 50.01%
[2024-08-15 13:15:34] Epoch 13/50, Training Loss: 36503934.0601, Training Accuracy: 39.78%
[2024-08-15 13:15:40] Training complete.
[2024-08-15 13:15:40] 

New training session


[2024-08-15 13:15:40] KeywordSpottingModel(
  (proj): Linear(in_features=13, out_features=101, bias=True)
  (mamba): Mamba(
    (in_proj): Linear(in_features=101, out_features=606, bias=False)
    (conv1d): Conv1d(303, 303, kernel_size=(32,), stride=(1,), padding=(31,), groups=303)
    (act): SiLU()
    (x_proj): Linear(in_features=303, out_features=123, bias=False)
    (dt_proj): Linear(in_features=7, out_features=303, bias=True)
    (out_proj): Linear(in_features=303, out_features=101, bias=False)
  )
  (fc): Linear(in_features=101, out_features=12, bias=True)
  (dropout): Dropout(p=0.5, inplace=False)
)
[2024-08-15 13:16:51] Epoch 1/50, Training Loss: 18.1066, Training Accuracy: 53.60%
[2024-08-15 13:16:59] Epoch 1/50, Validation Loss: 1.3987, Validation Accuracy: 62.55%
[2024-08-15 13:18:10] Epoch 2/50, Training Loss: 1.3000, Training Accuracy: 64.42%
[2024-08-15 13:18:18] Epoch 2/50, Validation Loss: 0.9942, Validation Accuracy: 68.65%
…
[2024-08-15 13:45:09] Epoch 23/50, Validation Loss: 0.2503, Validation Accuracy: 93.21%
[2024-08-15 13:46:14] Epoch 24/50, Training Loss: 0.1636, Training Accuracy: 94.84%
[2024-08-15 13:46:22] Epoch 24/50, Validation Loss: 0.2511, Validation Accuracy: 93.32%
[2024-08-15 13:47:31] Epoch 25/50, Training Loss: 0.1574, Training Accuracy: 95.04%
[2024-08-15 13:47:38] Epoch 25/50, Validation Loss: 0.2496, Validation Accuracy: 93.23%
[2024-08-15 13:48:49] Epoch 26/50, Training Loss: 0.1540, Training Accuracy: 95.15%
[2024-08-15 13:48:56] Training complete.
[2024-08-15 13:48:56] 

New training session


[2024-08-15 13:48:56] KeywordSpottingModel(
  (proj): Linear(in_features=13, out_features=101, bias=True)
  (mamba): Mamba(
    (in_proj): Linear(in_features=101, out_features=404, bias=False)
    (conv1d): Conv1d(202, 202, kernel_size=(28,), stride=(1,), padding=(27,), groups=202)
    (act): SiLU()
    (x_proj): Linear(in_features=202, out_features=135, bias=False)
    (dt_proj): Linear(in_features=7, out_features=202, bias=True)
    (out_proj): Linear(in_features=202, out_features=101, bias=False)
  )
  (fc): Linear(in_features=101, out_features=12, bias=True)
  (dropout): Dropout(p=0.5, inplace=False)
)
[2024-08-15 13:50:08] Epoch 1/50, Training Loss: 52.6085, Training Accuracy: 49.67%
[2024-08-15 13:50:15] Epoch 1/50, Validation Loss: 1.4897, Validation Accuracy: 61.89%
[2024-08-15 13:51:27] Epoch 2/50, Training Loss: 1.4866, Training Accuracy: 62.12%
[2024-08-15 13:51:34] Epoch 2/50, Validation Loss: 1.1731, Validation Accuracy: 65.16%
…
[2024-08-15 14:18:10] Epoch 23/50, Validation Loss: 0.3065, Validation Accuracy: 90.34%
[2024-08-15 14:19:20] Epoch 24/50, Training Loss: 0.2548, Training Accuracy: 91.83%
[2024-08-15 14:19:27] Epoch 24/50, Validation Loss: 0.3194, Validation Accuracy: 90.62%
[2024-08-15 14:20:34] Epoch 25/50, Training Loss: 0.2312, Training Accuracy: 92.53%
[2024-08-15 14:20:41] Epoch 25/50, Validation Loss: 0.3077, Validation Accuracy: 90.91%
[2024-08-15 14:21:51] Epoch 26/50, Training Loss: 0.2265, Training Accuracy: 92.67%
[2024-08-15 14:21:59] Training complete.
[2024-08-15 14:21:59] 

New training session


[2024-08-15 14:21:59] KeywordSpottingModel(
  (proj): Linear(in_features=13, out_features=101, bias=True)
  (mamba): Mamba(
    (in_proj): Linear(in_features=101, out_features=606, bias=False)
    (conv1d): Conv1d(303, 303, kernel_size=(21,), stride=(1,), padding=(20,), groups=303)
    (act): SiLU()
    (x_proj): Linear(in_features=303, out_features=113, bias=False)
    (dt_proj): Linear(in_features=7, out_features=303, bias=True)
    (out_proj): Linear(in_features=303, out_features=101, bias=False)
  )
  (fc): Linear(in_features=101, out_features=12, bias=True)
  (dropout): Dropout(p=0.5, inplace=False)
)
[2024-08-15 14:23:07] Epoch 1/50, Training Loss: 18.5920, Training Accuracy: 52.24%
[2024-08-15 14:23:14] Epoch 1/50, Validation Loss: 1.4124, Validation Accuracy: 62.38%
[2024-08-15 14:24:21] Epoch 2/50, Training Loss: 1.3303, Training Accuracy: 63.82%
[2024-08-15 14:24:27] Epoch 2/50, Validation Loss: 1.0073, Validation Accuracy: 68.62%
…
[2024-08-15 15:22:37] Epoch 48/50, Training Loss: 0.1745, Training Accuracy: 94.37%
[2024-08-15 15:22:45] Epoch 48/50, Validation Loss: 0.3029, Validation Accuracy: 91.55%
[2024-08-15 15:23:53] Epoch 49/50, Training Loss: 0.1692, Training Accuracy: 94.53%
[2024-08-15 15:24:00] Epoch 49/50, Validation Loss: 0.3055, Validation Accuracy: 91.55%
[2024-08-15 15:25:10] Epoch 50/50, Training Loss: 0.1672, Training Accuracy: 94.58%
[2024-08-15 15:25:17] Epoch 50/50, Validation Loss: 0.3064, Validation Accuracy: 91.66%
[2024-08-15 15:25:17] Training complete.
[2024-08-15 15:25:17] 

New training session


[2024-08-15 15:25:17] KeywordSpottingModel(
  (proj): Linear(in_features=13, out_features=101, bias=True)
  (mamba): Mamba(
    (in_proj): Linear(in_features=101, out_features=404, bias=False)
    (conv1d): Conv1d(202, 202, kernel_size=(16,), stride=(1,), padding=(15,), groups=202)
    (act): SiLU()
    (x_proj): Linear(in_features=202, out_features=97, bias=False)
    (dt_proj): Linear(in_features=7, out_features=202, bias=True)
    (out_proj): Linear(in_features=202, out_features=101, bias=False)
  )
  (fc): Linear(in_features=101, out_features=12, bias=True)
  (dropout): Dropout(p=0.5, inplace=False)
)
[2024-08-15 15:26:29] Epoch 1/50, Training Loss: 449.7632, Training Accuracy: 44.78%
[2024-08-15 15:26:35] Epoch 1/50, Validation Loss: 2.2504, Validation Accuracy: 60.61%
[2024-08-15 15:27:45] Epoch 2/50, Training Loss: 2.0478, Training Accuracy: 56.35%
[2024-08-15 15:27:53] Epoch 2/50, Validation Loss: 1.3762, Validation Accuracy: 63.31%
…
[2024-08-15 15:35:38] Epoch 8/50, Validation Loss: 21376.3817, Validation Accuracy: 53.09%
[2024-08-15 15:36:47] Epoch 9/50, Training Loss: 7432.3978, Training Accuracy: 47.23%
[2024-08-15 15:36:54] Epoch 9/50, Validation Loss: 5797.2934, Validation Accuracy: 51.19%
[2024-08-15 15:38:03] Epoch 10/50, Training Loss: 2941.9747, Training Accuracy: 48.84%
[2024-08-15 15:38:10] Epoch 10/50, Validation Loss: 3114.4514, Validation Accuracy: 52.67%
[2024-08-15 15:39:21] Epoch 11/50, Training Loss: 2012.9385, Training Accuracy: 49.32%
[2024-08-15 15:39:28] Training complete.
[2024-08-15 15:39:28] 

New training session


[2024-08-15 15:39:28] KeywordSpottingModel(
  (proj): Linear(in_features=13, out_features=101, bias=True)
  (mamba): Mamba(
    (in_proj): Linear(in_features=101, out_features=606, bias=False)
    (conv1d): Conv1d(303, 303, kernel_size=(24,), stride=(1,), padding=(23,), groups=303)
    (act): SiLU()
    (x_proj): Linear(in_features=303, out_features=125, bias=False)
    (dt_proj): Linear(in_features=7, out_features=303, bias=True)
    (out_proj): Linear(in_features=303, out_features=101, bias=False)
  )
  (fc): Linear(in_features=101, out_features=12, bias=True)
  (dropout): Dropout(p=0.5, inplace=False)
)
[2024-08-15 15:40:38] Epoch 1/50, Training Loss: 73335.6194, Training Accuracy: 45.02%
[2024-08-15 15:40:45] Epoch 1/50, Validation Loss: 87.8708, Validation Accuracy: 50.05%
[2024-08-15 15:41:54] Epoch 2/50, Training Loss: 47.5560, Training Accuracy: 49.25%
[2024-08-15 15:42:00] Epoch 2/50, Validation Loss: 20.5515, Validation Accuracy: 52.02%
…
[2024-08-15 15:54:31] Epoch 12/50, Training Loss: 864131601.1403, Training Accuracy: 35.86%
[2024-08-15 15:54:39] Epoch 12/50, Validation Loss: 127619773.4810, Validation Accuracy: 53.88%
[2024-08-15 15:55:51] Epoch 13/50, Training Loss: 132587617.2899, Training Accuracy: 39.29%
[2024-08-15 15:55:57] Epoch 13/50, Validation Loss: 80669425.1329, Validation Accuracy: 54.42%
[2024-08-15 15:57:06] Epoch 14/50, Training Loss: 77124176.6476, Training Accuracy: 41.45%
[2024-08-15 15:57:13] Training complete.
[2024-08-15 15:57:13] 

New training session


[2024-08-15 15:57:13] KeywordSpottingModel(
  (proj): Linear(in_features=13, out_features=101, bias=True)
  (mamba): Mamba(
    (in_proj): Linear(in_features=101, out_features=808, bias=False)
    (conv1d): Conv1d(404, 404, kernel_size=(31,), stride=(1,), padding=(30,), groups=404)
    (act): SiLU()
    (x_proj): Linear(in_features=404, out_features=131, bias=False)
    (dt_proj): Linear(in_features=7, out_features=404, bias=True)
    (out_proj): Linear(in_features=404, out_features=101, bias=False)
  )
  (fc): Linear(in_features=101, out_features=12, bias=True)
  (dropout): Dropout(p=0.5, inplace=False)
)
[2024-08-15 15:58:18] Epoch 1/50, Training Loss: 19.7887, Training Accuracy: 50.42%
[2024-08-15 15:58:25] Epoch 1/50, Validation Loss: 1.3903, Validation Accuracy: 62.22%
[2024-08-15 15:59:35] Epoch 2/50, Training Loss: 1.3772, Training Accuracy: 63.04%
[2024-08-15 15:59:42] Epoch 2/50, Validation Loss: 1.0429, Validation Accuracy: 68.54%
…
[2024-08-15 16:31:24] Epoch 27/50, Validation Loss: 0.2657, Validation Accuracy: 92.78%
[2024-08-15 16:32:29] Epoch 28/50, Training Loss: 0.1420, Training Accuracy: 95.48%
[2024-08-15 16:32:35] Epoch 28/50, Validation Loss: 0.2752, Validation Accuracy: 92.66%
[2024-08-15 16:33:45] Epoch 29/50, Training Loss: 0.1320, Training Accuracy: 95.77%
[2024-08-15 16:33:52] Epoch 29/50, Validation Loss: 0.2727, Validation Accuracy: 92.73%
[2024-08-15 16:35:04] Epoch 30/50, Training Loss: 0.1303, Training Accuracy: 95.71%
[2024-08-15 16:35:12] Training complete.
[2024-08-15 16:35:12] 

New training session


[2024-08-15 16:35:12] KeywordSpottingModel(
  (proj): Linear(in_features=13, out_features=101, bias=True)
  (mamba): Mamba(
    (in_proj): Linear(in_features=101, out_features=404, bias=False)
    (conv1d): Conv1d(202, 202, kernel_size=(28,), stride=(1,), padding=(27,), groups=202)
    (act): SiLU()
    (x_proj): Linear(in_features=202, out_features=119, bias=False)
    (dt_proj): Linear(in_features=7, out_features=202, bias=True)
    (out_proj): Linear(in_features=202, out_features=101, bias=False)
  )
  (fc): Linear(in_features=101, out_features=12, bias=True)
  (dropout): Dropout(p=0.5, inplace=False)
)
[2024-08-15 16:36:24] Epoch 1/50, Training Loss: 31.1575, Training Accuracy: 48.34%
[2024-08-15 16:36:31] Epoch 1/50, Validation Loss: 1.5189, Validation Accuracy: 61.93%
[2024-08-15 16:37:40] Epoch 2/50, Training Loss: 1.4977, Training Accuracy: 61.79%
[2024-08-15 16:37:46] Epoch 2/50, Validation Loss: 1.1943, Validation Accuracy: 64.47%
…
[2024-08-15 16:44:09] Epoch 7/50, Validation Loss: 0.9309, Validation Accuracy: 73.38%
[2024-08-15 16:45:17] Epoch 8/50, Training Loss: 0.8218, Training Accuracy: 74.09%
[2024-08-15 16:45:25] Epoch 8/50, Validation Loss: 0.7064, Validation Accuracy: 77.99%
[2024-08-15 16:46:34] Epoch 9/50, Training Loss: 0.6954, Training Accuracy: 77.80%
[2024-08-15 16:46:41] Epoch 9/50, Validation Loss: 0.6339, Validation Accuracy: 79.67%
[2024-08-15 16:47:50] Epoch 10/50, Training Loss: 0.6575, Training Accuracy: 79.10%
[2024-08-15 16:47:57] Training complete.
[2024-08-15 16:47:57] 

New training session


[2024-08-15 16:47:57] KeywordSpottingModel(
  (proj): Linear(in_features=13, out_features=101, bias=True)
  (mamba): Mamba(
    (in_proj): Linear(in_features=101, out_features=606, bias=False)
    (conv1d): Conv1d(303, 303, kernel_size=(26,), stride=(1,), padding=(25,), groups=303)
    (act): SiLU()
    (x_proj): Linear(in_features=303, out_features=95, bias=False)
    (dt_proj): Linear(in_features=7, out_features=303, bias=True)
    (out_proj): Linear(in_features=303, out_features=101, bias=False)
  )
  (fc): Linear(in_features=101, out_features=12, bias=True)
  (dropout): Dropout(p=0.5, inplace=False)
)
[2024-08-15 16:49:03] Epoch 1/50, Training Loss: 92.9886, Training Accuracy: 48.98%
[2024-08-15 16:49:11] Epoch 1/50, Validation Loss: 1.4896, Validation Accuracy: 62.28%
[2024-08-15 16:50:21] Epoch 2/50, Training Loss: 1.4838, Training Accuracy: 61.54%
[2024-08-15 16:50:27] Epoch 2/50, Validation Loss: 1.1308, Validation Accuracy: 66.30%
…
[2024-08-15 16:56:45] Epoch 7/50, Validation Loss: 171.4521, Validation Accuracy: 57.79%
[2024-08-15 16:57:57] Epoch 8/50, Training Loss: 71.5920, Training Accuracy: 55.64%
[2024-08-15 16:58:05] Epoch 8/50, Validation Loss: 49.9908, Validation Accuracy: 61.37%
[2024-08-15 16:59:17] Epoch 9/50, Training Loss: 29.1628, Training Accuracy: 58.61%
[2024-08-15 16:59:24] Epoch 9/50, Validation Loss: 31.5106, Validation Accuracy: 63.01%
[2024-08-15 17:00:35] Epoch 10/50, Training Loss: 21.3337, Training Accuracy: 59.30%
[2024-08-15 17:00:42] Training complete.
[2024-08-15 17:00:42] 

New training session


[2024-08-15 17:00:42] KeywordSpottingModel(
  (proj): Linear(in_features=13, out_features=101, bias=True)
  (mamba): Mamba(
    (in_proj): Linear(in_features=101, out_features=606, bias=False)
    (conv1d): Conv1d(303, 303, kernel_size=(32,), stride=(1,), padding=(31,), groups=303)
    (act): SiLU()
    (x_proj): Linear(in_features=303, out_features=125, bias=False)
    (dt_proj): Linear(in_features=7, out_features=303, bias=True)
    (out_proj): Linear(in_features=303, out_features=101, bias=False)
  )
  (fc): Linear(in_features=101, out_features=12, bias=True)
  (dropout): Dropout(p=0.5, inplace=False)
)
[2024-08-15 17:01:46] Epoch 1/50, Training Loss: 19.1100, Training Accuracy: 53.49%
[2024-08-15 17:01:52] Epoch 1/50, Validation Loss: 1.3461, Validation Accuracy: 63.74%
[2024-08-15 17:03:03] Epoch 2/50, Training Loss: 1.2562, Training Accuracy: 65.17%
[2024-08-15 17:03:11] Epoch 2/50, Validation Loss: 0.9235, Validation Accuracy: 71.48%
…
[2024-08-15 17:45:03] Epoch 35/50, Validation Loss: 0.2483, Validation Accuracy: 93.37%
[2024-08-15 17:46:07] Epoch 36/50, Training Loss: 0.1502, Training Accuracy: 95.24%
[2024-08-15 17:46:13] Epoch 36/50, Validation Loss: 0.2495, Validation Accuracy: 93.43%
[2024-08-15 17:47:16] Epoch 37/50, Training Loss: 0.1401, Training Accuracy: 95.52%
[2024-08-15 17:47:23] Epoch 37/50, Validation Loss: 0.2467, Validation Accuracy: 93.58%
[2024-08-15 17:48:25] Epoch 38/50, Training Loss: 0.1377, Training Accuracy: 95.59%
[2024-08-15 17:48:32] Training complete.
[2024-08-15 17:48:32] 

New training session


[2024-08-15 17:48:32] KeywordSpottingModel(
  (proj): Linear(in_features=13, out_features=101, bias=True)
  (mamba): Mamba(
    (in_proj): Linear(in_features=101, out_features=808, bias=False)
    (conv1d): Conv1d(404, 404, kernel_size=(32,), stride=(1,), padding=(31,), groups=404)
    (act): SiLU()
    (x_proj): Linear(in_features=404, out_features=129, bias=False)
    (dt_proj): Linear(in_features=7, out_features=404, bias=True)
    (out_proj): Linear(in_features=404, out_features=101, bias=False)
  )
  (fc): Linear(in_features=101, out_features=12, bias=True)
  (dropout): Dropout(p=0.5, inplace=False)
)
[2024-08-15 17:49:34] Epoch 1/50, Training Loss: 39.6981, Training Accuracy: 49.73%
[2024-08-15 17:49:41] Epoch 1/50, Validation Loss: 1.4444, Validation Accuracy: 62.43%
[2024-08-15 17:50:42] Epoch 2/50, Training Loss: 1.3886, Training Accuracy: 62.88%
[2024-08-15 17:50:49] Epoch 2/50, Validation Loss: 0.9869, Validation Accuracy: 69.57%
…
[2024-08-15 18:20:26] Epoch 28/50, Validation Loss: 0.2506, Validation Accuracy: 93.40%
[2024-08-15 18:21:28] Epoch 29/50, Training Loss: 0.1502, Training Accuracy: 95.21%
[2024-08-15 18:21:35] Epoch 29/50, Validation Loss: 0.2443, Validation Accuracy: 93.47%
[2024-08-15 18:22:36] Epoch 30/50, Training Loss: 0.1409, Training Accuracy: 95.54%
[2024-08-15 18:22:42] Epoch 30/50, Validation Loss: 0.2437, Validation Accuracy: 93.53%
[2024-08-15 18:23:42] Epoch 31/50, Training Loss: 0.1376, Training Accuracy: 95.69%
[2024-08-15 18:23:49] Training complete.
[2024-08-15 18:23:49] 

New training session


[2024-08-15 18:23:49] KeywordSpottingModel(
  (proj): Linear(in_features=13, out_features=101, bias=True)
  (mamba): Mamba(
    (in_proj): Linear(in_features=101, out_features=808, bias=False)
    (conv1d): Conv1d(404, 404, kernel_size=(32,), stride=(1,), padding=(31,), groups=404)
    (act): SiLU()
    (x_proj): Linear(in_features=404, out_features=127, bias=False)
    (dt_proj): Linear(in_features=7, out_features=404, bias=True)
    (out_proj): Linear(in_features=404, out_features=101, bias=False)
  )
  (fc): Linear(in_features=101, out_features=12, bias=True)
  (dropout): Dropout(p=0.5, inplace=False)
)
[2024-08-15 18:24:50] Epoch 1/50, Training Loss: 33.3254, Training Accuracy: 51.47%
[2024-08-15 18:24:56] Epoch 1/50, Validation Loss: 1.4340, Validation Accuracy: 61.72%
[2024-08-15 18:25:58] Epoch 2/50, Training Loss: 1.4215, Training Accuracy: 62.59%
[2024-08-15 18:26:05] Epoch 2/50, Validation Loss: 1.1011, Validation Accuracy: 67.69%
…
[2024-08-15 18:31:44] Epoch 7/50, Validation Loss: 6.4176, Validation Accuracy: 60.59%
[2024-08-15 18:32:46] Epoch 8/50, Training Loss: 2.8068, Training Accuracy: 60.35%
[2024-08-15 18:32:53] Epoch 8/50, Validation Loss: 2.0065, Validation Accuracy: 67.24%
[2024-08-15 18:33:53] Epoch 9/50, Training Loss: 1.7109, Training Accuracy: 64.49%
[2024-08-15 18:34:00] Epoch 9/50, Validation Loss: 1.6574, Validation Accuracy: 68.23%
[2024-08-15 18:34:57] Epoch 10/50, Training Loss: 1.4431, Training Accuracy: 66.12%
[2024-08-15 18:35:04] Training complete.
[2024-08-15 18:35:04] 

New training session


[2024-08-15 18:35:04] KeywordSpottingModel(
  (proj): Linear(in_features=13, out_features=101, bias=True)
  (mamba): Mamba(
    (in_proj): Linear(in_features=101, out_features=808, bias=False)
    (conv1d): Conv1d(404, 404, kernel_size=(30,), stride=(1,), padding=(29,), groups=404)
    (act): SiLU()
    (x_proj): Linear(in_features=404, out_features=113, bias=False)
    (dt_proj): Linear(in_features=7, out_features=404, bias=True)
    (out_proj): Linear(in_features=404, out_features=101, bias=False)
  )
  (fc): Linear(in_features=101, out_features=12, bias=True)
  (dropout): Dropout(p=0.5, inplace=False)
)
[2024-08-15 18:36:05] Epoch 1/50, Training Loss: 60.5668, Training Accuracy: 47.84%
[2024-08-15 18:36:12] Epoch 1/50, Validation Loss: 1.5343, Validation Accuracy: 62.06%
[2024-08-15 18:37:14] Epoch 2/50, Training Loss: 1.6015, Training Accuracy: 60.16%
[2024-08-15 18:37:20] Epoch 2/50, Validation Loss: 1.2154, Validation Accuracy: 64.31%
…
[2024-08-15 18:43:03] Epoch 7/50, Validation Loss: 5.3010, Validation Accuracy: 55.99%
[2024-08-15 18:44:04] Epoch 8/50, Training Loss: 2.7250, Training Accuracy: 56.90%
[2024-08-15 18:44:11] Epoch 8/50, Validation Loss: 2.0450, Validation Accuracy: 60.18%
[2024-08-15 18:45:13] Epoch 9/50, Training Loss: 1.7080, Training Accuracy: 61.13%
[2024-08-15 18:45:19] Epoch 9/50, Validation Loss: 1.8265, Validation Accuracy: 62.65%
[2024-08-15 18:46:22] Epoch 10/50, Training Loss: 1.4889, Training Accuracy: 63.12%
[2024-08-15 18:46:29] Training complete.
[2024-08-15 18:46:29] 

New training session


[2024-08-15 18:46:29] KeywordSpottingModel(
  (proj): Linear(in_features=13, out_features=101, bias=True)
  (mamba): Mamba(
    (in_proj): Linear(in_features=101, out_features=808, bias=False)
    (conv1d): Conv1d(404, 404, kernel_size=(31,), stride=(1,), padding=(30,), groups=404)
    (act): SiLU()
    (x_proj): Linear(in_features=404, out_features=123, bias=False)
    (dt_proj): Linear(in_features=7, out_features=404, bias=True)
    (out_proj): Linear(in_features=404, out_features=101, bias=False)
  )
  (fc): Linear(in_features=101, out_features=12, bias=True)
  (dropout): Dropout(p=0.5, inplace=False)
)
[2024-08-15 18:47:31] Epoch 1/50, Training Loss: 349.3565, Training Accuracy: 45.90%
[2024-08-15 18:47:39] Epoch 1/50, Validation Loss: 2.0041, Validation Accuracy: 60.56%
[2024-08-15 18:48:40] Epoch 2/50, Training Loss: 1.9574, Training Accuracy: 56.96%
[2024-08-15 18:48:46] Epoch 2/50, Validation Loss: 1.3422, Validation Accuracy: 63.88%
…
[2024-08-15 18:55:36] Epoch 8/50, Validation Loss: 762.2398, Validation Accuracy: 45.83%
[2024-08-15 18:56:38] Epoch 9/50, Training Loss: 168.9579, Training Accuracy: 53.81%
[2024-08-15 18:56:45] Epoch 9/50, Validation Loss: 85.2856, Validation Accuracy: 57.22%
[2024-08-15 18:57:45] Epoch 10/50, Training Loss: 65.2779, Training Accuracy: 55.59%
[2024-08-15 18:57:52] Epoch 10/50, Validation Loss: 63.8593, Validation Accuracy: 58.82%
[2024-08-15 18:58:54] Epoch 11/50, Training Loss: 49.3356, Training Accuracy: 56.25%
[2024-08-15 18:59:00] Training complete.
[2024-08-15 18:59:00] 

New training session


[2024-08-15 18:59:00] KeywordSpottingModel(
  (proj): Linear(in_features=13, out_features=101, bias=True)
  (mamba): Mamba(
    (in_proj): Linear(in_features=101, out_features=808, bias=False)
    (conv1d): Conv1d(404, 404, kernel_size=(29,), stride=(1,), padding=(28,), groups=404)
    (act): SiLU()
    (x_proj): Linear(in_features=404, out_features=129, bias=False)
    (dt_proj): Linear(in_features=7, out_features=404, bias=True)
    (out_proj): Linear(in_features=404, out_features=101, bias=False)
  )
  (fc): Linear(in_features=101, out_features=12, bias=True)
  (dropout): Dropout(p=0.5, inplace=False)
)
[2024-08-15 19:00:03] Epoch 1/50, Training Loss: 60.6991, Training Accuracy: 47.69%
[2024-08-15 19:00:09] Epoch 1/50, Validation Loss: 1.5796, Validation Accuracy: 63.02%
[2024-08-15 19:01:10] Epoch 2/50, Training Loss: 1.6510, Training Accuracy: 59.55%
[2024-08-15 19:01:17] Epoch 2/50, Validation Loss: 1.1523, Validation Accuracy: 65.90%
…
[2024-08-15 19:06:56] Epoch 7/50, Validation Loss: 1.6215, Validation Accuracy: 67.42%
[2024-08-15 19:07:56] Epoch 8/50, Training Loss: 1.2120, Training Accuracy: 69.43%
[2024-08-15 19:08:03] Epoch 8/50, Validation Loss: 0.9020, Validation Accuracy: 74.04%
[2024-08-15 19:09:04] Epoch 9/50, Training Loss: 0.8683, Training Accuracy: 74.15%
[2024-08-15 19:09:11] Epoch 9/50, Validation Loss: 0.8375, Validation Accuracy: 76.33%
[2024-08-15 19:10:14] Epoch 10/50, Training Loss: 0.7937, Training Accuracy: 75.90%
[2024-08-15 19:10:21] Training complete.
[2024-08-15 19:10:21] 

New training session


[2024-08-15 19:10:21] KeywordSpottingModel(
  (proj): Linear(in_features=13, out_features=101, bias=True)
  (mamba): Mamba(
    (in_proj): Linear(in_features=101, out_features=606, bias=False)
    (conv1d): Conv1d(303, 303, kernel_size=(31,), stride=(1,), padding=(30,), groups=303)
    (act): SiLU()
    (x_proj): Linear(in_features=303, out_features=115, bias=False)
    (dt_proj): Linear(in_features=7, out_features=303, bias=True)
    (out_proj): Linear(in_features=303, out_features=101, bias=False)
  )
  (fc): Linear(in_features=101, out_features=12, bias=True)
  (dropout): Dropout(p=0.5, inplace=False)
)
[2024-08-15 19:11:21] Epoch 1/50, Training Loss: 13.5260, Training Accuracy: 52.66%
[2024-08-15 19:11:28] Epoch 1/50, Validation Loss: 1.3461, Validation Accuracy: 62.50%
[2024-08-15 19:12:30] Epoch 2/50, Training Loss: 1.2326, Training Accuracy: 65.18%
[2024-08-15 19:12:36] Epoch 2/50, Validation Loss: 0.8999, Validation Accuracy: 70.80%
…
[2024-08-15 19:41:14] Epoch 27/50, Validation Loss: 0.2522, Validation Accuracy: 93.26%
[2024-08-15 19:42:16] Epoch 28/50, Training Loss: 0.1514, Training Accuracy: 95.16%
[2024-08-15 19:42:22] Epoch 28/50, Validation Loss: 0.2466, Validation Accuracy: 93.28%
[2024-08-15 19:43:24] Epoch 29/50, Training Loss: 0.1423, Training Accuracy: 95.49%
[2024-08-15 19:43:30] Epoch 29/50, Validation Loss: 0.2487, Validation Accuracy: 93.35%
[2024-08-15 19:44:32] Epoch 30/50, Training Loss: 0.1404, Training Accuracy: 95.50%
[2024-08-15 19:44:39] Training complete.
[2024-08-15 19:44:39] 

New training session


[2024-08-15 19:44:39] KeywordSpottingModel(
  (proj): Linear(in_features=13, out_features=101, bias=True)
  (mamba): Mamba(
    (in_proj): Linear(in_features=101, out_features=606, bias=False)
    (conv1d): Conv1d(303, 303, kernel_size=(32,), stride=(1,), padding=(31,), groups=303)
    (act): SiLU()
    (x_proj): Linear(in_features=303, out_features=121, bias=False)
    (dt_proj): Linear(in_features=7, out_features=303, bias=True)
    (out_proj): Linear(in_features=303, out_features=101, bias=False)
  )
  (fc): Linear(in_features=101, out_features=12, bias=True)
  (dropout): Dropout(p=0.5, inplace=False)
)
[2024-08-15 19:45:40] Epoch 1/50, Training Loss: 63.5326, Training Accuracy: 48.98%
[2024-08-15 19:45:47] Epoch 1/50, Validation Loss: 1.4776, Validation Accuracy: 61.51%
[2024-08-15 19:46:50] Epoch 2/50, Training Loss: 1.5144, Training Accuracy: 61.32%
[2024-08-15 19:46:56] Epoch 2/50, Validation Loss: 1.2088, Validation Accuracy: 63.51%
…
[2024-08-15 19:52:38] Epoch 7/50, Validation Loss: 30.2943, Validation Accuracy: 52.99%
[2024-08-15 19:53:39] Epoch 8/50, Training Loss: 14.0213, Training Accuracy: 51.23%
[2024-08-15 19:53:46] Epoch 8/50, Validation Loss: 9.3210, Validation Accuracy: 55.40%
[2024-08-15 19:54:49] Epoch 9/50, Training Loss: 6.9096, Training Accuracy: 52.23%
[2024-08-15 19:54:56] Epoch 9/50, Validation Loss: 7.1672, Validation Accuracy: 56.70%
[2024-08-15 19:55:55] Epoch 10/50, Training Loss: 5.1631, Training Accuracy: 52.83%
[2024-08-15 19:56:01] Training complete.
[2024-08-15 19:56:01] 

New training session


[2024-08-15 19:56:01] KeywordSpottingModel(
  (proj): Linear(in_features=13, out_features=101, bias=True)
  (mamba): Mamba(
    (in_proj): Linear(in_features=101, out_features=606, bias=False)
    (conv1d): Conv1d(303, 303, kernel_size=(29,), stride=(1,), padding=(28,), groups=303)
    (act): SiLU()
    (x_proj): Linear(in_features=303, out_features=131, bias=False)
    (dt_proj): Linear(in_features=7, out_features=303, bias=True)
    (out_proj): Linear(in_features=303, out_features=101, bias=False)
  )
  (fc): Linear(in_features=101, out_features=12, bias=True)
  (dropout): Dropout(p=0.5, inplace=False)
)
[2024-08-15 19:56:58] Epoch 1/50, Training Loss: 28.8047, Training Accuracy: 52.73%
[2024-08-15 19:57:05] Epoch 1/50, Validation Loss: 1.3621, Validation Accuracy: 63.54%
[2024-08-15 19:58:07] Epoch 2/50, Training Loss: 1.2455, Training Accuracy: 65.14%
[2024-08-15 19:58:13] Epoch 2/50, Validation Loss: 0.9300, Validation Accuracy: 71.29%
…
[2024-08-15 20:02:49] Epoch 6/50, Validation Loss: 7.0363, Validation Accuracy: 61.94%
[2024-08-15 20:03:52] Epoch 7/50, Training Loss: 3.6276, Training Accuracy: 61.67%
[2024-08-15 20:03:59] Epoch 7/50, Validation Loss: 2.0116, Validation Accuracy: 69.12%
[2024-08-15 20:05:00] Epoch 8/50, Training Loss: 1.9417, Training Accuracy: 65.92%
[2024-08-15 20:05:07] Epoch 8/50, Validation Loss: 1.5978, Validation Accuracy: 71.07%
[2024-08-15 20:06:09] Epoch 9/50, Training Loss: 1.5491, Training Accuracy: 68.12%
[2024-08-15 20:06:15] Training complete.
[2024-08-15 20:06:15] 

New training session


[2024-08-15 20:06:15] KeywordSpottingModel(
  (proj): Linear(in_features=13, out_features=101, bias=True)
  (mamba): Mamba(
    (in_proj): Linear(in_features=101, out_features=808, bias=False)
    (conv1d): Conv1d(404, 404, kernel_size=(30,), stride=(1,), padding=(29,), groups=404)
    (act): SiLU()
    (x_proj): Linear(in_features=404, out_features=125, bias=False)
    (dt_proj): Linear(in_features=7, out_features=404, bias=True)
    (out_proj): Linear(in_features=404, out_features=101, bias=False)
  )
  (fc): Linear(in_features=101, out_features=12, bias=True)
  (dropout): Dropout(p=0.5, inplace=False)
)
[2024-08-15 20:07:17] Epoch 1/50, Training Loss: 439.2698, Training Accuracy: 47.03%
[2024-08-15 20:07:24] Epoch 1/50, Validation Loss: 2.2469, Validation Accuracy: 60.29%
[2024-08-15 20:08:23] Epoch 2/50, Training Loss: 1.9544, Training Accuracy: 57.37%
[2024-08-15 20:08:30] Epoch 2/50, Validation Loss: 1.2777, Validation Accuracy: 64.20%
…
[2024-08-15 20:14:14] Epoch 7/50, Validation Loss: 3520.1643, Validation Accuracy: 49.50%
[2024-08-15 20:15:16] Epoch 8/50, Training Loss: 1466.8856, Training Accuracy: 49.66%
[2024-08-15 20:15:23] Epoch 8/50, Validation Loss: 909.1750, Validation Accuracy: 50.31%
[2024-08-15 20:16:25] Epoch 9/50, Training Loss: 565.8281, Training Accuracy: 50.69%
[2024-08-15 20:16:31] Epoch 9/50, Validation Loss: 628.8289, Validation Accuracy: 49.73%
[2024-08-15 20:17:34] Epoch 10/50, Training Loss: 394.8120, Training Accuracy: 51.05%
[2024-08-15 20:17:41] Training complete.
[2024-08-15 20:17:41] 

New training session


[2024-08-15 20:17:41] KeywordSpottingModel(
  (proj): Linear(in_features=13, out_features=101, bias=True)
  (mamba): Mamba(
    (in_proj): Linear(in_features=101, out_features=606, bias=False)
    (conv1d): Conv1d(303, 303, kernel_size=(31,), stride=(1,), padding=(30,), groups=303)
    (act): SiLU()
    (x_proj): Linear(in_features=303, out_features=113, bias=False)
    (dt_proj): Linear(in_features=7, out_features=303, bias=True)
    (out_proj): Linear(in_features=303, out_features=101, bias=False)
  )
  (fc): Linear(in_features=101, out_features=12, bias=True)
  (dropout): Dropout(p=0.5, inplace=False)
)
[2024-08-15 20:18:43] Epoch 1/50, Training Loss: 22.3189, Training Accuracy: 50.27%
[2024-08-15 20:18:50] Epoch 1/50, Validation Loss: 1.4423, Validation Accuracy: 61.79%
[2024-08-15 20:19:50] Epoch 2/50, Training Loss: 1.3987, Training Accuracy: 63.06%
[2024-08-15 20:19:57] Epoch 2/50, Validation Loss: 1.1026, Validation Accuracy: 66.65%
…
[2024-08-15 20:48:27] Epoch 27/50, Validation Loss: 0.2496, Validation Accuracy: 93.49%
[2024-08-15 20:49:27] Epoch 28/50, Training Loss: 0.1485, Training Accuracy: 95.27%
[2024-08-15 20:49:34] Epoch 28/50, Validation Loss: 0.2556, Validation Accuracy: 93.40%
[2024-08-15 20:50:36] Epoch 29/50, Training Loss: 0.1423, Training Accuracy: 95.49%
[2024-08-15 20:50:43] Epoch 29/50, Validation Loss: 0.2579, Validation Accuracy: 93.37%
[2024-08-15 20:51:47] Epoch 30/50, Training Loss: 0.1406, Training Accuracy: 95.50%
[2024-08-15 20:51:53] Training complete.
[2024-08-15 20:51:53] 

New training session


[2024-08-15 20:51:53] KeywordSpottingModel(
  (proj): Linear(in_features=13, out_features=101, bias=True)
  (mamba): Mamba(
    (in_proj): Linear(in_features=101, out_features=606, bias=False)
    (conv1d): Conv1d(303, 303, kernel_size=(31,), stride=(1,), padding=(30,), groups=303)
    (act): SiLU()
    (x_proj): Linear(in_features=303, out_features=119, bias=False)
    (dt_proj): Linear(in_features=7, out_features=303, bias=True)
    (out_proj): Linear(in_features=303, out_features=101, bias=False)
  )
  (fc): Linear(in_features=101, out_features=12, bias=True)
  (dropout): Dropout(p=0.5, inplace=False)
)
[2024-08-15 20:52:52] Epoch 1/50, Training Loss: 12.5808, Training Accuracy: 53.59%
[2024-08-15 20:52:59] Epoch 1/50, Validation Loss: 1.3269, Validation Accuracy: 63.70%
[2024-08-15 20:54:00] Epoch 2/50, Training Loss: 1.2300, Training Accuracy: 65.42%
[2024-08-15 20:54:07] Epoch 2/50, Validation Loss: 0.9039, Validation Accuracy: 72.05%
…
[2024-08-15 21:32:42] Epoch 36/50, Validation Loss: 0.2623, Validation Accuracy: 92.84%
[2024-08-15 21:33:45] Epoch 37/50, Training Loss: 0.1499, Training Accuracy: 95.15%
[2024-08-15 21:33:51] Epoch 37/50, Validation Loss: 0.2597, Validation Accuracy: 92.93%
[2024-08-15 21:34:53] Epoch 38/50, Training Loss: 0.1385, Training Accuracy: 95.48%
[2024-08-15 21:34:59] Epoch 38/50, Validation Loss: 0.2611, Validation Accuracy: 92.80%
[2024-08-15 21:35:59] Epoch 39/50, Training Loss: 0.1377, Training Accuracy: 95.58%
[2024-08-15 21:36:05] Training complete.
[2024-08-15 21:36:05] 

New training session


[2024-08-15 21:36:05] KeywordSpottingModel(
  (proj): Linear(in_features=13, out_features=101, bias=True)
  (mamba): Mamba(
    (in_proj): Linear(in_features=101, out_features=606, bias=False)
    (conv1d): Conv1d(303, 303, kernel_size=(32,), stride=(1,), padding=(31,), groups=303)
    (act): SiLU()
    (x_proj): Linear(in_features=303, out_features=115, bias=False)
    (dt_proj): Linear(in_features=7, out_features=303, bias=True)
    (out_proj): Linear(in_features=303, out_features=101, bias=False)
  )
  (fc): Linear(in_features=101, out_features=12, bias=True)
  (dropout): Dropout(p=0.5, inplace=False)
)
[2024-08-15 21:37:08] Epoch 1/50, Training Loss: 19.1152, Training Accuracy: 53.15%
[2024-08-15 21:37:14] Epoch 1/50, Validation Loss: 1.3740, Validation Accuracy: 62.56%
[2024-08-15 21:38:15] Epoch 2/50, Training Loss: 1.2885, Training Accuracy: 64.45%
[2024-08-15 21:38:21] Epoch 2/50, Validation Loss: 0.9551, Validation Accuracy: 70.92%
…
[2024-08-15 22:06:45] Epoch 27/50, Validation Loss: 0.2562, Validation Accuracy: 93.28%
[2024-08-15 22:07:46] Epoch 28/50, Training Loss: 0.1650, Training Accuracy: 94.78%
[2024-08-15 22:07:52] Epoch 28/50, Validation Loss: 0.2552, Validation Accuracy: 93.40%
[2024-08-15 22:08:53] Epoch 29/50, Training Loss: 0.1558, Training Accuracy: 95.11%
[2024-08-15 22:08:59] Epoch 29/50, Validation Loss: 0.2561, Validation Accuracy: 93.42%
[2024-08-15 22:10:00] Epoch 30/50, Training Loss: 0.1557, Training Accuracy: 95.09%
[2024-08-15 22:10:06] Training complete.
[2024-08-15 22:10:06] 

New training session


[2024-08-15 22:10:06] KeywordSpottingModel(
  (proj): Linear(in_features=13, out_features=101, bias=True)
  (mamba): Mamba(
    (in_proj): Linear(in_features=101, out_features=606, bias=False)
    (conv1d): Conv1d(303, 303, kernel_size=(32,), stride=(1,), padding=(31,), groups=303)
    (act): SiLU()
    (x_proj): Linear(in_features=303, out_features=107, bias=False)
    (dt_proj): Linear(in_features=7, out_features=303, bias=True)
    (out_proj): Linear(in_features=303, out_features=101, bias=False)
  )
  (fc): Linear(in_features=101, out_features=12, bias=True)
  (dropout): Dropout(p=0.5, inplace=False)
)
[2024-08-15 22:11:07] Epoch 1/50, Training Loss: 22.7082, Training Accuracy: 53.33%
[2024-08-15 22:11:13] Epoch 1/50, Validation Loss: 1.4094, Validation Accuracy: 62.73%
[2024-08-15 22:12:15] Epoch 2/50, Training Loss: 1.3343, Training Accuracy: 64.01%
[2024-08-15 22:12:21] Epoch 2/50, Validation Loss: 1.0218, Validation Accuracy: 69.08%
…
[2024-08-15 22:17:56] Epoch 7/50, Validation Loss: 1.3020, Validation Accuracy: 65.46%
[2024-08-15 22:18:56] Epoch 8/50, Training Loss: 1.1388, Training Accuracy: 66.97%
[2024-08-15 22:19:03] Epoch 8/50, Validation Loss: 0.9711, Validation Accuracy: 71.76%
[2024-08-15 22:20:04] Epoch 9/50, Training Loss: 0.9355, Training Accuracy: 71.24%
[2024-08-15 22:20:10] Epoch 9/50, Validation Loss: 0.8396, Validation Accuracy: 73.36%
[2024-08-15 22:21:10] Epoch 10/50, Training Loss: 0.8530, Training Accuracy: 73.34%
[2024-08-15 22:21:16] Training complete.
[2024-08-15 22:21:16] 

New training session


[2024-08-15 22:21:16] KeywordSpottingModel(
  (proj): Linear(in_features=13, out_features=101, bias=True)
  (mamba): Mamba(
    (in_proj): Linear(in_features=101, out_features=606, bias=False)
    (conv1d): Conv1d(303, 303, kernel_size=(28,), stride=(1,), padding=(27,), groups=303)
    (act): SiLU()
    (x_proj): Linear(in_features=303, out_features=131, bias=False)
    (dt_proj): Linear(in_features=7, out_features=303, bias=True)
    (out_proj): Linear(in_features=303, out_features=101, bias=False)
  )
  (fc): Linear(in_features=101, out_features=12, bias=True)
  (dropout): Dropout(p=0.5, inplace=False)
)
[2024-08-15 22:22:18] Epoch 1/50, Training Loss: 99.8825, Training Accuracy: 47.35%
[2024-08-15 22:22:25] Epoch 1/50, Validation Loss: 1.6169, Validation Accuracy: 61.31%
[2024-08-15 22:23:25] Epoch 2/50, Training Loss: 1.6948, Training Accuracy: 59.47%
[2024-08-15 22:23:31] Epoch 2/50, Validation Loss: 1.2900, Validation Accuracy: 63.74%
…
[2024-08-15 22:30:19] Epoch 8/50, Validation Loss: 1.4874, Validation Accuracy: 68.80%
[2024-08-15 22:31:22] Epoch 9/50, Training Loss: 1.1511, Training Accuracy: 69.39%
[2024-08-15 22:31:28] Epoch 9/50, Validation Loss: 0.8700, Validation Accuracy: 74.64%
[2024-08-15 22:32:29] Epoch 10/50, Training Loss: 0.8923, Training Accuracy: 73.22%
[2024-08-15 22:32:35] Epoch 10/50, Validation Loss: 0.7927, Validation Accuracy: 76.06%
[2024-08-15 22:33:35] Epoch 11/50, Training Loss: 0.8177, Training Accuracy: 75.05%
[2024-08-15 22:33:42] Training complete.
[2024-08-15 22:33:42] 

New training session


[2024-08-15 22:33:42] KeywordSpottingModel(
  (proj): Linear(in_features=13, out_features=101, bias=True)
  (mamba): Mamba(
    (in_proj): Linear(in_features=101, out_features=808, bias=False)
    (conv1d): Conv1d(404, 404, kernel_size=(32,), stride=(1,), padding=(31,), groups=404)
    (act): SiLU()
    (x_proj): Linear(in_features=404, out_features=101, bias=False)
    (dt_proj): Linear(in_features=7, out_features=404, bias=True)
    (out_proj): Linear(in_features=404, out_features=101, bias=False)
  )
  (fc): Linear(in_features=101, out_features=12, bias=True)
  (dropout): Dropout(p=0.5, inplace=False)
)
[2024-08-15 22:34:43] Epoch 1/50, Training Loss: 83.5661, Training Accuracy: 48.01%
[2024-08-15 22:34:49] Epoch 1/50, Validation Loss: 1.5612, Validation Accuracy: 61.37%
[2024-08-15 22:35:52] Epoch 2/50, Training Loss: 1.5945, Training Accuracy: 60.52%
[2024-08-15 22:35:59] Epoch 2/50, Validation Loss: 1.2365, Validation Accuracy: 63.90%
…
[2024-08-15 22:41:34] Epoch 7/50, Validation Loss: 14.9537, Validation Accuracy: 55.97%
[2024-08-15 22:42:33] Epoch 8/50, Training Loss: 4.7234, Training Accuracy: 56.00%
[2024-08-15 22:42:40] Epoch 8/50, Validation Loss: 3.4518, Validation Accuracy: 59.80%
[2024-08-15 22:43:39] Epoch 9/50, Training Loss: 2.6039, Training Accuracy: 59.27%
[2024-08-15 22:43:45] Epoch 9/50, Validation Loss: 2.4679, Validation Accuracy: 61.60%
[2024-08-15 22:44:48] Epoch 10/50, Training Loss: 2.1066, Training Accuracy: 60.66%
[2024-08-15 22:44:55] Training complete.
[2024-08-15 22:44:55] 

New training session


[2024-08-15 22:44:55] KeywordSpottingModel(
  (proj): Linear(in_features=13, out_features=101, bias=True)
  (mamba): Mamba(
    (in_proj): Linear(in_features=101, out_features=606, bias=False)
    (conv1d): Conv1d(303, 303, kernel_size=(30,), stride=(1,), padding=(29,), groups=303)
    (act): SiLU()
    (x_proj): Linear(in_features=303, out_features=109, bias=False)
    (dt_proj): Linear(in_features=7, out_features=303, bias=True)
    (out_proj): Linear(in_features=303, out_features=101, bias=False)
  )
  (fc): Linear(in_features=101, out_features=12, bias=True)
  (dropout): Dropout(p=0.5, inplace=False)
)
[2024-08-15 22:45:54] Epoch 1/50, Training Loss: 94.6815, Training Accuracy: 49.54%
[2024-08-15 22:46:01] Epoch 1/50, Validation Loss: 1.4935, Validation Accuracy: 61.91%
[2024-08-15 22:47:01] Epoch 2/50, Training Loss: 1.5065, Training Accuracy: 61.47%
[2024-08-15 22:47:08] Epoch 2/50, Validation Loss: 1.1450, Validation Accuracy: 65.64%
…
[2024-08-15 22:53:51] Epoch 8/50, Validation Loss: 46.2548, Validation Accuracy: 52.95%
[2024-08-15 22:54:53] Epoch 9/50, Training Loss: 16.1726, Training Accuracy: 53.51%
[2024-08-15 22:54:59] Epoch 9/50, Validation Loss: 11.9075, Validation Accuracy: 55.87%
[2024-08-15 22:56:00] Epoch 10/50, Training Loss: 7.6689, Training Accuracy: 55.96%
[2024-08-15 22:56:06] Epoch 10/50, Validation Loss: 8.1817, Validation Accuracy: 58.44%
[2024-08-15 22:57:07] Epoch 11/50, Training Loss: 5.3722, Training Accuracy: 57.03%
[2024-08-15 22:57:13] Training complete.
[2024-08-15 22:57:13] 

New training session


[2024-08-15 22:57:13] KeywordSpottingModel(
  (proj): Linear(in_features=13, out_features=101, bias=True)
  (mamba): Mamba(
    (in_proj): Linear(in_features=101, out_features=404, bias=False)
    (conv1d): Conv1d(202, 202, kernel_size=(29,), stride=(1,), padding=(28,), groups=202)
    (act): SiLU()
    (x_proj): Linear(in_features=202, out_features=127, bias=False)
    (dt_proj): Linear(in_features=7, out_features=202, bias=True)
    (out_proj): Linear(in_features=202, out_features=101, bias=False)
  )
  (fc): Linear(in_features=101, out_features=12, bias=True)
  (dropout): Dropout(p=0.5, inplace=False)
)
[2024-08-15 22:58:14] Epoch 1/50, Training Loss: 45.6628, Training Accuracy: 51.88%
[2024-08-15 22:58:21] Epoch 1/50, Validation Loss: 1.4902, Validation Accuracy: 61.82%
[2024-08-15 22:59:21] Epoch 2/50, Training Loss: 1.4018, Training Accuracy: 62.86%
[2024-08-15 22:59:28] Epoch 2/50, Validation Loss: 1.1224, Validation Accuracy: 65.97%
…
[2024-08-15 23:03:57] Epoch 6/50, Validation Loss: 173.9289, Validation Accuracy: 53.04%
[2024-08-15 23:04:58] Epoch 7/50, Training Loss: 79.5063, Training Accuracy: 51.06%
[2024-08-15 23:05:05] Epoch 7/50, Validation Loss: 55.4224, Validation Accuracy: 55.02%
[2024-08-15 23:06:06] Epoch 8/50, Training Loss: 35.5444, Training Accuracy: 52.25%
[2024-08-15 23:06:12] Epoch 8/50, Validation Loss: 46.2516, Validation Accuracy: 54.71%
[2024-08-15 23:07:13] Epoch 9/50, Training Loss: 25.7298, Training Accuracy: 52.63%
[2024-08-15 23:07:19] Training complete.
[2024-08-15 23:07:19] 

New training session


[2024-08-15 23:07:19] KeywordSpottingModel(
  (proj): Linear(in_features=13, out_features=101, bias=True)
  (mamba): Mamba(
    (in_proj): Linear(in_features=101, out_features=808, bias=False)
    (conv1d): Conv1d(404, 404, kernel_size=(27,), stride=(1,), padding=(26,), groups=404)
    (act): SiLU()
    (x_proj): Linear(in_features=404, out_features=81, bias=False)
    (dt_proj): Linear(in_features=7, out_features=404, bias=True)
    (out_proj): Linear(in_features=404, out_features=101, bias=False)
  )
  (fc): Linear(in_features=101, out_features=12, bias=True)
  (dropout): Dropout(p=0.5, inplace=False)
)
[2024-08-15 23:08:19] Epoch 1/50, Training Loss: 21.6510, Training Accuracy: 52.55%
[2024-08-15 23:08:25] Epoch 1/50, Validation Loss: 1.4086, Validation Accuracy: 63.53%
[2024-08-15 23:09:26] Epoch 2/50, Training Loss: 1.3078, Training Accuracy: 64.12%
[2024-08-15 23:09:33] Epoch 2/50, Validation Loss: 1.0113, Validation Accuracy: 69.73%
…
[2024-08-15 23:47:29] Epoch 36/50, Validation Loss: 0.2333, Validation Accuracy: 93.32%
[2024-08-15 23:48:30] Epoch 37/50, Training Loss: 0.1490, Training Accuracy: 95.26%
[2024-08-15 23:48:36] Epoch 37/50, Validation Loss: 0.2328, Validation Accuracy: 93.30%
[2024-08-15 23:49:36] Epoch 38/50, Training Loss: 0.1411, Training Accuracy: 95.45%
[2024-08-15 23:49:42] Epoch 38/50, Validation Loss: 0.2292, Validation Accuracy: 93.54%
[2024-08-15 23:50:42] Epoch 39/50, Training Loss: 0.1396, Training Accuracy: 95.55%
[2024-08-15 23:50:49] Training complete.
[2024-08-15 23:50:49] 

New training session


[2024-08-15 23:50:49] KeywordSpottingModel(
  (proj): Linear(in_features=13, out_features=101, bias=True)
  (mamba): Mamba(
    (in_proj): Linear(in_features=101, out_features=606, bias=False)
    (conv1d): Conv1d(303, 303, kernel_size=(20,), stride=(1,), padding=(19,), groups=303)
    (act): SiLU()
    (x_proj): Linear(in_features=303, out_features=75, bias=False)
    (dt_proj): Linear(in_features=7, out_features=303, bias=True)
    (out_proj): Linear(in_features=303, out_features=101, bias=False)
  )
  (fc): Linear(in_features=101, out_features=12, bias=True)
  (dropout): Dropout(p=0.5, inplace=False)
)
[2024-08-15 23:51:49] Epoch 1/50, Training Loss: 117.1482, Training Accuracy: 47.63%
[2024-08-15 23:51:56] Epoch 1/50, Validation Loss: 1.6113, Validation Accuracy: 61.83%
[2024-08-15 23:52:55] Epoch 2/50, Training Loss: 1.6484, Training Accuracy: 59.98%
[2024-08-15 23:53:01] Epoch 2/50, Validation Loss: 1.2801, Validation Accuracy: 64.67%
…
[2024-08-15 23:59:35] Epoch 8/50, Validation Loss: 14.1264, Validation Accuracy: 59.58%
[2024-08-16 00:00:36] Epoch 9/50, Training Loss: 7.1446, Training Accuracy: 59.12%
[2024-08-16 00:00:42] Epoch 9/50, Validation Loss: 3.8868, Validation Accuracy: 65.57%
[2024-08-16 00:01:43] Epoch 10/50, Training Loss: 3.4476, Training Accuracy: 62.53%
[2024-08-16 00:01:50] Epoch 10/50, Validation Loss: 3.3578, Validation Accuracy: 64.88%
[2024-08-16 00:02:49] Epoch 11/50, Training Loss: 2.6271, Training Accuracy: 64.06%
[2024-08-16 00:02:56] Training complete.
[2024-08-16 00:02:56] 

New training session


[2024-08-16 00:02:56] KeywordSpottingModel(
  (proj): Linear(in_features=13, out_features=101, bias=True)
  (mamba): Mamba(
    (in_proj): Linear(in_features=101, out_features=808, bias=False)
    (conv1d): Conv1d(404, 404, kernel_size=(31,), stride=(1,), padding=(30,), groups=404)
    (act): SiLU()
    (x_proj): Linear(in_features=404, out_features=79, bias=False)
    (dt_proj): Linear(in_features=7, out_features=404, bias=True)
    (out_proj): Linear(in_features=404, out_features=101, bias=False)
  )
  (fc): Linear(in_features=101, out_features=12, bias=True)
  (dropout): Dropout(p=0.5, inplace=False)
)
[2024-08-16 00:04:01] Epoch 1/50, Training Loss: 30.9274, Training Accuracy: 50.77%
[2024-08-16 00:04:08] Epoch 1/50, Validation Loss: 1.4264, Validation Accuracy: 61.98%
[2024-08-16 00:05:10] Epoch 2/50, Training Loss: 1.3862, Training Accuracy: 63.03%
[2024-08-16 00:05:16] Epoch 2/50, Validation Loss: 1.0380, Validation Accuracy: 68.68%
…
[2024-08-16 00:10:52] Epoch 7/50, Validation Loss: 6.2316, Validation Accuracy: 59.96%
[2024-08-16 00:11:51] Epoch 8/50, Training Loss: 3.6392, Training Accuracy: 59.62%
[2024-08-16 00:11:58] Epoch 8/50, Validation Loss: 2.2885, Validation Accuracy: 65.46%
[2024-08-16 00:12:55] Epoch 9/50, Training Loss: 1.9973, Training Accuracy: 63.80%
[2024-08-16 00:13:02] Epoch 9/50, Validation Loss: 1.8703, Validation Accuracy: 65.90%
[2024-08-16 00:14:01] Epoch 10/50, Training Loss: 1.5961, Training Accuracy: 66.20%
[2024-08-16 00:14:08] Training complete.
[2024-08-16 00:14:08] 

New training session


[2024-08-16 00:14:08] KeywordSpottingModel(
  (proj): Linear(in_features=13, out_features=101, bias=True)
  (mamba): Mamba(
    (in_proj): Linear(in_features=101, out_features=808, bias=False)
    (conv1d): Conv1d(404, 404, kernel_size=(24,), stride=(1,), padding=(23,), groups=404)
    (act): SiLU()
    (x_proj): Linear(in_features=404, out_features=85, bias=False)
    (dt_proj): Linear(in_features=7, out_features=404, bias=True)
    (out_proj): Linear(in_features=404, out_features=101, bias=False)
  )
  (fc): Linear(in_features=101, out_features=12, bias=True)
  (dropout): Dropout(p=0.5, inplace=False)
)
[2024-08-16 00:15:06] Epoch 1/50, Training Loss: 41.8780, Training Accuracy: 51.41%
[2024-08-16 00:15:12] Epoch 1/50, Validation Loss: 1.4055, Validation Accuracy: 62.37%
[2024-08-16 00:16:12] Epoch 2/50, Training Loss: 1.3615, Training Accuracy: 62.98%
[2024-08-16 00:16:18] Epoch 2/50, Validation Loss: 1.0412, Validation Accuracy: 67.72%
…
[2024-08-16 00:21:45] Epoch 7/50, Validation Loss: 2.8354, Validation Accuracy: 62.40%
[2024-08-16 00:22:43] Epoch 8/50, Training Loss: 1.7830, Training Accuracy: 62.86%
[2024-08-16 00:22:49] Epoch 8/50, Validation Loss: 1.4521, Validation Accuracy: 69.64%
[2024-08-16 00:23:51] Epoch 9/50, Training Loss: 1.2107, Training Accuracy: 67.56%
[2024-08-16 00:23:58] Epoch 9/50, Validation Loss: 1.1679, Validation Accuracy: 70.94%
[2024-08-16 00:24:57] Epoch 10/50, Training Loss: 1.0838, Training Accuracy: 69.63%
[2024-08-16 00:25:04] Training complete.
[2024-08-16 00:25:04] 

New training session


[2024-08-16 00:25:04] KeywordSpottingModel(
  (proj): Linear(in_features=13, out_features=101, bias=True)
  (mamba): Mamba(
    (in_proj): Linear(in_features=101, out_features=808, bias=False)
    (conv1d): Conv1d(404, 404, kernel_size=(26,), stride=(1,), padding=(25,), groups=404)
    (act): SiLU()
    (x_proj): Linear(in_features=404, out_features=87, bias=False)
    (dt_proj): Linear(in_features=7, out_features=404, bias=True)
    (out_proj): Linear(in_features=404, out_features=101, bias=False)
  )
  (fc): Linear(in_features=101, out_features=12, bias=True)
  (dropout): Dropout(p=0.5, inplace=False)
)
[2024-08-16 00:26:03] Epoch 1/50, Training Loss: 18.9832, Training Accuracy: 52.19%
[2024-08-16 00:26:09] Epoch 1/50, Validation Loss: 1.3665, Validation Accuracy: 63.09%
[2024-08-16 00:27:09] Epoch 2/50, Training Loss: 1.3084, Training Accuracy: 64.32%
[2024-08-16 00:27:15] Epoch 2/50, Validation Loss: 0.9901, Validation Accuracy: 70.24%
…
[2024-08-16 00:55:12] Epoch 27/50, Validation Loss: 0.2507, Validation Accuracy: 93.29%
[2024-08-16 00:56:12] Epoch 28/50, Training Loss: 0.1467, Training Accuracy: 95.26%
…
[2024-08-21 10:33:17] Epoch 1/100, Validation Loss: 0.9397, Validation Accuracy: 47.08%
[2024-08-21 10:33:17] Learning rate after epoch 1: [0.0005]
[2024-08-21 10:34:26] Epoch 2/100, Training Loss: 0.9214, Training Accuracy: 54.00%
…
[2024-08-21 11:16:16] Epoch 37/100, Training Loss: 0.2616, Training Accuracy: 83.28%
[2024-08-21 11:16:22] Epoch 37/100, Validation Loss: 0.3634, Validation Accuracy: 81.99%
[2024-08-21 11:16:22] Learning rate after epoch 37: [5e-06]
[2024-08-21 11:17:27] Epoch 38/100, Training Loss: 0.2616, Training Accuracy: 83.29%
[2024-08-21 11:17:32] Epoch 38/100, Validation Loss: 0.3624, Validation Accuracy: 82.46%
[2024-08-21 11:17:32] Learning rate after epoch 38: [5e-06]
[2024-08-21 11:17:32] Training complete.
[2024-08-21 13:33:26] 

New training session


[2024-08-21 13:33:26] KeywordSpottingModel(
  (proj): Linear(in_features=13, out_features=101, bias=True)
  (mamba): Mamba(
    (in_proj): Linear(in_features=101, out_features=404, bias=False)
    (conv1d): Conv1d(202, 202, kernel_size=(32,), stride=(1,), padding=(31,), groups=202)
    (act): SiLU()
    (x_proj): Linear(in_features=202, out_features=133, bias=False)
    (dt_proj): Linear(in_features=7, out_features=202, bias=True)
    (out_proj): Linear(in_features=202, out_features=101, bias=False)
  )
  (batch_norm): BatchNorm1d(101, eps=1e-05, momentum=0.1, affine=True, track_running_stats=True)
  (dropout): Dropout(p=0.25, inplace=False)
  (fc): Linear(in_features=101, out_features=12, bias=True)
)
[2024-08-21 13:35:00] Epoch 1/100, Training Loss: 1.7858, Training Accuracy: 25.91%
[2024-08-21 13:35:08] Epoch 1/100, Validation Loss: 1.0596, Validation Accuracy: 43.48%
[2024-08-21 13:35:08] Learning rate after epoch 1: [0.0005]
[2024-08-21 13:36:46] Epoch 2/100, Training Loss: 1.0847, Training Accuracy: 45.72%
[2024-08-21 13:36:54] Epoch 2/100, Validation Loss: 0.8338, Validation Accuracy: 47.62%
[2024-08-21 13:36:54] Learning rate after epoch 2: [0.0005]
[2024-08-21 13:38:28] Epoch 3/100, Training Loss: 0.8683, Training Accuracy: 54.93%
[2024-08-21 13:38:37] Epoch 3/100, Validation Loss: 0.6888, Validation Accuracy: 59.31%
[2024-08-21 13:38:37] Learning rate after epoch 3: [0.0005]
[2024-08-21 13:39:04] 

New training session


[2024-08-21 13:39:04] KeywordSpottingModel(
  (proj): Linear(in_features=13, out_features=101, bias=True)
  (mamba): Mamba(
    (in_proj): Linear(in_features=101, out_features=404, bias=False)
    (conv1d): Conv1d(202, 202, kernel_size=(32,), stride=(1,), padding=(31,), groups=202)
    (act): SiLU()
    (x_proj): Linear(in_features=202, out_features=133, bias=False)
    (dt_proj): Linear(in_features=7, out_features=202, bias=True)
    (out_proj): Linear(in_features=202, out_features=101, bias=False)
  )
  (batch_norm): BatchNorm1d(101, eps=1e-05, momentum=0.1, affine=True, track_running_stats=True)
  (dropout): Dropout(p=0.25, inplace=False)
  (fc): Linear(in_features=101, out_features=12, bias=True)
)
[2024-08-21 13:40:28] Epoch 1/100, Training Loss: 0.7457, Training Accuracy: 60.30%
[2024-08-21 13:40:38] Epoch 1/100, Validation Loss: 0.5924, Validation Accuracy: 63.59%
[2024-08-21 13:40:38] Learning rate after epoch 1: [0.0005]
[2024-08-21 13:42:02] Epoch 2/100, Training Loss: 0.6896, Training Accuracy: 62.89%
[2024-08-21 13:42:10] Epoch 2/100, Validation Loss: 0.5538, Validation Accuracy: 66.93%
[2024-08-21 13:42:10] Learning rate after epoch 2: [0.0005]
[2024-08-21 13:43:32] Epoch 3/100, Training Loss: 0.6357, Training Accuracy: 65.55%
[2024-08-21 13:43:41] Epoch 3/100, Validation Loss: 0.5110, Validation Accuracy: 68.05%
[2024-08-21 13:43:41] Learning rate after epoch 3: [0.0005]
[2024-08-21 13:45:08] Epoch 4/100, Training Loss: 0.6032, Training Accuracy: 67.36%
[2024-08-21 13:45:16] Epoch 4/100, Validation Loss: 0.4932, Validation Accuracy: 71.69%
[2024-08-21 13:45:16] Learning rate after epoch 4: [0.0005]
[2024-08-21 13:46:46] 

New training session


[2024-08-21 13:46:46] KeywordSpottingModel(
  (proj): Linear(in_features=13, out_features=101, bias=True)
  (mamba): Mamba(
    (in_proj): Linear(in_features=101, out_features=404, bias=False)
    (conv1d): Conv1d(202, 202, kernel_size=(32,), stride=(1,), padding=(31,), groups=202)
    (act): SiLU()
    (x_proj): Linear(in_features=202, out_features=133, bias=False)
    (dt_proj): Linear(in_features=7, out_features=202, bias=True)
    (out_proj): Linear(in_features=202, out_features=101, bias=False)
  )
  (batch_norm): BatchNorm1d(101, eps=1e-05, momentum=0.1, affine=True, track_running_stats=True)
  (dropout): Dropout(p=0.4, inplace=False)
  (fc): Linear(in_features=101, out_features=12, bias=True)
)
[2024-08-21 13:48:17] Epoch 1/100, Training Loss: 2.0495, Training Accuracy: 20.83%
[2024-08-21 13:48:26] Epoch 1/100, Validation Loss: 1.3023, Validation Accuracy: 35.38%
[2024-08-21 13:48:26] Learning rate after epoch 1: [0.0005]
[2024-08-21 13:49:56] Epoch 2/100, Training Loss: 1.3341, Training Accuracy: 37.07%
[2024-08-21 13:50:03] Epoch 2/100, Validation Loss: 0.9983, Validation Accuracy: 45.12%
…
[2024-08-21 15:16:01] Epoch 50/100, Training Loss: 0.3006, Training Accuracy: 81.43%
[2024-08-21 15:16:07] Epoch 50/100, Validation Loss: 0.3146, Validation Accuracy: 82.83%
[2024-08-21 15:16:07] Learning rate after epoch 50: [1.0000000000000002e-06]
[2024-08-21 15:17:15] Epoch 51/100, Training Loss: 0.2989, Training Accuracy: 81.53%
[2024-08-21 15:17:22] Epoch 51/100, Validation Loss: 0.3162, Validation Accuracy: 83.04%
[2024-08-21 15:17:22] Learning rate after epoch 51: [1.0000000000000002e-06]
[2024-08-21 15:17:22] Training complete.
[2024-08-21 15:38:37] 

New training session


[2024-08-21 15:38:37] KeywordSpottingModel(
  (proj): Linear(in_features=13, out_features=101, bias=True)
  (mamba): Mamba(
    (in_proj): Linear(in_features=101, out_features=404, bias=False)
    (conv1d): Conv1d(202, 202, kernel_size=(32,), stride=(1,), padding=(31,), groups=202)
    (act): SiLU()
    (x_proj): Linear(in_features=202, out_features=133, bias=False)
    (dt_proj): Linear(in_features=7, out_features=202, bias=True)
    (out_proj): Linear(in_features=202, out_features=101, bias=False)
  )
  (batch_norm): BatchNorm1d(101, eps=1e-05, momentum=0.1, affine=True, track_running_stats=True)
  (dropout): Dropout(p=0.3, inplace=False)
  (fc): Linear(in_features=101, out_features=12, bias=True)
)
[2024-08-21 16:02:56] 

New training session


[2024-08-21 16:02:56] KeywordSpottingModel(
  (proj): Linear(in_features=13, out_features=101, bias=True)
  (mamba): Mamba(
    (in_proj): Linear(in_features=101, out_features=404, bias=False)
    (conv1d): Conv1d(202, 202, kernel_size=(32,), stride=(1,), padding=(31,), groups=202)
    (act): SiLU()
    (x_proj): Linear(in_features=202, out_features=133, bias=False)
    (dt_proj): Linear(in_features=7, out_features=202, bias=True)
    (out_proj): Linear(in_features=202, out_features=101, bias=False)
  )
  (batch_norm): BatchNorm1d(101, eps=1e-05, momentum=0.1, affine=True, track_running_stats=True)
  (dropout): Dropout(p=0.3, inplace=False)
  (fc): Linear(in_features=101, out_features=12, bias=True)
)
[2024-08-25 08:17:15] 

New training session


[2024-08-25 08:17:15] KeywordSpottingModel(
  (proj): Linear(in_features=13, out_features=101, bias=True)
  (mamba_layers): ModuleList(
    (0-1): 2 x Mamba(
      (in_proj): Linear(in_features=101, out_features=404, bias=False)
      (conv1d): Conv1d(202, 202, kernel_size=(20,), stride=(1,), padding=(19,), groups=202)
      (act): SiLU()
      (x_proj): Linear(in_features=202, out_features=71, bias=False)
      (dt_proj): Linear(in_features=7, out_features=202, bias=True)
      (out_proj): Linear(in_features=202, out_features=101, bias=False)
    )
  )
  (batch_norms): ModuleList(
    (0-1): 2 x BatchNorm1d(101, eps=1e-05, momentum=0.1, affine=True, track_running_stats=True)
  )
  (fc): Linear(in_features=101, out_features=12, bias=True)
  (dropout): Dropout(p=0.5, inplace=False)
)
[2024-08-25 08:18:35] Epoch 1/100, Training Loss: 0.9092, Training Accuracy: 73.51%
[2024-08-25 08:18:43] Epoch 1/100, Validation Loss: 0.5242, Validation Accuracy: 83.41%
[2024-08-25 08:18:43] Learning rate after epoch 1: [0.0024]
[2024-08-25 08:20:03] Epoch 2/100, Training Loss: 0.4916, Training Accuracy: 83.90%
…
[2024-08-25 08:40:41] Epoch 18/100, Training Loss: 0.2380, Training Accuracy: 92.31%
[2024-08-25 08:40:48] Epoch 18/100, Validation Loss: 0.3065, Validation Accuracy: 92.30%
[2024-08-25 08:40:48] Learning rate after epoch 18: [0.00023999999999999998]
[2024-08-25 08:41:53] Epoch 19/100, Training Loss: 0.2026, Training Accuracy: 93.52%
[2024-08-25 08:42:01] Epoch 19/100, Validation Loss: 0.2996, Validation Accuracy: 93.11%
[2024-08-25 08:42:01] Learning rate after epoch 19: [0.00023999999999999998]
[2024-08-25 08:42:01] Training complete.
[2024-08-25 09:21:36] 

New training session


[2024-08-25 09:21:36] KeywordSpottingModel(
  (proj): Linear(in_features=13, out_features=101, bias=True)
  (mamba_layers): ModuleList(
    (0-1): 2 x Mamba(
      (in_proj): Linear(in_features=101, out_features=404, bias=False)
      (conv1d): Conv1d(202, 202, kernel_size=(20,), stride=(1,), padding=(19,), groups=202)
      (act): SiLU()
      (x_proj): Linear(in_features=202, out_features=71, bias=False)
      (dt_proj): Linear(in_features=7, out_features=202, bias=True)
      (out_proj): Linear(in_features=202, out_features=101, bias=False)
    )
  )
  (batch_norms): ModuleList(
    (0-1): 2 x BatchNorm1d(101, eps=1e-05, momentum=0.1, affine=True, track_running_stats=True)
  )
  (fc): Linear(in_features=101, out_features=12, bias=True)
  (dropout): Dropout(p=0.5, inplace=False)
)
[2024-08-25 09:25:20] 

New training session


[2024-08-25 09:25:20] KeywordSpottingModel(
  (proj): Linear(in_features=13, out_features=101, bias=True)
  (mamba_layers): ModuleList(
    (0-1): 2 x Mamba(
      (in_proj): Linear(in_features=101, out_features=404, bias=False)
      (conv1d): Conv1d(202, 202, kernel_size=(20,), stride=(1,), padding=(19,), groups=202)
      (act): SiLU()
      (x_proj): Linear(in_features=202, out_features=71, bias=False)
      (dt_proj): Linear(in_features=7, out_features=202, bias=True)
      (out_proj): Linear(in_features=202, out_features=101, bias=False)
    )
  )
  (batch_norms): ModuleList(
    (0-1): 2 x BatchNorm1d(101, eps=1e-05, momentum=0.1, affine=True, track_running_stats=True)
  )
  (fc): Linear(in_features=101, out_features=12, bias=True)
  (dropout): Dropout(p=0.5, inplace=False)
)
[2024-08-25 09:34:06] 

New training session


[2024-08-25 09:34:06] KeywordSpottingModel(
  (proj): Linear(in_features=13, out_features=101, bias=True)
  (mamba_layers): ModuleList(
    (0-1): 2 x Mamba(
      (in_proj): Linear(in_features=101, out_features=404, bias=False)
      (conv1d): Conv1d(202, 202, kernel_size=(20,), stride=(1,), padding=(19,), groups=202)
      (act): SiLU()
      (x_proj): Linear(in_features=202, out_features=71, bias=False)
      (dt_proj): Linear(in_features=7, out_features=202, bias=True)
      (out_proj): Linear(in_features=202, out_features=101, bias=False)
    )
  )
  (batch_norms): ModuleList(
    (0-1): 2 x BatchNorm1d(101, eps=1e-05, momentum=0.1, affine=True, track_running_stats=True)
  )
  (fc): Linear(in_features=101, out_features=12, bias=True)
  (dropout): Dropout(p=0.5, inplace=False)
)
[2024-08-25 09:37:04] Epoch 1/100, Training Loss: 0.9265, Training Accuracy: 72.92%
[2024-08-25 09:37:12] Epoch 1/100, Validation Loss: 0.5788, Validation Accuracy: 82.15%
[2024-08-25 09:37:12] Learning rate after epoch 1: [0.0024]
[2024-08-25 09:39:52] Epoch 2/100, Training Loss: 0.5102, Training Accuracy: 83.41%
…
[2024-08-25 11:05:08] Epoch 25/100, Training Loss: 0.2160, Training Accuracy: 93.22%
[2024-08-25 11:05:16] Epoch 25/100, Validation Loss: 0.2815, Validation Accuracy: 92.80%
[2024-08-25 11:05:16] Learning rate after epoch 25: [2.4e-05]
[2024-08-25 11:06:25] Epoch 26/100, Training Loss: 0.2121, Training Accuracy: 93.24%
[2024-08-25 11:06:31] Epoch 26/100, Validation Loss: 0.2596, Validation Accuracy: 92.83%
[2024-08-25 11:06:31] Learning rate after epoch 26: [2.4e-05]
[2024-08-25 11:06:31] Training complete.
[2024-08-25 11:58:23] 

New training session


[2024-08-25 11:58:23] KeywordSpottingModel(
  (proj): Linear(in_features=13, out_features=101, bias=True)
  (mamba_layers): ModuleList(
    (0-1): 2 x Mamba(
      (in_proj): Linear(in_features=101, out_features=808, bias=False)
      (conv1d): Conv1d(404, 404, kernel_size=(64,), stride=(1,), padding=(63,), groups=404)
      (act): SiLU()
      (x_proj): Linear(in_features=404, out_features=263, bias=False)
      (dt_proj): Linear(in_features=7, out_features=404, bias=True)
      (out_proj): Linear(in_features=404, out_features=101, bias=False)
    )
  )
  (batch_norms): ModuleList(
    (0-1): 2 x BatchNorm1d(101, eps=1e-05, momentum=0.1, affine=True, track_running_stats=True)
  )
  (fc): Linear(in_features=101, out_features=12, bias=True)
  (dropout): Dropout(p=0.5, inplace=False)
)
[2024-08-25 11:59:46] Epoch 1/100, Training Loss: 0.8781, Training Accuracy: 73.92%
[2024-08-25 11:59:54] Epoch 1/100, Validation Loss: 0.5231, Validation Accuracy: 83.23%
[2024-08-25 11:59:54] Learning rate after epoch 1: [0.0024]
[2024-08-25 12:01:13] Epoch 2/100, Training Loss: 0.5172, Training Accuracy: 83.31%
…
[2024-08-25 12:32:54] Epoch 25/100, Training Loss: 0.2316, Training Accuracy: 92.57%
[2024-08-25 12:33:02] Epoch 25/100, Validation Loss: 0.2643, Validation Accuracy: 91.59%
[2024-08-25 12:33:02] Learning rate after epoch 25: [0.00023999999999999998]
[2024-08-25 12:34:15] Epoch 26/100, Training Loss: 0.1927, Training Accuracy: 93.85%
[2024-08-25 12:34:22] Epoch 26/100, Validation Loss: 0.2574, Validation Accuracy: 92.22%
[2024-08-25 12:34:22] Learning rate after epoch 26: [0.00023999999999999998]
[2024-08-25 12:34:22] Training complete.
[2024-08-25 12:38:25] 

New training session


[2024-08-25 12:38:25] KeywordSpottingModel(
  (proj): Linear(in_features=13, out_features=101, bias=True)
  (mamba_layers): ModuleList(
    (0-1): 2 x Mamba(
      (in_proj): Linear(in_features=101, out_features=404, bias=False)
      (conv1d): Conv1d(202, 202, kernel_size=(128,), stride=(1,), padding=(127,), groups=202)
      (act): SiLU()
      (x_proj): Linear(in_features=202, out_features=519, bias=False)
      (dt_proj): Linear(in_features=7, out_features=202, bias=True)
      (out_proj): Linear(in_features=202, out_features=101, bias=False)
    )
  )
  (batch_norms): ModuleList(
    (0-1): 2 x BatchNorm1d(101, eps=1e-05, momentum=0.1, affine=True, track_running_stats=True)
  )
  (fc): Linear(in_features=101, out_features=12, bias=True)
  (dropout): Dropout(p=0.5, inplace=False)
)
[2024-08-25 12:39:02] 

New training session


[2024-08-25 12:39:02] KeywordSpottingModel(
  (proj): Linear(in_features=13, out_features=101, bias=True)
  (mamba_layers): ModuleList(
    (0-1): 2 x Mamba(
      (in_proj): Linear(in_features=101, out_features=404, bias=False)
      (conv1d): Conv1d(202, 202, kernel_size=(128,), stride=(1,), padding=(127,), groups=202)
      (act): SiLU()
      (x_proj): Linear(in_features=202, out_features=519, bias=False)
      (dt_proj): Linear(in_features=7, out_features=202, bias=True)
      (out_proj): Linear(in_features=202, out_features=101, bias=False)
    )
  )
  (batch_norms): ModuleList(
    (0-1): 2 x BatchNorm1d(101, eps=1e-05, momentum=0.1, affine=True, track_running_stats=True)
  )
  (fc): Linear(in_features=101, out_features=12, bias=True)
  (dropout): Dropout(p=0.5, inplace=False)
)
[2024-08-25 12:40:25] Epoch 1/100, Training Loss: 1.0562, Training Accuracy: 69.46%
[2024-08-25 12:40:33] Epoch 1/100, Validation Loss: 0.8372, Validation Accuracy: 78.17%
[2024-08-25 12:40:33] Learning rate after epoch 1: [0.0024]
[2024-08-25 12:41:52] Epoch 2/100, Training Loss: 0.5748, Training Accuracy: 81.18%
…
[2024-08-25 12:46:14] Learning rate after epoch 5: [0.0024]
[2024-08-25 12:47:36] Epoch 6/100, Training Loss: 0.3826, Training Accuracy: 87.66%
[2024-08-25 12:47:43] Epoch 6/100, Validation Loss: 0.3863, Validation Accuracy: 88.48%
[2024-08-25 12:47:43] Learning rate after epoch 6: [0.0024]
[2024-08-25 12:49:02] Epoch 7/100, Training Loss: 0.3656, Training Accuracy: 88.23%
[2024-08-25 12:49:09] Epoch 7/100, Validation Loss: 0.3635, Validation Accuracy: 88.52%
[2024-08-25 12:49:09] Learning rate after epoch 7: [0.0024]
[2024-08-25 12:49:25] 

New training session


[2024-08-25 12:49:25] KeywordSpottingModel(
  (proj): Linear(in_features=13, out_features=101, bias=True)
  (mamba_layers): ModuleList(
    (0-1): 2 x Mamba(
      (in_proj): Linear(in_features=101, out_features=1616, bias=False)
      (conv1d): Conv1d(808, 808, kernel_size=(128,), stride=(1,), padding=(127,), groups=808)
      (act): SiLU()
      (x_proj): Linear(in_features=808, out_features=519, bias=False)
      (dt_proj): Linear(in_features=7, out_features=808, bias=True)
      (out_proj): Linear(in_features=808, out_features=101, bias=False)
    )
  )
  (batch_norms): ModuleList(
    (0-1): 2 x BatchNorm1d(101, eps=1e-05, momentum=0.1, affine=True, track_running_stats=True)
  )
  (fc): Linear(in_features=101, out_features=12, bias=True)
  (dropout): Dropout(p=0.5, inplace=False)
)
[2024-08-25 12:51:21] Epoch 1/100, Training Loss: 1.0030, Training Accuracy: 70.43%
[2024-08-25 12:51:30] Epoch 1/100, Validation Loss: 0.6446, Validation Accuracy: 79.94%
[2024-08-25 12:51:30] Learning rate after epoch 1: [0.0024]
[2024-08-25 12:53:26] Epoch 2/100, Training Loss: 0.5789, Training Accuracy: 81.13%
…
[2024-08-25 13:34:50] Epoch 22/100, Training Loss: 0.2567, Training Accuracy: 91.73%
[2024-08-25 13:34:58] Epoch 22/100, Validation Loss: 0.3434, Validation Accuracy: 89.08%
[2024-08-25 13:34:58] Learning rate after epoch 22: [0.00023999999999999998]
[2024-08-25 13:36:53] Epoch 23/100, Training Loss: 0.2182, Training Accuracy: 92.98%
[2024-08-25 13:37:01] Epoch 23/100, Validation Loss: 0.2913, Validation Accuracy: 91.36%
[2024-08-25 13:37:01] Learning rate after epoch 23: [0.00023999999999999998]
[2024-08-25 13:37:01] Training complete.
[2024-08-25 15:09:21] 

New training session


[2024-08-25 15:09:21] KeywordSpottingModel(
  (proj): Linear(in_features=13, out_features=101, bias=True)
  (mamba_layers): ModuleList(
    (0-1): 2 x Mamba(
      (in_proj): Linear(in_features=101, out_features=1616, bias=False)
      (conv1d): Conv1d(808, 808, kernel_size=(16,), stride=(1,), padding=(15,), groups=808)
      (act): SiLU()
      (x_proj): Linear(in_features=808, out_features=135, bias=False)
      (dt_proj): Linear(in_features=7, out_features=808, bias=True)
      (out_proj): Linear(in_features=808, out_features=101, bias=False)
    )
  )
  (batch_norms): ModuleList(
    (0-1): 2 x BatchNorm1d(101, eps=1e-05, momentum=0.1, affine=True, track_running_stats=True)
  )
  (fc): Linear(in_features=101, out_features=12, bias=True)
  (dropout): Dropout(p=0.5, inplace=False)
)
[2024-08-25 15:10:45] Epoch 1/100, Training Loss: 0.9173, Training Accuracy: 73.56%
[2024-08-25 15:10:54] Epoch 1/100, Validation Loss: 0.5332, Validation Accuracy: 82.87%
[2024-08-25 15:10:54] Learning rate after epoch 1: [0.0024]
[2024-08-25 15:12:13] Epoch 2/100, Training Loss: 0.4776, Training Accuracy: 84.52%
…
[2024-08-25 15:39:45] Epoch 23/100, Training Loss: 0.2274, Training Accuracy: 92.73%
[2024-08-25 15:39:54] Epoch 23/100, Validation Loss: 0.3007, Validation Accuracy: 91.89%
[2024-08-25 15:39:54] Learning rate after epoch 23: [0.00023999999999999998]
[2024-08-25 15:41:06] Epoch 24/100, Training Loss: 0.1940, Training Accuracy: 93.83%
[2024-08-25 15:41:15] Epoch 24/100, Validation Loss: 0.2430, Validation Accuracy: 93.14%
[2024-08-25 15:41:15] Learning rate after epoch 24: [0.00023999999999999998]
[2024-08-25 15:41:15] Training complete.
[2024-08-26 10:23:58] 

New training session


[2024-08-26 10:23:58] KeywordSpottingModel(
  (proj): Linear(in_features=13, out_features=101, bias=True)
  (mamba_layers): ModuleList(
    (0-1): 2 x Mamba(
      (in_proj): Linear(in_features=101, out_features=1616, bias=False)
      (conv1d): Conv1d(808, 808, kernel_size=(128,), stride=(1,), padding=(127,), groups=808)
      (act): SiLU()
      (x_proj): Linear(in_features=808, out_features=519, bias=False)
      (dt_proj): Linear(in_features=7, out_features=808, bias=True)
      (out_proj): Linear(in_features=808, out_features=101, bias=False)
    )
  )
  (batch_norms): ModuleList(
    (0-1): 2 x BatchNorm1d(101, eps=1e-05, momentum=0.1, affine=True, track_running_stats=True)
  )
  (fc): Linear(in_features=101, out_features=12, bias=True)
  (dropout): Dropout(p=0.5, inplace=False)
)
[2024-08-26 10:25:15] 

New training session


[2024-08-26 10:25:15] KeywordSpottingModel(
  (proj): Linear(in_features=40, out_features=51, bias=True)
  (mamba_layers): ModuleList(
    (0-1): 2 x Mamba(
      (in_proj): Linear(in_features=51, out_features=816, bias=False)
      (conv1d): Conv1d(408, 408, kernel_size=(16,), stride=(1,), padding=(15,), groups=408)
      (act): SiLU()
      (x_proj): Linear(in_features=408, out_features=132, bias=False)
      (dt_proj): Linear(in_features=4, out_features=408, bias=True)
      (out_proj): Linear(in_features=408, out_features=51, bias=False)
    )
  )
  (batch_norms): ModuleList(
    (0-1): 2 x BatchNorm1d(51, eps=1e-05, momentum=0.1, affine=True, track_running_stats=True)
  )
  (fc): Linear(in_features=51, out_features=12, bias=True)
  (dropout): Dropout(p=0.5, inplace=False)
)
[2024-08-26 10:26:39] Epoch 1/100, Training Loss: 0.9014, Training Accuracy: 73.57%
[2024-08-26 10:26:46] Epoch 1/100, Validation Loss: 0.5738, Validation Accuracy: 82.57%
[2024-08-26 10:26:46] Learning rate after epoch 1: [0.0024]
[2024-08-26 10:28:07] Epoch 2/100, Training Loss: 0.5050, Training Accuracy: 83.67%
…
[2024-08-26 10:59:37] Epoch 27/100, Training Loss: 0.1817, Training Accuracy: 94.14%
[2024-08-26 10:59:44] Epoch 27/100, Validation Loss: 0.2633, Validation Accuracy: 92.53%
[2024-08-26 10:59:44] Learning rate after epoch 27: [2.4e-05]
[2024-08-26 11:00:51] Epoch 28/100, Training Loss: 0.1777, Training Accuracy: 94.22%
[2024-08-26 11:00:59] Epoch 28/100, Validation Loss: 0.2550, Validation Accuracy: 92.44%
[2024-08-26 11:00:59] Learning rate after epoch 28: [2.4e-05]
[2024-08-26 11:00:59] Training complete.
[2024-08-26 11:28:36] 

New training session


[2024-08-26 11:28:36] KeywordSpottingModel(
  (proj): Linear(in_features=40, out_features=51, bias=True)
  (mamba_layers): ModuleList(
    (0-1): 2 x Mamba(
      (in_proj): Linear(in_features=51, out_features=204, bias=False)
      (conv1d): Conv1d(102, 102, kernel_size=(4,), stride=(1,), padding=(3,), groups=102)
      (act): SiLU()
      (x_proj): Linear(in_features=102, out_features=36, bias=False)
      (dt_proj): Linear(in_features=4, out_features=102, bias=True)
      (out_proj): Linear(in_features=102, out_features=51, bias=False)
    )
  )
  (batch_norms): ModuleList(
    (0-1): 2 x BatchNorm1d(51, eps=1e-05, momentum=0.1, affine=True, track_running_stats=True)
  )
  (fc): Linear(in_features=51, out_features=12, bias=True)
  (dropout): Dropout(p=0.5, inplace=False)
)
[2024-08-26 11:30:20] Epoch 1/100, Training Loss: 0.9722, Training Accuracy: 71.20%
[2024-08-26 11:30:30] Epoch 1/100, Validation Loss: 3.3026, Validation Accuracy: 81.41%
[2024-08-26 11:30:30] Learning rate after epoch 1: [0.0024]
[2024-08-26 11:32:10] Epoch 2/100, Training Loss: 0.5520, Training Accuracy: 82.12%
…
[2024-08-26 12:18:46] Epoch 29/100, Training Loss: 0.2233, Training Accuracy: 92.79%
[2024-08-26 12:18:56] Epoch 29/100, Validation Loss: 0.2662, Validation Accuracy: 92.64%
[2024-08-26 12:18:56] Learning rate after epoch 29: [2.4e-05]
[2024-08-26 12:20:20] Epoch 30/100, Training Loss: 0.2205, Training Accuracy: 93.02%
[2024-08-26 12:20:30] Epoch 30/100, Validation Loss: 0.2690, Validation Accuracy: 92.36%
[2024-08-26 12:20:30] Learning rate after epoch 30: [2.4e-05]
[2024-08-26 12:20:30] Training complete.
[2024-08-26 12:57:57] 

New training session


[2024-08-26 12:57:57] KeywordSpottingModel(
  (proj): Linear(in_features=40, out_features=51, bias=True)
  (mamba_layers): ModuleList(
    (0-1): 2 x Mamba(
      (in_proj): Linear(in_features=51, out_features=204, bias=False)
      (conv1d): Conv1d(102, 102, kernel_size=(4,), stride=(1,), padding=(3,), groups=102)
      (act): SiLU()
      (x_proj): Linear(in_features=102, out_features=36, bias=False)
      (dt_proj): Linear(in_features=4, out_features=102, bias=True)
      (out_proj): Linear(in_features=102, out_features=51, bias=False)
    )
  )
  (batch_norms): ModuleList(
    (0-1): 2 x BatchNorm1d(51, eps=1e-05, momentum=0.1, affine=True, track_running_stats=True)
  )
  (fc): Linear(in_features=51, out_features=12, bias=True)
  (dropout): Dropout(p=0.5, inplace=False)
)
[2024-08-26 12:58:22] 

New training session


[2024-08-26 12:58:22] KeywordSpottingModel(
  (proj): Linear(in_features=40, out_features=51, bias=True)
  (mamba_layers): ModuleList(
    (0-1): 2 x Mamba(
      (in_proj): Linear(in_features=51, out_features=204, bias=False)
      (conv1d): Conv1d(102, 102, kernel_size=(4,), stride=(1,), padding=(3,), groups=102)
      (act): SiLU()
      (x_proj): Linear(in_features=102, out_features=36, bias=False)
      (dt_proj): Linear(in_features=4, out_features=102, bias=True)
      (out_proj): Linear(in_features=102, out_features=51, bias=False)
    )
  )
  (batch_norms): ModuleList(
    (0-1): 2 x BatchNorm1d(51, eps=1e-05, momentum=0.1, affine=True, track_running_stats=True)
  )
  (fc): Linear(in_features=51, out_features=12, bias=True)
  (dropout): Dropout(p=0.5, inplace=False)
)
[2024-08-26 13:00:01] Epoch 1/10, Training Loss: 0.2328, Training Accuracy: 92.52%
[2024-08-26 13:00:12] Epoch 1/10, Validation Loss: 0.2527, Validation Accuracy: 92.51%
[2024-08-26 13:00:12] Learning rate after epoch 1: [2.4e-05]
[2024-08-26 13:01:50] Epoch 2/10, Training Loss: 0.2314, Training Accuracy: 92.64%
[2024-08-26 13:02:00] Epoch 2/10, Validation Loss: 0.2476, Validation Accuracy: 92.68%
[2024-08-26 13:02:00] Learning rate after epoch 2: [2.4e-05]
[2024-08-26 13:03:37] Epoch 3/10, Training Loss: 0.2295, Training Accuracy: 92.65%
[2024-08-26 13:03:47] Epoch 3/10, Validation Loss: 0.2567, Validation Accuracy: 92.56%
[2024-08-26 13:03:47] Learning rate after epoch 3: [2.4000000000000003e-06]
[2024-08-26 13:05:20] 

New training session


[2024-08-26 13:05:20] KeywordSpottingModel(
  (proj): Linear(in_features=40, out_features=51, bias=True)
  (mamba_layers): ModuleList(
    (0-1): 2 x Mamba(
      (in_proj): Linear(in_features=51, out_features=204, bias=False)
      (conv1d): Conv1d(102, 102, kernel_size=(4,), stride=(1,), padding=(3,), groups=102)
      (act): SiLU()
      (x_proj): Linear(in_features=102, out_features=36, bias=False)
      (dt_proj): Linear(in_features=4, out_features=102, bias=True)
      (out_proj): Linear(in_features=102, out_features=51, bias=False)
    )
  )
  (batch_norms): ModuleList(
    (0-1): 2 x BatchNorm1d(51, eps=1e-05, momentum=0.1, affine=True, track_running_stats=True)
  )
  (fc): Linear(in_features=51, out_features=12, bias=True)
  (dropout): Dropout(p=0.5, inplace=False)
)
[2024-08-26 13:05:35] Epoch 1/10, Training Loss: 0.2501, Training Accuracy: 90.58%
[2024-08-26 13:05:46] Epoch 1/10, Validation Loss: 2.3831, Validation Accuracy: 88.63%
[2024-08-26 13:05:46] Learning rate after epoch 1: [2.4000000000000003e-06]
[2024-08-26 13:05:59] Epoch 2/10, Training Loss: 0.1581, Training Accuracy: 94.56%
…
[2024-08-26 14:17:12] Learning rate after epoch 27: [0.0024]
[2024-08-26 14:19:15] Epoch 28/100, Training Loss: 0.2877, Training Accuracy: 90.76%
[2024-08-26 14:19:27] Epoch 28/100, Validation Loss: 0.2965, Validation Accuracy: 90.77%
[2024-08-26 14:19:27] Learning rate after epoch 28: [0.0024]
[2024-08-26 14:21:36] Epoch 29/100, Training Loss: 0.2877, Training Accuracy: 90.74%
[2024-08-26 14:21:51] Epoch 29/100, Validation Loss: 0.3004, Validation Accuracy: 90.64%
[2024-08-26 14:21:51] Learning rate after epoch 29: [0.0024]
[2024-08-26 14:24:08] 

New training session


[2024-08-26 14:24:08] KeywordSpottingModel(
  (proj): Linear(in_features=40, out_features=51, bias=True)
  (mamba_layers): ModuleList(
    (0-1): 2 x Mamba(
      (in_proj): Linear(in_features=51, out_features=204, bias=False)
      (conv1d): Conv1d(102, 102, kernel_size=(4,), stride=(1,), padding=(3,), groups=102)
      (act): SiLU()
      (x_proj): Linear(in_features=102, out_features=36, bias=False)
      (dt_proj): Linear(in_features=4, out_features=102, bias=True)
      (out_proj): Linear(in_features=102, out_features=51, bias=False)
    )
  )
  (batch_norms): ModuleList(
    (0-1): 2 x BatchNorm1d(51, eps=1e-05, momentum=0.1, affine=True, track_running_stats=True)
  )
  (fc): Linear(in_features=51, out_features=12, bias=True)
  (dropout): Dropout(p=0.5, inplace=False)
)
[2024-08-26 14:26:24] Epoch 1/10, Training Loss: 0.2022, Training Accuracy: 93.33%
[2024-08-26 14:26:37] Epoch 1/10, Validation Loss: 0.4235, Validation Accuracy: 87.76%
[2024-08-26 14:26:37] Learning rate after epoch 1: [0.0024]
[2024-08-26 14:27:18] 

New training session


[2024-08-26 14:27:18] KeywordSpottingModel(
  (proj): Linear(in_features=40, out_features=51, bias=True)
  (mamba_layers): ModuleList(
    (0-1): 2 x Mamba(
      (in_proj): Linear(in_features=51, out_features=204, bias=False)
      (conv1d): Conv1d(102, 102, kernel_size=(4,), stride=(1,), padding=(3,), groups=102)
      (act): SiLU()
      (x_proj): Linear(in_features=102, out_features=36, bias=False)
      (dt_proj): Linear(in_features=4, out_features=102, bias=True)
      (out_proj): Linear(in_features=102, out_features=51, bias=False)
    )
  )
  (batch_norms): ModuleList(
    (0-1): 2 x BatchNorm1d(51, eps=1e-05, momentum=0.1, affine=True, track_running_stats=True)
  )
  (fc): Linear(in_features=51, out_features=12, bias=True)
  (dropout): Dropout(p=0.5, inplace=False)
)
[2024-08-26 14:29:24] Epoch 1/10, Training Loss: 0.2061, Training Accuracy: 93.07%
[2024-08-26 14:29:36] Epoch 1/10, Validation Loss: 0.4191, Validation Accuracy: 88.06%
[2024-08-26 14:29:36] Learning rate after epoch 1: [1e-05]
[2024-08-26 14:31:51] Epoch 2/10, Training Loss: 0.0297, Training Accuracy: 99.69%
[2024-08-26 14:32:04] Epoch 2/10, Validation Loss: 0.4997, Validation Accuracy: 86.32%
[2024-08-26 14:32:04] Learning rate after epoch 2: [1e-05]
[2024-08-26 14:34:13] Epoch 3/10, Training Loss: 0.0106, Training Accuracy: 99.95%
[2024-08-26 14:34:27] Epoch 3/10, Validation Loss: 0.5603, Validation Accuracy: 85.12%
[2024-08-26 14:34:27] Learning rate after epoch 3: [1e-05]
[2024-08-26 14:34:50] 

New training session


[2024-08-26 14:34:50] KeywordSpottingModel(
  (proj): Linear(in_features=40, out_features=51, bias=True)
  (mamba_layers): ModuleList(
    (0-1): 2 x Mamba(
      (in_proj): Linear(in_features=51, out_features=204, bias=False)
      (conv1d): Conv1d(102, 102, kernel_size=(4,), stride=(1,), padding=(3,), groups=102)
      (act): SiLU()
      (x_proj): Linear(in_features=102, out_features=36, bias=False)
      (dt_proj): Linear(in_features=4, out_features=102, bias=True)
      (out_proj): Linear(in_features=102, out_features=51, bias=False)
    )
  )
  (batch_norms): ModuleList(
    (0-1): 2 x BatchNorm1d(51, eps=1e-05, momentum=0.1, affine=True, track_running_stats=True)
  )
  (fc): Linear(in_features=51, out_features=12, bias=True)
  (dropout): Dropout(p=0.5, inplace=False)
)
[2024-08-26 14:38:15] 

New training session


[2024-08-26 14:38:15] KeywordSpottingModel(
  (proj): Linear(in_features=40, out_features=51, bias=True)
  (mamba_layers): ModuleList(
    (0-1): 2 x Mamba(
      (in_proj): Linear(in_features=51, out_features=204, bias=False)
      (conv1d): Conv1d(102, 102, kernel_size=(4,), stride=(1,), padding=(3,), groups=102)
      (act): SiLU()
      (x_proj): Linear(in_features=102, out_features=36, bias=False)
      (dt_proj): Linear(in_features=4, out_features=102, bias=True)
      (out_proj): Linear(in_features=102, out_features=51, bias=False)
    )
  )
  (batch_norms): ModuleList(
    (0-1): 2 x BatchNorm1d(51, eps=1e-05, momentum=0.1, affine=True, track_running_stats=True)
  )
  (fc): Linear(in_features=51, out_features=12, bias=True)
  (dropout): Dropout(p=0.5, inplace=False)
)
[2024-08-26 14:38:50] 

New training session


[2024-08-26 14:38:50] KeywordSpottingModel(
  (proj): Linear(in_features=40, out_features=51, bias=True)
  (mamba_layers): ModuleList(
    (0-1): 2 x Mamba(
      (in_proj): Linear(in_features=51, out_features=204, bias=False)
      (conv1d): Conv1d(102, 102, kernel_size=(4,), stride=(1,), padding=(3,), groups=102)
      (act): SiLU()
      (x_proj): Linear(in_features=102, out_features=36, bias=False)
      (dt_proj): Linear(in_features=4, out_features=102, bias=True)
      (out_proj): Linear(in_features=102, out_features=51, bias=False)
    )
  )
  (batch_norms): ModuleList(
    (0-1): 2 x BatchNorm1d(51, eps=1e-05, momentum=0.1, affine=True, track_running_stats=True)
  )
  (fc): Linear(in_features=51, out_features=12, bias=True)
  (dropout): Dropout(p=0.5, inplace=False)
)
[2024-08-26 14:39:27] 

New training session


[2024-08-26 14:39:27] KeywordSpottingModel(
  (proj): Linear(in_features=40, out_features=51, bias=True)
  (mamba_layers): ModuleList(
    (0-1): 2 x Mamba(
      (in_proj): Linear(in_features=51, out_features=204, bias=False)
      (conv1d): Conv1d(102, 102, kernel_size=(4,), stride=(1,), padding=(3,), groups=102)
      (act): SiLU()
      (x_proj): Linear(in_features=102, out_features=36, bias=False)
      (dt_proj): Linear(in_features=4, out_features=102, bias=True)
      (out_proj): Linear(in_features=102, out_features=51, bias=False)
    )
  )
  (batch_norms): ModuleList(
    (0-1): 2 x BatchNorm1d(51, eps=1e-05, momentum=0.1, affine=True, track_running_stats=True)
  )
  (fc): Linear(in_features=51, out_features=12, bias=True)
  (dropout): Dropout(p=0.5, inplace=False)
)
[2024-08-26 14:40:01] 

New training session


[2024-08-26 14:40:01] KeywordSpottingModel(
  (proj): Linear(in_features=40, out_features=51, bias=True)
  (mamba_layers): ModuleList(
    (0-1): 2 x Mamba(
      (in_proj): Linear(in_features=51, out_features=204, bias=False)
      (conv1d): Conv1d(102, 102, kernel_size=(4,), stride=(1,), padding=(3,), groups=102)
      (act): SiLU()
      (x_proj): Linear(in_features=102, out_features=36, bias=False)
      (dt_proj): Linear(in_features=4, out_features=102, bias=True)
      (out_proj): Linear(in_features=102, out_features=51, bias=False)
    )
  )
  (batch_norms): ModuleList(
    (0-1): 2 x BatchNorm1d(51, eps=1e-05, momentum=0.1, affine=True, track_running_stats=True)
  )
  (fc): Linear(in_features=51, out_features=12, bias=True)
  (dropout): Dropout(p=0.5, inplace=False)
)
[2024-08-26 14:40:05] Epoch 1/10, Training Loss: 0.5161, Training Accuracy: 84.07%
[2024-08-26 14:40:18] Epoch 1/10, Validation Loss: 0.3801, Validation Accuracy: 88.47%
[2024-08-26 14:40:18] Learning rate after epoch 1: [1e-05]
[2024-08-26 14:40:23] Epoch 2/10, Training Loss: 0.5574, Training Accuracy: 82.81%
…
[2024-08-26 14:42:36] Epoch 9/10, Training Loss: 0.3545, Training Accuracy: 87.09%
[2024-08-26 14:42:50] Epoch 9/10, Validation Loss: 0.3848, Validation Accuracy: 88.58%
[2024-08-26 14:42:50] Learning rate after epoch 9: [1e-05]
[2024-08-26 14:42:55] Epoch 10/10, Training Loss: 0.2748, Training Accuracy: 89.95%
[2024-08-26 14:43:10] Epoch 10/10, Validation Loss: 0.3836, Validation Accuracy: 88.42%
[2024-08-26 14:43:10] Learning rate after epoch 10: [1e-05]
[2024-08-26 14:43:10] Training complete.
[2024-08-26 14:43:52] 

New training session


[2024-08-26 14:43:52] KeywordSpottingModel(
  (proj): Linear(in_features=40, out_features=51, bias=True)
  (mamba_layers): ModuleList(
    (0-1): 2 x Mamba(
      (in_proj): Linear(in_features=51, out_features=204, bias=False)
      (conv1d): Conv1d(102, 102, kernel_size=(4,), stride=(1,), padding=(3,), groups=102)
      (act): SiLU()
      (x_proj): Linear(in_features=102, out_features=36, bias=False)
      (dt_proj): Linear(in_features=4, out_features=102, bias=True)
      (out_proj): Linear(in_features=102, out_features=51, bias=False)
    )
  )
  (batch_norms): ModuleList(
    (0-1): 2 x BatchNorm1d(51, eps=1e-05, momentum=0.1, affine=True, track_running_stats=True)
  )
  (fc): Linear(in_features=51, out_features=12, bias=True)
  (dropout): Dropout(p=0.5, inplace=False)
)
[2024-08-26 14:46:10] Epoch 1/10, Training Loss: 0.0291, Training Accuracy: 99.25%
[2024-08-26 14:46:22] Epoch 1/10, Validation Loss: 0.7017, Validation Accuracy: 83.56%
[2024-08-26 14:46:22] Learning rate after epoch 1: [0.0001]
[2024-08-26 14:48:36] Epoch 2/10, Training Loss: 0.0018, Training Accuracy: 99.97%
[2024-08-26 14:48:50] Epoch 2/10, Validation Loss: 0.8768, Validation Accuracy: 83.03%
[2024-08-26 14:48:50] Learning rate after epoch 2: [0.0001]
[2024-08-26 14:49:10] 

New training session


[2024-08-26 14:49:10] KeywordSpottingModel(
  (proj): Linear(in_features=40, out_features=51, bias=True)
  (mamba_layers): ModuleList(
    (0-1): 2 x Mamba(
      (in_proj): Linear(in_features=51, out_features=204, bias=False)
      (conv1d): Conv1d(102, 102, kernel_size=(4,), stride=(1,), padding=(3,), groups=102)
      (act): SiLU()
      (x_proj): Linear(in_features=102, out_features=36, bias=False)
      (dt_proj): Linear(in_features=4, out_features=102, bias=True)
      (out_proj): Linear(in_features=102, out_features=51, bias=False)
    )
  )
  (batch_norms): ModuleList(
    (0-1): 2 x BatchNorm1d(51, eps=1e-05, momentum=0.1, affine=True, track_running_stats=True)
  )
  (fc): Linear(in_features=51, out_features=12, bias=True)
  (dropout): Dropout(p=0.5, inplace=False)
)
[2024-08-26 14:51:37] Epoch 1/10, Training Loss: 0.4811, Training Accuracy: 84.07%
[2024-08-26 14:51:51] Epoch 1/10, Validation Loss: 0.3772, Validation Accuracy: 88.50%
[2024-08-26 14:51:51] Learning rate after epoch 1: [1e-06]
[2024-08-26 14:53:37] Epoch 2/10, Training Loss: 0.3844, Training Accuracy: 86.21%
[2024-08-26 14:53:43] Epoch 2/10, Validation Loss: 0.3750, Validation Accuracy: 88.77%
[2024-08-26 14:53:43] Learning rate after epoch 2: [1e-06]
[2024-08-26 14:54:59] Epoch 3/10, Training Loss: 0.2907, Training Accuracy: 89.33%
[2024-08-26 14:55:06] Epoch 3/10, Validation Loss: 0.3790, Validation Accuracy: 88.64%
[2024-08-26 14:55:06] Learning rate after epoch 3: [1e-06]
[2024-08-26 14:56:59] 

New training session


[2024-08-26 14:56:59] KeywordSpottingModel(
  (proj): Linear(in_features=40, out_features=51, bias=True)
  (mamba_layers): ModuleList(
    (0-1): 2 x Mamba(
      (in_proj): Linear(in_features=51, out_features=204, bias=False)
      (conv1d): Conv1d(102, 102, kernel_size=(4,), stride=(1,), padding=(3,), groups=102)
      (act): SiLU()
      (x_proj): Linear(in_features=102, out_features=36, bias=False)
      (dt_proj): Linear(in_features=4, out_features=102, bias=True)
      (out_proj): Linear(in_features=102, out_features=51, bias=False)
    )
  )
  (batch_norms): ModuleList(
    (0-1): 2 x BatchNorm1d(51, eps=1e-05, momentum=0.1, affine=True, track_running_stats=True)
  )
  (fc): Linear(in_features=51, out_features=12, bias=True)
  (dropout): Dropout(p=0.5, inplace=False)
)
[2024-08-26 14:58:27] Epoch 1/10, Training Loss: 0.4754, Training Accuracy: 84.13%
[2024-08-26 14:58:40] Epoch 1/10, Validation Loss: 0.3746, Validation Accuracy: 88.62%
[2024-08-26 14:58:40] Learning rate after epoch 1: [1e-06]
[2024-08-26 14:59:21] 

New training session


[2024-08-26 14:59:21] KeywordSpottingModel(
  (proj): Linear(in_features=40, out_features=51, bias=True)
  (mamba_layers): ModuleList(
    (0-1): 2 x Mamba(
      (in_proj): Linear(in_features=51, out_features=204, bias=False)
      (conv1d): Conv1d(102, 102, kernel_size=(4,), stride=(1,), padding=(3,), groups=102)
      (act): SiLU()
      (x_proj): Linear(in_features=102, out_features=36, bias=False)
      (dt_proj): Linear(in_features=4, out_features=102, bias=True)
      (out_proj): Linear(in_features=102, out_features=51, bias=False)
    )
  )
  (batch_norms): ModuleList(
    (0-1): 2 x BatchNorm1d(51, eps=1e-05, momentum=0.1, affine=True, track_running_stats=True)
  )
  (fc): Linear(in_features=51, out_features=12, bias=True)
  (dropout): Dropout(p=0.5, inplace=False)
)
[2024-08-26 15:00:39] Epoch 1/10, Training Loss: 0.2044, Training Accuracy: 93.27%
[2024-08-26 15:00:45] Epoch 1/10, Validation Loss: 0.4427, Validation Accuracy: 87.48%
[2024-08-26 15:00:45] Learning rate after epoch 1: [1e-05]
[2024-08-26 15:02:01] Epoch 2/10, Training Loss: 0.0300, Training Accuracy: 99.70%
[2024-08-26 15:02:08] Epoch 2/10, Validation Loss: 0.4592, Validation Accuracy: 87.08%
[2024-08-26 15:02:08] Learning rate after epoch 2: [1e-05]
[2024-08-26 15:03:18] Epoch 3/10, Training Loss: 0.0119, Training Accuracy: 99.93%
[2024-08-26 15:03:26] Epoch 3/10, Validation Loss: 0.5470, Validation Accuracy: 85.29%
[2024-08-26 15:03:26] Learning rate after epoch 3: [1e-05]
[2024-08-26 15:04:02] 

New training session


[2024-08-26 15:04:02] KeywordSpottingModel(
  (proj): Linear(in_features=40, out_features=51, bias=True)
  (mamba_layers): ModuleList(
    (0-1): 2 x Mamba(
      (in_proj): Linear(in_features=51, out_features=204, bias=False)
      (conv1d): Conv1d(102, 102, kernel_size=(4,), stride=(1,), padding=(3,), groups=102)
      (act): SiLU()
      (x_proj): Linear(in_features=102, out_features=36, bias=False)
      (dt_proj): Linear(in_features=4, out_features=102, bias=True)
      (out_proj): Linear(in_features=102, out_features=51, bias=False)
    )
  )
  (batch_norms): ModuleList(
    (0-1): 2 x BatchNorm1d(51, eps=1e-05, momentum=0.1, affine=True, track_running_stats=True)
  )
  (fc): Linear(in_features=51, out_features=12, bias=True)
  (dropout): Dropout(p=0.5, inplace=False)
)
[2024-08-26 15:06:05] Epoch 1/100, Training Loss: 0.0323, Training Accuracy: 99.43%
[2024-08-26 15:06:18] Epoch 1/100, Validation Loss: 35226.8967, Validation Accuracy: 12.73%
[2024-08-26 15:06:18] Learning rate after epoch 1: [0.0024]
[2024-08-26 15:08:31] Epoch 2/100, Training Loss: 0.0025, Training Accuracy: 99.98%
[2024-08-26 15:08:44] Epoch 2/100, Validation Loss: 547.2771, Validation Accuracy: 11.39%
[2024-08-26 15:08:44] Learning rate after epoch 2: [0.0024]
[2024-08-26 15:09:48] 

New training session


[2024-08-26 15:09:48] KeywordSpottingModel(
  (proj): Linear(in_features=40, out_features=51, bias=True)
  (mamba_layers): ModuleList(
    (0-1): 2 x Mamba(
      (in_proj): Linear(in_features=51, out_features=204, bias=False)
      (conv1d): Conv1d(102, 102, kernel_size=(4,), stride=(1,), padding=(3,), groups=102)
      (act): SiLU()
      (x_proj): Linear(in_features=102, out_features=36, bias=False)
      (dt_proj): Linear(in_features=4, out_features=102, bias=True)
      (out_proj): Linear(in_features=102, out_features=51, bias=False)
    )
  )
  (batch_norms): ModuleList(
    (0-1): 2 x BatchNorm1d(51, eps=1e-05, momentum=0.1, affine=True, track_running_stats=True)
  )
  (fc): Linear(in_features=51, out_features=12, bias=True)
  (dropout): Dropout(p=0.5, inplace=False)
)
[2024-08-26 15:10:10] 

New training session


[2024-08-26 15:10:10] KeywordSpottingModel(
  (proj): Linear(in_features=40, out_features=51, bias=True)
  (mamba_layers): ModuleList(
    (0-1): 2 x Mamba(
      (in_proj): Linear(in_features=51, out_features=204, bias=False)
      (conv1d): Conv1d(102, 102, kernel_size=(4,), stride=(1,), padding=(3,), groups=102)
      (act): SiLU()
      (x_proj): Linear(in_features=102, out_features=36, bias=False)
      (dt_proj): Linear(in_features=4, out_features=102, bias=True)
      (out_proj): Linear(in_features=102, out_features=51, bias=False)
    )
  )
  (batch_norms): ModuleList(
    (0-1): 2 x BatchNorm1d(51, eps=1e-05, momentum=0.1, affine=True, track_running_stats=True)
  )
  (fc): Linear(in_features=51, out_features=12, bias=True)
  (dropout): Dropout(p=0.5, inplace=False)
)
[2024-08-26 15:10:22] 

New training session


[2024-08-26 15:10:22] KeywordSpottingModel(
  (proj): Linear(in_features=40, out_features=51, bias=True)
  (mamba_layers): ModuleList(
    (0-1): 2 x Mamba(
      (in_proj): Linear(in_features=51, out_features=204, bias=False)
      (conv1d): Conv1d(102, 102, kernel_size=(4,), stride=(1,), padding=(3,), groups=102)
      (act): SiLU()
      (x_proj): Linear(in_features=102, out_features=36, bias=False)
      (dt_proj): Linear(in_features=4, out_features=102, bias=True)
      (out_proj): Linear(in_features=102, out_features=51, bias=False)
    )
  )
  (batch_norms): ModuleList(
    (0-1): 2 x BatchNorm1d(51, eps=1e-05, momentum=0.1, affine=True, track_running_stats=True)
  )
  (fc): Linear(in_features=51, out_features=12, bias=True)
  (dropout): Dropout(p=0.5, inplace=False)
)
[2024-08-26 15:10:30] Epoch 1/100, Training Loss: 0.5072, Training Accuracy: 91.88%
[2024-08-26 15:10:45] Epoch 1/100, Validation Loss: 5216.6229, Validation Accuracy: 7.55%
[2024-08-26 15:10:45] Learning rate after epoch 1: [0.0024]
[2024-08-26 15:10:53] Epoch 2/100, Training Loss: 0.0163, Training Accuracy: 100.00%
[2024-08-26 15:11:08] Epoch 2/100, Validation Loss: 8644.5924, Validation Accuracy: 7.21%
[2024-08-26 15:11:08] Learning rate after epoch 2: [0.0024]
[2024-08-26 15:11:29] 

New training session


[2024-08-26 15:11:29] KeywordSpottingModel(
  (proj): Linear(in_features=40, out_features=51, bias=True)
  (mamba_layers): ModuleList(
    (0-1): 2 x Mamba(
      (in_proj): Linear(in_features=51, out_features=204, bias=False)
      (conv1d): Conv1d(102, 102, kernel_size=(4,), stride=(1,), padding=(3,), groups=102)
      (act): SiLU()
      (x_proj): Linear(in_features=102, out_features=36, bias=False)
      (dt_proj): Linear(in_features=4, out_features=102, bias=True)
      (out_proj): Linear(in_features=102, out_features=51, bias=False)
    )
  )
  (batch_norms): ModuleList(
    (0-1): 2 x BatchNorm1d(51, eps=1e-05, momentum=0.1, affine=True, track_running_stats=True)
  )
  (fc): Linear(in_features=51, out_features=12, bias=True)
  (dropout): Dropout(p=0.5, inplace=False)
)
[2024-08-26 15:14:20] Epoch 1/100, Training Loss: 0.0346, Training Accuracy: 99.45%
[2024-08-26 15:14:35] Epoch 1/100, Validation Loss: 21096.0855, Validation Accuracy: 9.96%
[2024-08-26 15:14:35] Learning rate after epoch 1: [0.0024]
[2024-08-26 15:15:06] 

New training session


[2024-08-26 15:15:06] KeywordSpottingModel(
  (proj): Linear(in_features=40, out_features=51, bias=True)
  (mamba_layers): ModuleList(
    (0-1): 2 x Mamba(
      (in_proj): Linear(in_features=51, out_features=204, bias=False)
      (conv1d): Conv1d(102, 102, kernel_size=(4,), stride=(1,), padding=(3,), groups=102)
      (act): SiLU()
      (x_proj): Linear(in_features=102, out_features=36, bias=False)
      (dt_proj): Linear(in_features=4, out_features=102, bias=True)
      (out_proj): Linear(in_features=102, out_features=51, bias=False)
    )
  )
  (batch_norms): ModuleList(
    (0-1): 2 x BatchNorm1d(51, eps=1e-05, momentum=0.1, affine=True, track_running_stats=True)
  )
  (fc): Linear(in_features=51, out_features=12, bias=True)
  (dropout): Dropout(p=0.5, inplace=False)
)
[2024-08-26 15:15:52] 

New training session


[2024-08-26 15:15:52] KeywordSpottingModel(
  (proj): Linear(in_features=40, out_features=51, bias=True)
  (mamba_layers): ModuleList(
    (0-1): 2 x Mamba(
      (in_proj): Linear(in_features=51, out_features=204, bias=False)
      (conv1d): Conv1d(102, 102, kernel_size=(4,), stride=(1,), padding=(3,), groups=102)
      (act): SiLU()
      (x_proj): Linear(in_features=102, out_features=36, bias=False)
      (dt_proj): Linear(in_features=4, out_features=102, bias=True)
      (out_proj): Linear(in_features=102, out_features=51, bias=False)
    )
  )
  (batch_norms): ModuleList(
    (0-1): 2 x BatchNorm1d(51, eps=1e-05, momentum=0.1, affine=True, track_running_stats=True)
  )
  (fc): Linear(in_features=51, out_features=12, bias=True)
  (dropout): Dropout(p=0.5, inplace=False)
)
[2024-08-26 15:16:02] 

New training session


[2024-08-26 15:16:02] KeywordSpottingModel(
  (proj): Linear(in_features=40, out_features=51, bias=True)
  (mamba_layers): ModuleList(
    (0-1): 2 x Mamba(
      (in_proj): Linear(in_features=51, out_features=204, bias=False)
      (conv1d): Conv1d(102, 102, kernel_size=(4,), stride=(1,), padding=(3,), groups=102)
      (act): SiLU()
      (x_proj): Linear(in_features=102, out_features=36, bias=False)
      (dt_proj): Linear(in_features=4, out_features=102, bias=True)
      (out_proj): Linear(in_features=102, out_features=51, bias=False)
    )
  )
  (batch_norms): ModuleList(
    (0-1): 2 x BatchNorm1d(51, eps=1e-05, momentum=0.1, affine=True, track_running_stats=True)
  )
  (fc): Linear(in_features=51, out_features=12, bias=True)
  (dropout): Dropout(p=0.5, inplace=False)
)
[2024-08-26 15:17:00] 

New training session


[2024-08-26 15:17:00] KeywordSpottingModel(
  (proj): Linear(in_features=40, out_features=51, bias=True)
  (mamba_layers): ModuleList(
    (0-1): 2 x Mamba(
      (in_proj): Linear(in_features=51, out_features=204, bias=False)
      (conv1d): Conv1d(102, 102, kernel_size=(4,), stride=(1,), padding=(3,), groups=102)
      (act): SiLU()
      (x_proj): Linear(in_features=102, out_features=36, bias=False)
      (dt_proj): Linear(in_features=4, out_features=102, bias=True)
      (out_proj): Linear(in_features=102, out_features=51, bias=False)
    )
  )
  (batch_norms): ModuleList(
    (0-1): 2 x BatchNorm1d(51, eps=1e-05, momentum=0.1, affine=True, track_running_stats=True)
  )
  (fc): Linear(in_features=51, out_features=12, bias=True)
  (dropout): Dropout(p=0.5, inplace=False)
)
[2024-08-26 15:19:21] Epoch 1/100, Training Loss: 1.0144, Training Accuracy: 70.53%
[2024-08-26 15:19:35] Epoch 1/100, Validation Loss: 0.7055, Validation Accuracy: 78.91%
[2024-08-26 15:19:35] Learning rate after epoch 1: [0.0024]
[2024-08-26 15:21:57] Epoch 2/100, Training Loss: 0.6496, Training Accuracy: 79.84%
…
