…
[2024-08-09 17:21:35] Epoch 20/50, Training Loss: 0.2785, Training Accuracy: 91.33%
[2024-08-09 17:21:49] Epoch 20/50, Validation Loss: 0.2921, Validation Accuracy: 91.38%
[2024-08-09 17:23:54] Epoch 21/50, Training Loss: 0.2612, Training Accuracy: 91.91%
[2024-08-09 17:24:08] Epoch 21/50, Validation Loss: 0.2772, Validation Accuracy: 91.76%
[2024-08-09 17:26:08] Epoch 22/50, Training Loss: 0.2562, Training Accuracy: 91.98%
[2024-08-09 17:26:21] Epoch 22/50, Validation Loss: 0.2810, Validation Accuracy: 91.52%
[2024-08-09 17:31:21] New training session
[2024-08-09 17:31:21] KeywordSpottingModel(
  (proj): Linear(in_features=13, out_features=101, bias=True)
  (mamba): Mamba(
    (in_proj): Linear(in_features=101, out_features=404, bias=False)
    (conv1d): Conv1d(202, 202, kernel_size=(4,), stride=(1,), padding=(3,), groups=202)
    (act): SiLU()
    (x_proj): Linear(in_features=202, out_features=39, bias=False)
    (dt_proj): Linear(in_features=7, out_features=202, bias=True)
    (out_proj): Linear(in_features=202, out_features=101, bias=False)
  )
  (fc): Linear(in_features=101, out_features=12, bias=True)
)
[2024-08-09 17:35:41] New training session
[2024-08-09 17:35:41] KeywordSpottingModel(
  (proj): Linear(in_features=13, out_features=101, bias=True)
  (mamba): Mamba(
    (in_proj): Linear(in_features=101, out_features=404, bias=False)
    (conv1d): Conv1d(202, 202, kernel_size=(4,), stride=(1,), padding=(3,), groups=202)
    (act): SiLU()
    (x_proj): Linear(in_features=202, out_features=39, bias=False)
    (dt_proj): Linear(in_features=7, out_features=202, bias=True)
    (out_proj): Linear(in_features=202, out_features=101, bias=False)
  )
  (fc): Linear(in_features=101, out_features=12, bias=True)
)
[2024-08-09 17:39:16] Epoch 1/50, Training Loss: 7.7406, Training Accuracy: 60.28%
[2024-08-09 17:39:27] Epoch 1/50, Validation Loss: 1.2317, Validation Accuracy: 64.42%
[2024-08-09 17:42:06] Epoch 2/50, Training Loss: 0.9384, Training Accuracy: 71.14%
[2024-08-09 17:42:17] Epoch 2/50, Validation Loss: 0.7079, Validation Accuracy: 76.81%
[2024-08-09 17:44:57] Epoch 3/50, Training Loss: 0.6427, Training Accuracy: 79.55%
…
[2024-08-09 18:54:53] Epoch 23/50, Validation Loss: 0.3223, Validation Accuracy: 90.71%
[2024-08-09 18:57:33] Epoch 24/50, Training Loss: 0.2542, Training Accuracy: 91.98%
[2024-08-09 18:57:43] Epoch 24/50, Validation Loss: 0.3238, Validation Accuracy: 90.51%
[2024-08-09 19:00:24] Epoch 25/50, Training Loss: 0.2531, Training Accuracy: 92.10%
[2024-08-09 19:00:36] Epoch 25/50, Validation Loss: 0.3218, Validation Accuracy: 90.64%
[2024-08-09 19:03:17] Epoch 26/50, Training Loss: 0.2514, Training Accuracy: 92.03%
[2024-08-09 19:03:28] Training complete.
[2024-08-09 19:58:57] New training session
[2024-08-09 19:58:57] KeywordSpottingModel(
  (proj): Linear(in_features=13, out_features=101, bias=True)
  (mamba): Mamba(
    (in_proj): Linear(in_features=101, out_features=404, bias=False)
    (conv1d): Conv1d(202, 202, kernel_size=(4,), stride=(1,), padding=(3,), groups=202)
    (act): SiLU()
    (x_proj): Linear(in_features=202, out_features=39, bias=False)
    (dt_proj): Linear(in_features=7, out_features=202, bias=True)
    (out_proj): Linear(in_features=202, out_features=101, bias=False)
  )
  (fc): Linear(in_features=101, out_features=12, bias=True)
  (dropout): Dropout(p=0.3, inplace=False)
)
[2024-08-09 20:02:31] Epoch 1/50, Training Loss: 19.6589, Training Accuracy: 54.53%
[2024-08-09 20:02:48] Epoch 1/50, Validation Loss: 1.4244, Validation Accuracy: 63.27%
[2024-08-09 20:06:20] Epoch 2/50, Training Loss: 1.2154, Training Accuracy: 65.86%
[2024-08-09 20:06:37] Epoch 2/50, Validation Loss: 0.8718, Validation Accuracy: 72.04%
…
[2024-08-09 22:09:08] Epoch 40/50, Validation Loss: 0.2968, Validation Accuracy: 91.24%
[2024-08-09 22:11:49] Epoch 41/50, Training Loss: 0.2767, Training Accuracy: 91.27%
[2024-08-09 22:12:00] Epoch 41/50, Validation Loss: 0.2892, Validation Accuracy: 91.51%
[2024-08-09 22:14:43] Epoch 42/50, Training Loss: 0.2791, Training Accuracy: 91.37%
[2024-08-09 22:14:54] Epoch 42/50, Validation Loss: 0.2890, Validation Accuracy: 91.29%
[2024-08-09 22:17:36] Epoch 43/50, Training Loss: 0.2779, Training Accuracy: 91.38%
[2024-08-09 22:17:47] Training complete.
[2024-08-10 09:35:05] New training session
[2024-08-10 09:35:05] KeywordSpottingModel(
  (proj): Linear(in_features=13, out_features=101, bias=True)
  (mamba): Mamba(
    (in_proj): Linear(in_features=101, out_features=404, bias=False)
    (conv1d): Conv1d(202, 202, kernel_size=(4,), stride=(1,), padding=(3,), groups=202)
    (act): SiLU()
    (x_proj): Linear(in_features=202, out_features=39, bias=False)
    (dt_proj): Linear(in_features=7, out_features=202, bias=True)
    (out_proj): Linear(in_features=202, out_features=101, bias=False)
  )
  (mamba2): Mamba(
    (in_proj): Linear(in_features=202, out_features=1616, bias=False)
    (conv1d): Conv1d(808, 808, kernel_size=(8,), stride=(1,), padding=(7,), groups=808)
    (act): SiLU()
    (x_proj): Linear(in_features=808, out_features=77, bias=False)
    (dt_proj): Linear(in_features=13, out_features=808, bias=True)
    (out_proj): Linear(in_features=808, out_features=202, bias=False)
  )
  (fc): Linear(in_features=101, out_features=12, bias=True)
  (dropout): Dropout(p=0.3, inplace=False)
)
[2024-08-10 09:35:51] New training session
[2024-08-10 09:35:51] KeywordSpottingModel(
  (proj): Linear(in_features=13, out_features=101, bias=True)
  (mamba): Mamba(
    (in_proj): Linear(in_features=101, out_features=404, bias=False)
    (conv1d): Conv1d(202, 202, kernel_size=(4,), stride=(1,), padding=(3,), groups=202)
    (act): SiLU()
    (x_proj): Linear(in_features=202, out_features=39, bias=False)
    (dt_proj): Linear(in_features=7, out_features=202, bias=True)
    (out_proj): Linear(in_features=202, out_features=101, bias=False)
  )
  (mamba2): Mamba(
    (in_proj): Linear(in_features=101, out_features=808, bias=False)
    (conv1d): Conv1d(404, 404, kernel_size=(4,), stride=(1,), padding=(3,), groups=404)
    (act): SiLU()
    (x_proj): Linear(in_features=404, out_features=39, bias=False)
    (dt_proj): Linear(in_features=7, out_features=404, bias=True)
    (out_proj): Linear(in_features=404, out_features=101, bias=False)
  )
  (fc): Linear(in_features=101, out_features=12, bias=True)
  (dropout): Dropout(p=0.3, inplace=False)
)
[2024-08-10 09:36:44] New training session
[2024-08-10 09:36:44] KeywordSpottingModel(
  (proj): Linear(in_features=13, out_features=101, bias=True)
  (mamba): Mamba(
    (in_proj): Linear(in_features=101, out_features=404, bias=False)
    (conv1d): Conv1d(202, 202, kernel_size=(4,), stride=(1,), padding=(3,), groups=202)
    (act): SiLU()
    (x_proj): Linear(in_features=202, out_features=39, bias=False)
    (dt_proj): Linear(in_features=7, out_features=202, bias=True)
    (out_proj): Linear(in_features=202, out_features=101, bias=False)
  )
  (mamba2): Mamba(
    (in_proj): Linear(in_features=101, out_features=808, bias=False)
    (conv1d): Conv1d(404, 404, kernel_size=(4,), stride=(1,), padding=(3,), groups=404)
    (act): SiLU()
    (x_proj): Linear(in_features=404, out_features=39, bias=False)
    (dt_proj): Linear(in_features=7, out_features=404, bias=True)
    (out_proj): Linear(in_features=404, out_features=101, bias=False)
  )
  (fc): Linear(in_features=101, out_features=12, bias=True)
  (dropout): Dropout(p=0.3, inplace=False)
)
[2024-08-10 09:39:57] Epoch 1/50, Training Loss: 7180141852624094077386752.0000, Training Accuracy: 6.05%
[2024-08-10 09:40:14] Epoch 1/50, Validation Loss: 12718400617905103701016576.0000, Validation Accuracy: 6.37%
[2024-08-10 09:43:27] Epoch 2/50, Training Loss: 6200177145810111302729728.0000, Training Accuracy: 6.02%
[2024-08-10 09:48:15] New training session
[2024-08-10 09:48:15] KeywordSpottingModel(
  (proj): Linear(in_features=13, out_features=101, bias=True)
  (mamba): Mamba(
    (in_proj): Linear(in_features=101, out_features=404, bias=False)
    (conv1d): Conv1d(202, 202, kernel_size=(4,), stride=(1,), padding=(3,), groups=202)
    (act): SiLU()
    (x_proj): Linear(in_features=202, out_features=39, bias=False)
    (dt_proj): Linear(in_features=7, out_features=202, bias=True)
    (out_proj): Linear(in_features=202, out_features=101, bias=False)
  )
  (mamba2): Mamba(
    (in_proj): Linear(in_features=101, out_features=808, bias=False)
    (conv1d): Conv1d(404, 404, kernel_size=(4,), stride=(1,), padding=(3,), groups=404)
    (act): SiLU()
    (x_proj): Linear(in_features=404, out_features=39, bias=False)
    (dt_proj): Linear(in_features=7, out_features=404, bias=True)
    (out_proj): Linear(in_features=404, out_features=101, bias=False)
  )
  (fc): Linear(in_features=101, out_features=12, bias=True)
  (dropout): Dropout(p=0.3, inplace=False)
)
[2024-08-10 09:51:48] Epoch 1/50, Training Loss: 5.1019, Training Accuracy: 60.58%
[2024-08-10 14:03:48] New training session
[2024-08-10 14:03:48] KeywordSpottingModel(
  (proj): Linear(in_features=13, out_features=101, bias=True)
  (mamba): Mamba(
    (in_proj): Linear(in_features=101, out_features=404, bias=False)
    (conv1d): Conv1d(202, 202, kernel_size=(4,), stride=(1,), padding=(3,), groups=202)
    (act): SiLU()
    (x_proj): Linear(in_features=202, out_features=39, bias=False)
    (dt_proj): Linear(in_features=7, out_features=202, bias=True)
    (out_proj): Linear(in_features=202, out_features=101, bias=False)
  )
  (mamba2): Mamba(
    (in_proj): Linear(in_features=101, out_features=808, bias=False)
    (conv1d): Conv1d(404, 404, kernel_size=(4,), stride=(1,), padding=(3,), groups=404)
    (act): SiLU()
    (x_proj): Linear(in_features=404, out_features=39, bias=False)
    (dt_proj): Linear(in_features=7, out_features=404, bias=True)
    (out_proj): Linear(in_features=404, out_features=101, bias=False)
  )
  (fc): Linear(in_features=101, out_features=12, bias=True)
  (dropout): Dropout(p=0.3, inplace=False)
)
[2024-08-10 14:05:38] New training session
[2024-08-10 14:05:38] KeywordSpottingModel(
  (proj): Linear(in_features=13, out_features=101, bias=True)
  (mamba): Mamba(
    (in_proj): Linear(in_features=101, out_features=404, bias=False)
    (conv1d): Conv1d(202, 202, kernel_size=(4,), stride=(1,), padding=(3,), groups=202)
    (act): SiLU()
    (x_proj): Linear(in_features=202, out_features=39, bias=False)
    (dt_proj): Linear(in_features=7, out_features=202, bias=True)
    (out_proj): Linear(in_features=202, out_features=101, bias=False)
  )
  (fc): Linear(in_features=101, out_features=12, bias=True)
  (dropout): Dropout(p=0.3, inplace=False)
)
[2024-08-10 14:06:14] New training session
[2024-08-10 14:06:14] KeywordSpottingModel(
  (proj): Linear(in_features=13, out_features=101, bias=True)
  (mamba): Mamba(
    (in_proj): Linear(in_features=101, out_features=404, bias=False)
    (conv1d): Conv1d(202, 202, kernel_size=(4,), stride=(1,), padding=(3,), groups=202)
    (act): SiLU()
    (x_proj): Linear(in_features=202, out_features=39, bias=False)
    (dt_proj): Linear(in_features=7, out_features=202, bias=True)
    (out_proj): Linear(in_features=202, out_features=101, bias=False)
  )
  (fc): Linear(in_features=101, out_features=12, bias=True)
  (dropout): Dropout(p=0.5, inplace=False)
)
[2024-08-10 14:09:42] Epoch 1/50, Training Loss: 10.9751, Training Accuracy: 55.65%
[2024-08-10 17:51:09] 

New training session


[2024-08-10 17:51:09] KeywordSpottingModel(
  (proj): Linear(in_features=13, out_features=101, bias=True)
  (mamba): Mamba(
    (in_proj): Linear(in_features=101, out_features=404, bias=False)
    (conv1d): Conv1d(202, 202, kernel_size=(4,), stride=(1,), padding=(3,), groups=202)
    (act): SiLU()
    (x_proj): Linear(in_features=202, out_features=39, bias=False)
    (dt_proj): Linear(in_features=7, out_features=202, bias=True)
    (out_proj): Linear(in_features=202, out_features=101, bias=False)
  )
  (fc): Linear(in_features=101, out_features=12, bias=True)
  (dropout): Dropout(p=0.5, inplace=False)
)
[2024-08-10 17:54:24] Epoch 1/50, Training Loss: 9.1967, Training Accuracy: 56.57%
[2024-08-10 17:54:40] Epoch 1/50, Validation Loss: 1.3627, Validation Accuracy: 63.37%
[2024-08-10 17:57:10] Epoch 2/50, Training Loss: 1.1304, Training Accuracy: 67.43%
[2024-08-10 17:57:21] Epoch 2/50, Validation Loss: 0.8194, Validation Accuracy: 73.66%
…
[2024-08-11 17:57:20] Epoch 39/50, Validation Loss: 0.2306, Validation Accuracy: 93.43%
[2024-08-11 18:00:58] Epoch 40/50, Training Loss: 0.1765, Training Accuracy: 94.50%
[2024-08-11 18:01:10] Epoch 40/50, Validation Loss: 0.2327, Validation Accuracy: 93.20%
[2024-08-11 18:03:57] Epoch 41/50, Training Loss: 0.1740, Training Accuracy: 94.54%
[2024-08-11 18:04:09] Epoch 41/50, Validation Loss: 0.2383, Validation Accuracy: 93.31%
[2024-08-11 18:07:19] Epoch 42/50, Training Loss: 0.1702, Training Accuracy: 94.61%
[2024-08-11 18:07:36] Training complete.
[2024-08-11 21:55:45] 

New training session


[2024-08-11 21:55:45] KeywordSpottingModel(
  (proj): Linear(in_features=13, out_features=101, bias=True)
  (mamba): Mamba(
    (in_proj): Linear(in_features=101, out_features=404, bias=False)
    (conv1d): Conv1d(202, 202, kernel_size=(4,), stride=(1,), padding=(3,), groups=202)
    (act): SiLU()
    (x_proj): Linear(in_features=202, out_features=39, bias=False)
    (dt_proj): Linear(in_features=7, out_features=202, bias=True)
    (out_proj): Linear(in_features=202, out_features=101, bias=False)
  )
  (fc): Linear(in_features=101, out_features=12, bias=True)
  (dropout): Dropout(p=0.5, inplace=False)
)
[2024-08-11 21:57:10] 

New training session


[2024-08-11 21:57:10] KeywordSpottingModel(
  (proj): Linear(in_features=13, out_features=101, bias=True)
  (mamba): Mamba(
    (in_proj): Linear(in_features=101, out_features=404, bias=False)
    (conv1d): Conv1d(202, 202, kernel_size=(4,), stride=(1,), padding=(3,), groups=202)
    (act): SiLU()
    (x_proj): Linear(in_features=202, out_features=39, bias=False)
    (dt_proj): Linear(in_features=7, out_features=202, bias=True)
    (out_proj): Linear(in_features=202, out_features=101, bias=False)
  )
  (fc): Linear(in_features=101, out_features=12, bias=True)
  (dropout): Dropout(p=0.5, inplace=False)
)
[2024-08-11 21:58:20] 

New training session


[2024-08-11 21:58:20] KeywordSpottingModel(
  (proj): Linear(in_features=13, out_features=101, bias=True)
  (mamba): Mamba(
    (in_proj): Linear(in_features=101, out_features=404, bias=False)
    (conv1d): Conv1d(202, 202, kernel_size=(4,), stride=(1,), padding=(3,), groups=202)
    (act): SiLU()
    (x_proj): Linear(in_features=202, out_features=39, bias=False)
    (dt_proj): Linear(in_features=7, out_features=202, bias=True)
    (out_proj): Linear(in_features=202, out_features=101, bias=False)
  )
  (fc): Linear(in_features=101, out_features=12, bias=True)
  (dropout): Dropout(p=0.5, inplace=False)
)
[2024-08-11 21:58:25] 

New training session


[2024-08-11 21:58:25] KeywordSpottingModel(
  (proj): Linear(in_features=13, out_features=101, bias=True)
  (mamba): Mamba(
    (in_proj): Linear(in_features=101, out_features=404, bias=False)
    (conv1d): Conv1d(202, 202, kernel_size=(4,), stride=(1,), padding=(3,), groups=202)
    (act): SiLU()
    (x_proj): Linear(in_features=202, out_features=39, bias=False)
    (dt_proj): Linear(in_features=7, out_features=202, bias=True)
    (out_proj): Linear(in_features=202, out_features=101, bias=False)
  )
  (fc): Linear(in_features=101, out_features=12, bias=True)
  (dropout): Dropout(p=0.5, inplace=False)
)
[2024-08-11 21:59:46] 

New training session


[2024-08-11 21:59:46] KeywordSpottingModel(
  (proj): Linear(in_features=13, out_features=101, bias=True)
  (mamba): Mamba(
    (in_proj): Linear(in_features=101, out_features=404, bias=False)
    (conv1d): Conv1d(202, 202, kernel_size=(4,), stride=(1,), padding=(3,), groups=202)
    (act): SiLU()
    (x_proj): Linear(in_features=202, out_features=39, bias=False)
    (dt_proj): Linear(in_features=7, out_features=202, bias=True)
    (out_proj): Linear(in_features=202, out_features=101, bias=False)
  )
  (fc): Linear(in_features=101, out_features=12, bias=True)
  (dropout): Dropout(p=0.5, inplace=False)
)
[2024-08-11 22:01:26] 

New training session


[2024-08-11 22:01:26] KeywordSpottingModel(
  (proj): Linear(in_features=13, out_features=101, bias=True)
  (mamba): Mamba(
    (in_proj): Linear(in_features=101, out_features=404, bias=False)
    (conv1d): Conv1d(202, 202, kernel_size=(4,), stride=(1,), padding=(3,), groups=202)
    (act): SiLU()
    (x_proj): Linear(in_features=202, out_features=39, bias=False)
    (dt_proj): Linear(in_features=7, out_features=202, bias=True)
    (out_proj): Linear(in_features=202, out_features=101, bias=False)
  )
  (fc): Linear(in_features=101, out_features=12, bias=True)
  (dropout): Dropout(p=0.5, inplace=False)
)
[2024-08-11 22:03:55] 

New training session


[2024-08-11 22:03:55] KeywordSpottingModel(
  (proj): Linear(in_features=13, out_features=101, bias=True)
  (mamba): Mamba(
    (in_proj): Linear(in_features=101, out_features=404, bias=False)
    (conv1d): Conv1d(202, 202, kernel_size=(4,), stride=(1,), padding=(3,), groups=202)
    (act): SiLU()
    (x_proj): Linear(in_features=202, out_features=39, bias=False)
    (dt_proj): Linear(in_features=7, out_features=202, bias=True)
    (out_proj): Linear(in_features=202, out_features=101, bias=False)
  )
  (fc): Linear(in_features=101, out_features=12, bias=True)
  (dropout): Dropout(p=0.5, inplace=False)
)
[2024-08-11 22:07:17] Epoch 1/50, Training Loss: 55.7434, Training Accuracy: 42.04%
[2024-08-11 22:07:35] Epoch 1/50, Validation Loss: 2.0875, Validation Accuracy: 60.21%
[2024-08-11 22:10:57] Epoch 2/50, Training Loss: 2.2967, Training Accuracy: 53.11%
[2024-08-11 22:11:14] Epoch 2/50, Validation Loss: 1.5820, Validation Accuracy: 61.61%
…
