[2024-08-14 14:16:22] 

New training session


[2024-08-14 14:16:22] KeywordSpottingModel_witch_cls(
  (proj): Linear(in_features=16, out_features=101, bias=True)
  (mamba): Mamba(
    (in_proj): Linear(in_features=101, out_features=404, bias=False)
    (conv1d): Conv1d(202, 202, kernel_size=(4,), stride=(1,), padding=(3,), groups=202)
    (act): SiLU()
    (x_proj): Linear(in_features=202, out_features=39, bias=False)
    (dt_proj): Linear(in_features=7, out_features=202, bias=True)
    (out_proj): Linear(in_features=202, out_features=101, bias=False)
  )
  (fc): Linear(in_features=101, out_features=12, bias=True)
  (dropout): Dropout(p=0.5, inplace=False)
)
[2024-08-14 14:16:39] 

New training session


[2024-08-14 14:16:39] KeywordSpottingModel_witch_cls(
  (proj): Linear(in_features=13, out_features=101, bias=True)
  (mamba): Mamba(
    (in_proj): Linear(in_features=101, out_features=404, bias=False)
    (conv1d): Conv1d(202, 202, kernel_size=(4,), stride=(1,), padding=(3,), groups=202)
    (act): SiLU()
    (x_proj): Linear(in_features=202, out_features=39, bias=False)
    (dt_proj): Linear(in_features=7, out_features=202, bias=True)
    (out_proj): Linear(in_features=202, out_features=101, bias=False)
  )
  (fc): Linear(in_features=101, out_features=12, bias=True)
  (dropout): Dropout(p=0.5, inplace=False)
)
[2024-08-14 14:17:04] 

New training session


[2024-08-14 14:17:04] KeywordSpottingModel_witch_cls(
  (proj): Linear(in_features=13, out_features=102, bias=True)
  (mamba): Mamba(
    (in_proj): Linear(in_features=102, out_features=408, bias=False)
    (conv1d): Conv1d(204, 204, kernel_size=(4,), stride=(1,), padding=(3,), groups=204)
    (act): SiLU()
    (x_proj): Linear(in_features=204, out_features=39, bias=False)
    (dt_proj): Linear(in_features=7, out_features=204, bias=True)
    (out_proj): Linear(in_features=204, out_features=102, bias=False)
  )
  (fc): Linear(in_features=102, out_features=12, bias=True)
  (dropout): Dropout(p=0.5, inplace=False)
)
[2024-08-14 14:19:36] Epoch 1/70, Training Loss: 7.3819, Training Accuracy: 59.79%
[2024-08-14 14:19:54] Epoch 1/70, Validation Loss: 1.5402, Validation Accuracy: 61.86%
[2024-08-14 14:22:24] Epoch 2/70, Training Loss: 525.6595, Training Accuracy: 57.46%
[2024-08-14 14:22:40] Epoch 2/70, Validation Loss: 1.6010, Validation Accuracy: 61.87%
…
