[2024-08-23 15:42:03] 

New training session


[2024-08-23 15:42:03] KeywordSpottingModel_with_cls(
  (proj): Linear(in_features=13, out_features=102, bias=True)
  (mamba_layers): ModuleList(
    (0): Mamba(
      (in_proj): Linear(in_features=102, out_features=408, bias=False)
      (conv1d): Conv1d(204, 204, kernel_size=(32,), stride=(1,), padding=(31,), groups=204)
      (act): SiLU()
      (x_proj): Linear(in_features=204, out_features=39, bias=False)
      (dt_proj): Linear(in_features=7, out_features=204, bias=True)
      (out_proj): Linear(in_features=204, out_features=102, bias=False)
    )
  )
  (batch_norms): ModuleList(
    (0): BatchNorm1d(102, eps=1e-05, momentum=0.1, affine=True, track_running_stats=True)
  )
  (fc): Linear(in_features=102, out_features=12, bias=True)
  (dropout): Dropout(p=0.5, inplace=False)
)
[2024-08-23 15:44:55] Epoch 1/100, Training Loss: 1.3468, Training Accuracy: 40.30%
[2024-08-23 15:45:16] Epoch 1/100, Validation Loss: 1.5761, Validation Accuracy: 33.19%
[2024-08-23 15:48:01] Epoch 2/100, Training Loss: 1.6751, Training Accuracy: 27.21%
[2024-08-23 15:48:14] Epoch 2/100, Validation Loss: 2.1808, Validation Accuracy: 11.93%
[2024-08-23 15:50:28] Epoch 3/100, Training Loss: 2.2196, Training Accuracy: 11.40%
[2024-08-23 15:50:41] Epoch 3/100, Validation Loss: 2.5964, Validation Accuracy: 3.46%
[2024-08-23 15:52:40] 

New training session


[2024-08-23 15:52:40] KeywordSpottingModel_with_cls(
  (proj): Linear(in_features=13, out_features=102, bias=True)
  (mamba_layers): ModuleList(
    (0): Mamba(
      (in_proj): Linear(in_features=102, out_features=408, bias=False)
      (conv1d): Conv1d(204, 204, kernel_size=(4,), stride=(1,), padding=(3,), groups=204)
      (act): SiLU()
      (x_proj): Linear(in_features=204, out_features=39, bias=False)
      (dt_proj): Linear(in_features=7, out_features=204, bias=True)
      (out_proj): Linear(in_features=204, out_features=102, bias=False)
    )
  )
  (batch_norms): ModuleList(
    (0): BatchNorm1d(102, eps=1e-05, momentum=0.1, affine=True, track_running_stats=True)
  )
  (fc): Linear(in_features=102, out_features=12, bias=True)
  (dropout): Dropout(p=0.5, inplace=False)
)
[2024-08-23 15:52:57] 

New training session


[2024-08-23 15:52:57] KeywordSpottingModel_with_cls(
  (proj): Linear(in_features=13, out_features=102, bias=True)
  (mamba_layers): ModuleList(
    (0): Mamba(
      (in_proj): Linear(in_features=102, out_features=408, bias=False)
      (conv1d): Conv1d(204, 204, kernel_size=(4,), stride=(1,), padding=(3,), groups=204)
      (act): SiLU()
      (x_proj): Linear(in_features=204, out_features=39, bias=False)
      (dt_proj): Linear(in_features=7, out_features=204, bias=True)
      (out_proj): Linear(in_features=204, out_features=102, bias=False)
    )
  )
  (batch_norms): ModuleList(
    (0): BatchNorm1d(102, eps=1e-05, momentum=0.1, affine=True, track_running_stats=True)
  )
  (fc): Linear(in_features=102, out_features=12, bias=True)
  (dropout): Dropout(p=0.5, inplace=False)
)
[2024-08-23 15:55:27] Epoch 1/100, Training Loss: 1.1696, Training Accuracy: 46.28%
[2024-08-23 15:55:39] Epoch 1/100, Validation Loss: 1.7167, Validation Accuracy: 57.68%
[2024-08-23 15:57:53] Epoch 2/100, Training Loss: 1.9092, Training Accuracy: 25.00%
[2024-08-23 15:58:06] Epoch 2/100, Validation Loss: 2.5023, Validation Accuracy: 3.46%
…
[2024-08-23 16:00:39] Epoch 3/100, Validation Loss: 2.4967, Validation Accuracy: 3.59%
[2024-08-23 16:03:02] Epoch 4/100, Training Loss: 2.4782, Training Accuracy: 14.59%
[2024-08-23 16:03:15] Epoch 4/100, Validation Loss: 2.4953, Validation Accuracy: 3.93%
[2024-08-23 16:05:06] Epoch 5/100, Training Loss: 2.4846, Training Accuracy: 16.76%
[2024-08-23 16:05:18] Epoch 5/100, Validation Loss: 2.4945, Validation Accuracy: 3.93%
[2024-08-23 16:07:32] Epoch 6/100, Training Loss: 2.4840, Training Accuracy: 58.49%
[2024-08-23 16:07:47] Training complete.
[2024-08-29 07:57:16] 

New training session


[2024-08-29 07:57:16] KeywordSpottingModel_with_cls(
  (proj): Linear(in_features=39, out_features=51, bias=True)
  (mamba_layers): ModuleList(
    (0): Mamba(
      (in_proj): Linear(in_features=51, out_features=204, bias=False)
      (conv1d): Conv1d(102, 102, kernel_size=(32,), stride=(1,), padding=(31,), groups=102)
      (act): SiLU()
      (x_proj): Linear(in_features=102, out_features=36, bias=False)
      (dt_proj): Linear(in_features=4, out_features=102, bias=True)
      (out_proj): Linear(in_features=102, out_features=51, bias=False)
    )
  )
  (batch_norms): ModuleList(
    (0): BatchNorm1d(51, eps=1e-05, momentum=0.1, affine=True, track_running_stats=True)
  )
  (fc): Linear(in_features=51, out_features=12, bias=True)
  (dropout): Dropout(p=0.5, inplace=False)
)
[2024-08-29 07:57:32] 

New training session


[2024-08-29 07:57:32] KeywordSpottingModel_with_cls(
  (proj): Linear(in_features=39, out_features=52, bias=True)
  (mamba_layers): ModuleList(
    (0): Mamba(
      (in_proj): Linear(in_features=52, out_features=208, bias=False)
      (conv1d): Conv1d(104, 104, kernel_size=(32,), stride=(1,), padding=(31,), groups=104)
      (act): SiLU()
      (x_proj): Linear(in_features=104, out_features=36, bias=False)
      (dt_proj): Linear(in_features=4, out_features=104, bias=True)
      (out_proj): Linear(in_features=104, out_features=52, bias=False)
    )
  )
  (batch_norms): ModuleList(
    (0): BatchNorm1d(52, eps=1e-05, momentum=0.1, affine=True, track_running_stats=True)
  )
  (fc): Linear(in_features=52, out_features=12, bias=True)
  (dropout): Dropout(p=0.5, inplace=False)
)
[2024-08-29 08:00:07] 

New training session


[2024-08-29 08:00:07] KeywordSpottingModel_with_cls(
  (proj): Linear(in_features=39, out_features=52, bias=True)
  (mamba_layers): ModuleList(
    (0): Mamba(
      (in_proj): Linear(in_features=52, out_features=208, bias=False)
      (conv1d): Conv1d(104, 104, kernel_size=(32,), stride=(1,), padding=(31,), groups=104)
      (act): SiLU()
      (x_proj): Linear(in_features=104, out_features=36, bias=False)
      (dt_proj): Linear(in_features=4, out_features=104, bias=True)
      (out_proj): Linear(in_features=104, out_features=52, bias=False)
    )
  )
  (layer_norms): ModuleList(
    (0): RMSNorm((52,), eps=None, elementwise_affine=True)
  )
  (fc): Linear(in_features=52, out_features=12, bias=True)
  (dropout): Dropout(p=0.2, inplace=False)
)
[2024-08-29 08:00:48] Epoch 1/100, Training Loss: 1.2608, Training Accuracy: 54.94%
[2024-08-29 08:00:52] Epoch 1/100, Validation Loss: 0.6516, Validation Accuracy: 77.91%
[2024-08-29 08:01:31] Epoch 2/100, Training Loss: 0.6841, Training Accuracy: 76.68%
[2024-08-29 08:01:35] Epoch 2/100, Validation Loss: 0.5297, Validation Accuracy: 81.77%
[2024-08-29 08:02:15] Epoch 3/100, Training Loss: 1.1603, Training Accuracy: 59.23%
[2024-08-29 08:02:19] Epoch 3/100, Validation Loss: 0.9648, Validation Accuracy: 66.89%
[2024-08-29 08:02:56] Epoch 4/100, Training Loss: 1.2611, Training Accuracy: 55.70%
[2024-08-29 08:03:00] Epoch 4/100, Validation Loss: 1.8301, Validation Accuracy: 32.81%
[2024-08-29 08:03:36] Epoch 5/100, Training Loss: 2.1939, Training Accuracy: 16.25%
[2024-08-29 08:03:41] Epoch 5/100, Validation Loss: 2.1752, Validation Accuracy: 17.23%
[2024-08-29 08:04:11] 

New training session


[2024-08-29 08:04:11] KeywordSpottingModel_with_cls(
  (proj): Linear(in_features=39, out_features=52, bias=True)
  (mamba_layers): ModuleList(
    (0): Mamba(
      (in_proj): Linear(in_features=52, out_features=208, bias=False)
      (conv1d): Conv1d(104, 104, kernel_size=(32,), stride=(1,), padding=(31,), groups=104)
      (act): SiLU()
      (x_proj): Linear(in_features=104, out_features=36, bias=False)
      (dt_proj): Linear(in_features=4, out_features=104, bias=True)
      (out_proj): Linear(in_features=104, out_features=52, bias=False)
    )
  )
  (layer_norms): ModuleList(
    (0): RMSNorm((52,), eps=None, elementwise_affine=True)
  )
  (fc): Linear(in_features=52, out_features=12, bias=True)
  (dropout): Dropout(p=0.2, inplace=False)
)
[2024-08-29 08:04:52] Epoch 1/100, Training Loss: 1.1915, Training Accuracy: 57.43%
[2024-08-29 08:04:56] Epoch 1/100, Validation Loss: 0.7002, Validation Accuracy: 76.80%
[2024-08-29 08:05:35] Epoch 2/100, Training Loss: 0.6882, Training Accuracy: 76.34%
[2024-08-29 08:05:39] Epoch 2/100, Validation Loss: 0.5754, Validation Accuracy: 81.56%
…
[2024-08-29 08:20:12] Epoch 24/100, Validation Loss: 0.2790, Validation Accuracy: 91.76%
[2024-08-29 08:20:46] Epoch 25/100, Training Loss: 0.2736, Training Accuracy: 90.52%
[2024-08-29 08:20:50] Epoch 25/100, Validation Loss: 0.2840, Validation Accuracy: 91.22%
[2024-08-29 08:21:24] Epoch 26/100, Training Loss: 0.2683, Training Accuracy: 90.70%
[2024-08-29 08:21:28] Epoch 26/100, Validation Loss: 0.2895, Validation Accuracy: 91.14%
[2024-08-29 08:22:02] Epoch 27/100, Training Loss: 0.2682, Training Accuracy: 90.70%
[2024-08-29 08:22:06] Training complete.
[2024-08-29 08:39:03] 

New training session


[2024-08-29 08:39:03] KeywordSpottingModel_with_cls(
  (proj): Linear(in_features=39, out_features=52, bias=True)
  (mamba_layers): ModuleList(
    (0): Mamba(
      (in_proj): Linear(in_features=52, out_features=208, bias=False)
      (conv1d): Conv1d(104, 104, kernel_size=(4,), stride=(1,), padding=(3,), groups=104)
      (act): SiLU()
      (x_proj): Linear(in_features=104, out_features=36, bias=False)
      (dt_proj): Linear(in_features=4, out_features=104, bias=True)
      (out_proj): Linear(in_features=104, out_features=52, bias=False)
    )
  )
  (layer_norms): ModuleList(
    (0): RMSNorm((52,), eps=None, elementwise_affine=True)
  )
  (fc): Linear(in_features=52, out_features=12, bias=True)
  (dropout): Dropout(p=0.2, inplace=False)
)
[2024-08-29 08:39:43] Epoch 1/100, Training Loss: 1.1867, Training Accuracy: 58.27%
[2024-08-29 08:39:48] Epoch 1/100, Validation Loss: 0.6473, Validation Accuracy: 78.85%
[2024-08-29 08:40:30] Epoch 2/100, Training Loss: 0.6694, Training Accuracy: 77.32%
[2024-08-29 08:40:34] Epoch 2/100, Validation Loss: 0.5370, Validation Accuracy: 82.80%
…
