[2024-08-19 11:36:05] 

New training session


[2024-08-19 11:36:05] KeywordSpottingModel(
  (proj): Linear(in_features=13, out_features=101, bias=True)
  (mamba): Mamba(
    (in_proj): Linear(in_features=101, out_features=404, bias=False)
    (conv1d): Conv1d(202, 202, kernel_size=(32,), stride=(1,), padding=(31,), groups=202)
    (act): SiLU()
    (x_proj): Linear(in_features=202, out_features=135, bias=False)
    (dt_proj): Linear(in_features=7, out_features=202, bias=True)
    (out_proj): Linear(in_features=202, out_features=101, bias=False)
  )
  (fc): Linear(in_features=101, out_features=12, bias=True)
  (dropout): Dropout(p=0.2, inplace=False)
  (batch_norm): BatchNorm1d(101, eps=1e-05, momentum=0.1, affine=True, track_running_stats=True)
)
[2024-08-19 11:51:57] Epoch 1/100, Training Loss: 0.4661, Training Accuracy: 85.37%
[2024-08-19 11:52:11] Epoch 1/100, Validation Loss: 0.4070, Validation Accuracy: 88.43%
[2024-08-19 11:52:11] Learning rate after epoch 1: [0.001]
[2024-08-19 11:53:13] 

New training session


[2024-08-19 11:53:13] KeywordSpottingModel(
  (proj): Linear(in_features=13, out_features=101, bias=True)
  (mamba): Mamba(
    (in_proj): Linear(in_features=101, out_features=404, bias=False)
    (conv1d): Conv1d(202, 202, kernel_size=(32,), stride=(1,), padding=(31,), groups=202)
    (act): SiLU()
    (x_proj): Linear(in_features=202, out_features=135, bias=False)
    (dt_proj): Linear(in_features=7, out_features=202, bias=True)
    (out_proj): Linear(in_features=202, out_features=101, bias=False)
  )
  (fc): Linear(in_features=101, out_features=12, bias=True)
  (dropout): Dropout(p=0.2, inplace=False)
  (batch_norm): BatchNorm1d(101, eps=1e-05, momentum=0.1, affine=True, track_running_stats=True)
)
[2024-08-19 11:53:38] 

New training session


[2024-08-19 11:53:38] KeywordSpottingModel(
  (proj): Linear(in_features=13, out_features=101, bias=True)
  (mamba): Mamba(
    (in_proj): Linear(in_features=101, out_features=404, bias=False)
    (conv1d): Conv1d(202, 202, kernel_size=(32,), stride=(1,), padding=(31,), groups=202)
    (act): SiLU()
    (x_proj): Linear(in_features=202, out_features=135, bias=False)
    (dt_proj): Linear(in_features=7, out_features=202, bias=True)
    (out_proj): Linear(in_features=202, out_features=101, bias=False)
  )
  (fc): Linear(in_features=101, out_features=12, bias=True)
  (dropout): Dropout(p=0.2, inplace=False)
  (batch_norm): BatchNorm1d(101, eps=1e-05, momentum=0.1, affine=True, track_running_stats=True)
)
[2024-08-19 11:54:50] 

New training session


[2024-08-19 11:54:50] KeywordSpottingModel(
  (proj): Linear(in_features=13, out_features=101, bias=True)
  (mamba): Mamba(
    (in_proj): Linear(in_features=101, out_features=404, bias=False)
    (conv1d): Conv1d(202, 202, kernel_size=(32,), stride=(1,), padding=(31,), groups=202)
    (act): SiLU()
    (x_proj): Linear(in_features=202, out_features=135, bias=False)
    (dt_proj): Linear(in_features=7, out_features=202, bias=True)
    (out_proj): Linear(in_features=202, out_features=101, bias=False)
  )
  (fc): Linear(in_features=101, out_features=12, bias=True)
  (dropout): Dropout(p=0.2, inplace=False)
  (batch_norm): BatchNorm1d(101, eps=1e-05, momentum=0.1, affine=True, track_running_stats=True)
)
[2024-08-19 11:55:28] 

New training session


[2024-08-19 11:55:28] KeywordSpottingModel(
  (proj): Linear(in_features=13, out_features=101, bias=True)
  (mamba): Mamba(
    (in_proj): Linear(in_features=101, out_features=404, bias=False)
    (conv1d): Conv1d(202, 202, kernel_size=(32,), stride=(1,), padding=(31,), groups=202)
    (act): SiLU()
    (x_proj): Linear(in_features=202, out_features=135, bias=False)
    (dt_proj): Linear(in_features=7, out_features=202, bias=True)
    (out_proj): Linear(in_features=202, out_features=101, bias=False)
  )
  (fc): Linear(in_features=101, out_features=12, bias=True)
  (dropout): Dropout(p=0.2, inplace=False)
  (batch_norm): BatchNorm1d(101, eps=1e-05, momentum=0.1, affine=True, track_running_stats=True)
)
[2024-08-19 11:55:57] 

New training session


[2024-08-19 11:55:57] KeywordSpottingModel(
  (proj): Linear(in_features=13, out_features=101, bias=True)
  (mamba): Mamba(
    (in_proj): Linear(in_features=101, out_features=404, bias=False)
    (conv1d): Conv1d(202, 202, kernel_size=(32,), stride=(1,), padding=(31,), groups=202)
    (act): SiLU()
    (x_proj): Linear(in_features=202, out_features=135, bias=False)
    (dt_proj): Linear(in_features=7, out_features=202, bias=True)
    (out_proj): Linear(in_features=202, out_features=101, bias=False)
  )
  (fc): Linear(in_features=101, out_features=12, bias=True)
  (dropout): Dropout(p=0.2, inplace=False)
  (batch_norm): BatchNorm1d(101, eps=1e-05, momentum=0.1, affine=True, track_running_stats=True)
)
[2024-08-19 12:01:07] 

New training session


[2024-08-19 12:01:07] KeywordSpottingModel(
  (proj): Linear(in_features=13, out_features=101, bias=True)
  (mamba): Mamba(
    (in_proj): Linear(in_features=101, out_features=404, bias=False)
    (conv1d): Conv1d(202, 202, kernel_size=(32,), stride=(1,), padding=(31,), groups=202)
    (act): SiLU()
    (x_proj): Linear(in_features=202, out_features=135, bias=False)
    (dt_proj): Linear(in_features=7, out_features=202, bias=True)
    (out_proj): Linear(in_features=202, out_features=101, bias=False)
  )
  (fc): Linear(in_features=101, out_features=12, bias=True)
  (dropout): Dropout(p=0.2, inplace=False)
  (batch_norm): BatchNorm1d(101, eps=1e-05, momentum=0.1, affine=True, track_running_stats=True)
)
[2024-08-19 12:10:14] Epoch 1/100, Training Loss: 0.4732, Training Accuracy: 85.15%
[2024-08-19 12:10:21] Epoch 1/100, Validation Loss: 0.4234, Validation Accuracy: 88.00%
[2024-08-19 12:10:21] Learning rate after epoch 1: [0.001]
[2024-08-19 12:19:03] Epoch 2/100, Training Loss: 0.2306, Training Accuracy: 92.59%
[2024-08-19 12:19:10] Epoch 2/100, Validation Loss: 0.4618, Validation Accuracy: 88.24%
…
