[2024-08-16 17:00:57] 

New training session


[2024-08-16 17:01:23] 

New training session


[2024-08-16 17:01:23] KeywordSpottingModel_witch_cls(
  (proj): Linear(in_features=13, out_features=102, bias=True)
  (mamba_layers): ModuleList(
    (0-1): 2 x Mamba(
      (in_proj): Linear(in_features=102, out_features=408, bias=False)
      (conv1d): Conv1d(204, 204, kernel_size=(4,), stride=(1,), padding=(3,), groups=204)
      (act): SiLU()
      (x_proj): Linear(in_features=204, out_features=39, bias=False)
      (dt_proj): Linear(in_features=7, out_features=204, bias=True)
      (out_proj): Linear(in_features=204, out_features=102, bias=False)
    )
  )
  (batch_norms): ModuleList(
    (0-1): 2 x BatchNorm1d(102, eps=1e-05, momentum=0.1, affine=True, track_running_stats=True)
  )
  (fc): Linear(in_features=102, out_features=12, bias=True)
  (dropout): Dropout(p=0.5, inplace=False)
)
[2024-08-16 17:03:39] Epoch 1/50, Training Loss: 1.2467, Training Accuracy: 65.97%
[2024-08-16 17:03:44] Epoch 1/50, Validation Loss: 0.8791, Validation Accuracy: 76.13%
[2024-08-16 17:04:50] Epoch 2/50, Training Loss: 0.7765, Training Accuracy: 75.01%
[2024-08-16 17:04:56] Epoch 2/50, Validation Loss: 0.6876, Validation Accuracy: 82.23%
…
[2024-08-17 07:43:37] Epoch 5/50, Validation Loss: 631112734646742.8750, Validation Accuracy: 64.75%
[2024-08-17 07:44:48] Epoch 6/50, Training Loss: 0.6505, Training Accuracy: 64.91%
[2024-08-17 07:44:55] Epoch 6/50, Validation Loss: 2428702.0499, Validation Accuracy: 72.29%
[2024-08-17 07:46:06] Epoch 7/50, Training Loss: 0.6059, Training Accuracy: 67.22%
[2024-08-17 07:46:13] Epoch 7/50, Validation Loss: 19628580.8811, Validation Accuracy: 73.32%
[2024-08-17 07:47:24] Epoch 8/50, Training Loss: 0.5331, Training Accuracy: 70.21%
[2024-08-17 07:47:31] Training complete.
[2024-08-17 08:09:47] 

New training session


[2024-08-17 08:09:47] KeywordSpottingModel_witch_cls(
  (proj): Linear(in_features=13, out_features=102, bias=True)
  (mamba_layers): ModuleList(
    (0): Mamba(
      (in_proj): Linear(in_features=102, out_features=408, bias=False)
      (conv1d): Conv1d(204, 204, kernel_size=(4,), stride=(1,), padding=(3,), groups=204)
      (act): SiLU()
      (x_proj): Linear(in_features=204, out_features=39, bias=False)
      (dt_proj): Linear(in_features=7, out_features=204, bias=True)
      (out_proj): Linear(in_features=204, out_features=102, bias=False)
    )
  )
  (batch_norms): ModuleList(
    (0): BatchNorm1d(102, eps=1e-05, momentum=0.1, affine=True, track_running_stats=True)
  )
  (fc): Linear(in_features=102, out_features=12, bias=True)
  (dropout): Dropout(p=0.5, inplace=False)
)
[2024-08-17 08:11:07] Epoch 1/50, Training Loss: 1.6889, Training Accuracy: 30.41%
[2024-08-17 08:11:15] Epoch 1/50, Validation Loss: 0.9710, Validation Accuracy: 48.37%
[2024-08-17 08:12:30] Epoch 2/50, Training Loss: 1.0797, Training Accuracy: 48.31%
[2024-08-17 08:12:37] Epoch 2/50, Validation Loss: 0.7476, Validation Accuracy: 62.28%
…
